outputs/seed42_classifier.pth (torch, 77465 bytes, 12 tensors)

_cnn.0.weight f4 [128, 1, 5]
0.16613583 0.7581542 0.19964413 -0.5266882 -0.31565535 0.9606862 -1.1841718 -0.7579055
-0.033271436 -0.5963592 -0.38733223 0.36669996 -0.22258927 0.6692714 0.13245995 -0.43174827
-0.24524489 0.48975438 -0.5033104 -0.46612573 0.0010378822 -0.21185338 -0.036062367 -0.2541386
0.33271524 0.4932124 -0.7335563 -1.0193626 1.0633297 0.11039195 0.12219239 0.42958862
-0.1412552 0.6716132 0.23322242 0.41025975 -0.08555625 -0.48612776 -0.34153017 -0.22302122
-0.5624026 -0.5478218 -0.4544956 -0.22657673 0.081023045 -0.40067938 0.11869747 0.033821564
-0.40526843 0.28778356 0.30276275 -0.6165711 -0.34707478 -0.17450239 0.38909566 -0.10503597
0.63748926 0.4471607 -0.14223525 0.39953065 -0.15702663 0.9340072 -1.1476266 -0.5368128
-0.36466417 -0.17217538 0.41046458 -0.22564107 0.5013472 0.20676301 -0.03234685 0.7293613
0.75010824 -0.21625672 -0.2681273 -0.13103291 0.611165 -0.28858238 -0.19038168 -0.34563017
0.35359704 -0.027631037 0.4734416 -0.39014202 -0.30032042 1.1622186 -0.3030719 -0.4742094
-0.3355603 -0.72586966 0.46540752 0.342707 0.88902634 -0.603658 -0.3566648 0.69569415
0.15426223 -0.4419992 0.3425471 0.2104963 0.022304228 0.05024357 0.2466376 0.2646924
0.20219798 0.276898 0.2864868 0.37649298 0.11530831 -0.13211595 -0.3292824 -0.007884322
0.11481845 -0.39434305 -0.038273808 0.8363899 -0.42689776 0.32579544 -0.3953745 0.3535721
0.3810082 -0.1875121 -0.14098206 -0.1090676 0.054958586 0.17600286 0.5678684 0.522969
-0.5383472 0.3541078 -0.11418895 -0.1295613 -0.14962459 -0.11727788 -0.06961296 -0.18115015
0.44559044 -1.0561677 -0.6180201 -0.5803427 -0.06741444 0.09697694 0.47511336 0.87876624
-0.27293184 -0.21289465 -0.23796992 -0.24792483 -0.1301981 0.7179431 0.31737065 -0.38118476
-0.22674249 0.34208018 -0.4231327 0.58115065 -1.0364547 -0.2886301 -1.0188304 -0.5141512
-0.36763 0.16813008 0.59470034 -0.14397119 -0.12079495 -0.78814954 -0.23748155 0.25034383
-0.052640427 0.88335043 0.18772121 1.0140791 -0.13993646 0.067152984 -0.7396557 -0.13749127
-0.13037072 -0.32574996 -0.11389786 0.33933818 0.2720209 -0.060073018 0.05075295 -0.23512314
0.19593774 0.07973333 0.85768217 0.10300036 0.5485742 0.21925077 -0.026874647 0.39600563
-0.18584119 0.19272214 0.78477424 -0.87976485 0.3677973 -0.7459902 0.4712844 0.48858607
0.57389057 0.37439665 0.042074006 0.31739613 0.26935157 -0.55458194 -0.16023909 0.520532
0.8856458 -0.66069156 -0.94947237 -0.34820336 0.9926181 0.19456209 0.06100932 -0.29488486
0.39623743 -0.23484716 -0.059472717 0.73095185 0.15323557 0.6478722 -0.69166934 -0.48110715
-0.24560367 -0.22121586 -0.35753474 -0.7628844 0.24750544 0.29141682 0.6142219 0.019348051
0.6981162 1.0168988 -0.7967697 0.48535407 0.104408786 1.0571474 -0.6310214 -0.08250386
-0.3816316 0.5325565 0.17995802 -0.19079009 -0.30878758 -0.23853241 -0.7930727 0.64442974
0.12917742 0.6454573 -1.0132399 -0.38642812 -0.92258227 -0.31348374 0.503671 -0.4271713
00000000: 831f 2a3e 6516 423f 836f 4c3e 0ad5 06bf
00000010: 949d a1be 88ef 753f f192 97bf 1806 42bf
00000020: a147 08bd ffaa 18bf 6950 c6be 19c0 bb3e
00000030: 71ee 63be 5f55 2b3f 95a3 073e 1c0e ddbe
00000040: 7a21 7bbe 16c1 fa3e f3d8 00bf 08a8 eebe
00000050: 8c09 883a 18f0 58be 22b6 13bd 741e 82be
00000060: a759 aa3e 5686 fc3e 58ca 3bbf 797a 82bf
00000070: 301b 883f 2d15 e23d 0140 fa3d 0af3 db3e
00000080: 34a5 10be d8ee 2b3f dcd1 6e3e 910d d23e
00000090: 1d38 afbd bde5 f8be 0bdd aebe ad5f 64be
000000a0: 9ef9 0fbf 0d3e 0cbf a6b3 e8be bb03 68be
000000b0: 69ef a53d d925 cdbe a917 f33d 7b88 0a3d
000000c0: 587f cfbe 5e58 933e b803 9b3e 9bd7 1dbf
000000d0: c9b3 b1be c1b0 32be 8c37 c73e 191d d7bd
000000e0: 7f32 233f 3ff2 e43e 1ea6 11be 488f cc3e
000000f0: 97cb 20be 191b 6f3f 6ee5 92bf 906c 09bf
00000100: 43b5 babe be4e 30be 6a28 d23e 740e 67be
00000110: 4a58 003f afb9 533e 217e 04bd 6cb7 3a3f
00000120: 1807 403f 6772 5dbe fb47 89be 7e2d 06be
00000130: 4f75 1c3f 12c1 93be 6af3 42be 70f6 b0be
00000140: ac0a b53e 7c5a e2bc f066 f23e b2c0 c7be
00000150: 99c3 99be 94c3 943f 3d2c 9bbe 93cb f2be
00000160: 8fce abbe 98d2 39bf e549 ee3e 4b77 af3e
00000170: 3b97 633f 5589 1abf c59c b6be 0319 323f
00000180: ebf6 1d3e b84d e2be 5562 af3e 588c 573e
00000190: 5bb7 b63c 34cc 4d3d 918e 7c3e c385 873e
000001a0: fd0c 4f3e 93c5 8d3e 66ae 923e b0c3 c03e
000001b0: c326 ec3d 6749 07be b497 a8be 3e2d 01bc
000001c0: ef25 eb3d 55e7 c9be ffc4 1cbd a61d 563f
000001d0: 5892 dabe a9ce a63e 876e cabe 6707 b53e
000001e0: 8213 c33e 2c03 40be 9a5d 10be d55e dfbd
000001f0: 411c 613d 183a 343e d35f 113f 4ce1 053f
00000200: 1fd1 09bf 9e4d b53e e5db e9bd b8ab 04be
00000210: 3037 19be 632f f0bd 3d91 8ebd 6d7f 39be
00000220: 6e24 e43e 8130 87bf 9136 1ebf 5791 14bf
00000230: 9510 8abd d99b c63d 0f42 f33e d3f6 603f
00000240: b9bd 8bbe 0e01 5abe 63ae 73be 02e0 7dbe
00000250: a752 05be 1ecb 373f 687e a23e a62a c3be
00000260: 2f2f 68be 2225 af3e d9a4 d8be 4ac6 143f
00000270: 8caa 84bf 53c7 93be 0969 82bf 6a9f 03bf
00000280: 003a bcbe 4b2a 2c3e 483e 183f 2f6d 13be
00000290: 5863 f7bd 2bc4 49bf 5d2e 73be 112d 803e
000002a0: 7d9d 57bd 4123 623f fd39 403e 58cd 813f
000002b0: 814b 0fbe 8187 893d 135a 3dbf 83ca 0cbe
000002c0: e77f 05be b3c8 a6be 4843 e9bd bcbd ad3e
000002d0: 5346 8b3e 200f 76bd 53e2 4f3d 1fc4 70be
000002e0: e7a3 483e 3a4b a33d 0f91 5b3f daf1 d23d
000002f0: 5c6f 0c3f 4683 603e 3828 dcbc 40c1 ca3e
00000300: 274d 3ebe f458 453e f7e6 483f 4538 61bf
00000310: ed4f bc3e 37f9 3ebf 304c f13e f427 fa3e
00000320: 7eea 123f ebb0 bf3e cb55 2c3d bf81 a23e
00000330: 73e8 893e 15f9 0dbf b715 24be 9641 053f
00000340: afb9 623f 1523 29bf 9f10 73bf b647 b2be
00000350: 381c 7e3f 493b 473e e9e4 793d 26fb 96be
00000360: a2df ca3e c67b 70be aa99 73bd a91f 3b3f
00000370: c9e9 1c3e f4da 253f 3e11 31bf ad53 f6be
00000380: 877f 7bbe 6986 62be cb0e b7be 644c 43bf
00000390: 1172 7d3e 9634 953e a53d 1d3f ce7f 9e3c
000003a0: beb7 323f bd29 823f 19f9 4bbf 5480 f83e
000003b0: 46d4 d53d 9b50 873f 9e8a 21bf c9f7 a8bd
000003c0: 3865 c3be 9f55 083f ea46 383e 7a5e 43be
000003d0: 6819 9ebe d741 74be d006 4bbf 59f9 243f
000003e0: 1647 043e b13c 253f d8b1 81bf e8d9 c5be
000003f0: 5a2e 6cbf f180 a0be 95f0 003f 32b6 dabe

_cnn.0.bias f4 [128]
-0.0013089014 0.09110657 -0.05566754 0.046741214 0.28586647 5.40172e-05 -0.18607478 -0.012069175
0.007359583 -0.12806183 -0.11709339 -0.2499944 0.05581013 -0.117763 -0.049195822 -0.10762481
-0.18201183 0.030575415 -0.033726778 0.06852152 0.17352347 0.04612877 -0.060647592 0.34110054
-0.10158834 -0.18099542 0.10861269 0.14199878 -0.15206048 -0.023620134 0.25516903 0.10240009
-0.16011462 0.14237368 -0.017952347 -0.11718743 -0.18771002 -0.07675584 -0.0734841 0.25772446
-0.13208112 -1.0670341e-05 0.0014052175 0.05182368 0.30366537 0.04477497 -0.06470169 0.426092
0.036577202 0.28835282 0.11821786 -0.052885566 -0.12229459 -0.04854635 -0.047311727 -0.20957464
0.24680628 0.44383797 -0.09198992 -0.04322259 0.14821585 -0.20179985 0.33623356 -0.117429025
-0.0201821 -0.10885671 0.20294487 -0.07958109 -0.019792596 -0.04794554 -0.10386826 0.06674056
0.033530556 -0.13695294 0.12076007 -0.15227456 0.09317509 -0.04584973 -0.25056 0.103992596
-0.080050774 0.07324805 0.011424471 -0.114612706 0.14679608 -0.20044133 0.00782951 -0.14185022
-0.17655079 0.32864016 -0.036090758 -0.12768619 -0.029706962 -0.08819792 0.057461128 -0.03585459
0.21359608 -0.17554675 0.0040733586 0.08186453 0.26409185 -0.0051586144 -0.014268433 -0.18510742
0.2333273 -0.08829622 0.040422976 -0.0038290129 -0.12536314 0.07265899 0.06986567 0.24312349
-0.014226767 -0.0746694 -0.11634127 0.0036004207 -0.035732687 0.033457328 0.0397517 0.109510615
-0.17942627 -0.030818315 -0.09081495 0.16781548 0.4438854 -0.21465498 -0.220976 -0.15545173
00000000: 718f abba 1596 ba3d a503 64bd b773 3f3d
00000010: 175d 923e 8790 6238 638a 3ebe cabd 45bc
00000020: a828 f13b a422 03be a9ce efbd 88fe 7fbe
00000030: 2a99 643d ba2d f1bd 8f81 49bd 656a dcbd
00000040: 4f61 3abe 4b79 fa3c 1725 0abd 0355 8c3d
00000050: 23b0 313e 85f1 3c3d 9c69 78bd bba4 ae3e
00000060: 8c0d d0bd dd56 39be 5470 de3d 2168 113e
00000070: beb5 1bbe 037f c1bc 84a5 823e 23b7 d13d
00000080: 16f5 23be 68ca 113e cd10 93bc f7ff efbd
00000090: 0e37 40be 2a32 9dbd d57e 96bd 76f4 833e
000000a0: 4640 07be c404 33b7 462f b83a 1145 543d
000000b0: 077a 9b3e f565 373d 5282 84bd bb28 da3e
000000c0: fad1 153d fba2 933e 351c f23d 899e 58bd
000000d0: 9675 fabd 8ad8 46bd f1c9 41bd bc9a 56be
000000e0: c9ba 7c3e bb3e e33e 3665 bcbd 2c0a 31bd
000000f0: e5c5 173e 9fa4 4ebe ce26 ac3e a17e f0bd
00000100: ee54 a5bc 44f0 debd c8d0 4f3e 69fb a2bd
00000110: 1524 a2bc 8b62 44bd e2b8 d4bd 46af 883d
00000120: 5657 093d 643d 0cbe 0e51 f73d dded 1bbe
00000130: 95d2 be3d edcc 3bbd 6649 80be 12fa d43d
00000140: a9f1 a3bd 1303 963d b42d 3b3c 11ba eabd
00000150: b651 163e 7e40 4dbe 5847 003c 2f41 11be
00000160: bbc9 34be 8643 a83e e7d3 13bd 2bc0 02be
00000170: 045c f3bc 1ca1 b4bd 5c5c 6b3d 43dc 12bd
00000180: eeb8 5a3e 87c2 33be cf79 853b 97a8 a73d
00000190: 0c37 873e 9809 a9bb 25c6 69bc cd8c 3dbe
000001a0: 5aed 6e3e a6d4 b4bd 9092 253d 2df0 7abb
000001b0: 325f 00be 3dce 943d bb15 8f3d 5df5 783e
000001c0: 6317 69bc 45ec 98bd 5544 eebd 09f5 6b3b
000001d0: 705c 12bd 8d0a 093d aed2 223d 1a47 e03d
000001e0: 85bb 37be b176 fcbc 30fd b9bd d2d7 2b3e
000001f0: f244 e33e 84ce 5bbe 8847 62be bd2e 1fbe

_classifier.1._gate.1.weight f4 [32, 256]
0.004568422 -0.014534274 -0.062500976 0.012744732 0.043604046 0.11065238 0.07264168 -0.039520763
0.0813619 0.088389985 0.011975507 0.031373728 -0.07551413 -0.019389814 0.045043986 0.0038382753
-0.053715598 -0.04758751 0.08969495 -0.048295513 0.022228979 0.030258473 -0.0036654538 -0.030831074
0.034172267 0.058097586 0.022832198 -0.056931265 0.04514244 0.029452547 0.0001056992 -0.007129927
0.0049036588 -0.044725396 0.085272215 -0.037786167 -0.01990103 -0.006480276 0.15675978 0.029064499
-0.071782194 0.054464936 0.19196482 0.10689576 0.038255762 -0.102749415 0.09059668 -0.11301139
0.1002247 -0.0029622058 0.03727163 -0.0019834533 -0.028679729 -0.0114790695 -0.05202735 0.028876856
-0.11574277 0.030254086 0.00019208723 0.10133321 0.03471197 0.00926261 0.04079913 -0.013922966
0.048843257 0.104786225 -0.066767134 0.054348595 -0.0746408 0.058749456 -0.02594657 0.114829205
0.003094087 0.1401897 -0.08167578 -0.023416227 -0.05523396 -0.07078359 0.02027961 -0.0010208217
0.114388615 -0.013699462 0.14895631 0.0057826284 0.056094714 0.015892588 0.11209418 -0.0034172065
-0.07046753 0.050634388 -0.01881184 -0.0075252955 0.019684702 0.036520146 -0.0279304 0.07243171
-0.04063033 -0.012056226 0.021034103 0.057504144 0.11415192 0.13338079 -0.014007595 0.03591778
-0.0401421 0.17511639 -0.005539767 0.011088473 -0.020543925 -0.05389748 -0.010443411 0.008675606
0.13068788 -0.09386734 0.15895502 0.14312385 -0.06036168 -0.03467037 0.0309039 -0.11442384
-0.054510266 -0.015306319 0.05887632 0.06083879 -0.025245974 -0.0076864786 -0.043020647 0.01038337
-0.06571141 -0.14345217 0.0047831433 -0.1488828 0.020005649 -0.95350236 -0.122479975 0.09815296
-0.039281283 -0.06770466 -0.021301342 -0.057222825 -0.5827785 0.052031774 -0.02442243 -0.07073718
-0.07404853 -0.86205894 -0.26232958 0.019075383 -0.0018789142 -0.09577975 0.01900014 -0.03412929
-0.09519331 -0.031262998 0.010202033 -0.042674843 0.087734066 0.05175046 -0.08295528 -0.22353068
0.009538739 0.006800826 -0.28067487 0.04112593 -0.05432594 -0.2561568 -0.15751956 -0.017533496
-0.0033785696 -0.3431989 -0.54964495 0.017009078 0.0008958957 -0.3079351 -0.2355659 -0.05203495
0.062300913 -0.06647069 -0.19153462 0.09944049 0.04799326 -0.2583569 0.105851494 -0.06832391
0.014362816 0.03769319 0.07923103 -0.53497326 -0.2985011 -0.0027869465 0.0071506514 -0.26626387
-0.099124484 -0.082348645 -0.02649153 -0.1882953 -0.0994772 0.11781218 -0.094030485 -0.48024258
-0.19402824 -0.32903722 -0.15098135 -0.0040343935 -0.16331573 -0.18546146 -0.0645981 -0.16456324
-0.12299665 -0.18328671 -0.31740883 -0.03957398 -0.028679125 0.021232888 -0.030604485 0.087026656
-0.0017509924 0.11025038 -0.19244015 -0.07477623 -0.08668564 -0.16889797 -0.06465859 -0.16970563
-0.06610656 -0.009578128 -0.424413 -0.10637415 -0.09942621 -0.36301234 -0.009053536 -0.051933065
0.00017011618 -0.10269243 -0.48949626 -0.5181605 0.07713529 -0.071306296 -0.32949257 0.03029886
-0.23134325 -0.006853705 -0.28316015 -0.20949563 0.0049656117 -0.015812395 -0.25178435 0.10544576
0.05521861 -0.3252276 -0.10637108 -0.05801193 -0.019399133 -0.061577026 0.018032052 -0.036103122
00000000: b4b2 953b 2a21 6ebc 8300 80bd 48cf 503c
00000010: 289a 323d b79d e23d 29c5 943d 86e0 21bd
00000020: 11a1 a63d cf05 b53d eb34 443c bd81 003d
00000030: 27a7 9abd 63d7 9ebc 0b80 383d 938b 7b3b
00000040: e304 5cbd 1feb 42bd fcb1 b73d 84d1 45bd
00000050: 8c19 b63c 9ee0 f73c 1c38 70bb 7391 fcbc
00000060: 38f8 0b3d bcf7 6d3d 970a bb3c c230 69bd
00000070: 47e7 383d 7846 f13c d3aa dd38 2aa2 e9bb
00000080: dfae a03b fa31 37bd 33a3 ae3d abc5 1abd
00000090: 7c07 a3bc 7f58 d4bb a385 203e ac18 ee3c
000000a0: 8b02 93bd a016 5f3d 6d92 443e 2aec da3d
000000b0: 13b2 1c3d 496e d2bd c18a b93d 8472 e7bd
000000c0: 9c42 cd3d 9121 42bb 23aa 183d d3fc 01bb
000000d0: c0f1 eabc b512 3cbc a11a 55bd 288f ec3c
000000e0: 8c0a edbd 6bd7 f73c 066b 4939 c987 cf3d
000000f0: 232e 0e3d 34c2 173c fd1c 273d 271d 64bc
00000100: de0f 483d 299a d63d 35bd 88bd a29c 5e3d
00000110: 47dd 98bd 45a3 703d e78d d4bc 932b eb3d
00000120: 2ac6 4a3b e48d 0f3e a245 a7bd 63d3 bfbc
00000130: 013d 62bd fdf6 90bd 6d21 a63c 18cd 85ba
00000140: 9444 ea3d b573 60bc 0188 183e 347c bd3b
00000150: 92c3 653d 2c31 823c a291 e53d 36f3 5fbb
00000160: 4851 90bd 0166 4f3d 4a1b 9abc c196 f6bb
00000170: d041 a13c 2696 153d 4bce e4bc 1457 943d
00000180: fd6b 26bd 7a87 45bc b64f ac3c 7789 6b3d
00000190: 7bc8 e93d f994 083e 1d80 65bc 861e 133d
000001a0: 0b6c 24bd b651 333e ef86 b5bb 6dac 353c
000001b0: bc4b a8bc 9bc3 5cbd d71a 2bbc 2124 0e3c
000001c0: 0bd3 053e 853d c0bd 1bc5 223e 0f8f 123e
000001d0: cf3d 77bd 8502 0ebd 2d2a fd3c 0c57 eabd
000001e0: 2846 5fbd 5bc7 7abc 4c28 713d 1832 793d
000001f0: a5d0 cebc dbde fbbb 6b36 30bd 031f 2a3c
00000200: b493 86bd 20e5 12be eabb 9c3b bc74 18be
00000210: e3e2 a33c bb18 74bf c8d6 fabd 6b04 c93d
00000220: 69e5 20bd bea8 8abd 2780 aebc 7b62 6abd
00000230: f930 15bf 451f 553d 8c11 c8bc a8de 90bd
00000240: c1a6 97bd e5af 5cbf 1050 86be fa43 9c3c
00000250: e645 f6ba 2c28 c4bd 2ea6 9b3c 28cb 0bbd
00000260: b6f4 c2bd a10d 00bd 6e26 273c d1cb 2ebd
00000270: ebad b33d 4af8 533d 75e4 a9bd 3ae5 64be
00000280: 5f48 1c3c 77d9 de3b 9eb4 8fbe aa73 283d
00000290: e084 5ebd fc26 83be cf4c 21be 68a2 8fbc
000002a0: fe6a 5dbb c4b7 afbe 88b5 0cbf 9f56 8b3c
000002b0: 8bda 6a3a aba9 9dbe 3038 71be 9a22 55bd
000002c0: 3e2f 7f3d c921 88bd a721 44be 75a7 cb3d
000002d0: 9594 443d 5b47 84be abc8 d83d 68ed 8bbd
000002e0: 0452 6b3c 2d64 1a3d e143 a23d 02f4 08bf
000002f0: 23d5 98be 34a5 36bb 0350 ea3b bd53 88be
00000300: c701 cbbd 68a6 a8bd c404 d9bc 7cd0 40be
00000310: b4ba cbbd 8347 f13d 0e93 c0bd 5be2 f5be
00000320: 57af 46be 9177 a8be db9a 1abe f232 84bb
00000330: 3d3c 27be 9ce9 3dbe 024c 84bd 4483 28be
00000340: abe5 fbbd 83af 3bbe 6983 a2be 5318 22bd
00000350: 7cf0 eabc 98f0 ad3c 42b6 fabc 083b b23d
00000360: 8e81 e5ba f4ca e13d 080f 45be 4824 99bd
00000370: 3e88 b1bd 97f3 2cbe b96b 84bd 50c7 2dbe
00000380: e062 87bd 95ed 1cbc a94c d9be b1da d9bd
00000390: f89f cbbd c1dc b9be 4855 14bc c4b7 54bd
000003a0: 3761 3239 6950 d2bd 419f fabe 2ba6 04bf
000003b0: 1bf9 9d3d 0909 92bd 40b3 a8be 5135 f83c
000003c0: 3fe5 6cbe 0b95 e0bb 5efa 90be 0686 56be
000003d0: 92b6 a23b ff88 81bc e1e9 80be f2f3 d73d
000003e0: e92c 623d 3b84 a6be 15d9 d9bd eb9d 6dbd
000003f0: eeea 9ebc 3138 7cbd f4b7 933c dee0 13bd

_classifier.1._gate.1.bias f4 [32]
0.02483877 0.0563949 0.017515734 -0.044629388 0.0063858693 0.007708978 0.033336528 0.027880156
-0.01630504 0.006029193 -0.018096514 -0.010948204 0.0023340534 -0.010841308 -0.03504864 -0.0074683633
-0.021734897 0.05270297 0.025520174 -0.056143537 0.031730168 0.041702274 0.075053655 0.043688595
0.025976654 0.017407004 -0.06158871 0.059377335 -0.034390807 -0.038745992 0.002145432 -0.007903885
00000000: ad7a cb3c 57fe 663d 287d 8f3c 4ecd 36bd
00000010: 8e40 d13b 989b fc3b e28b 083d ed64 e43c
00000020: 2692 85bc 8990 c53b 243f 94bc 1960 33bc
00000030: ebf6 183b be9f 31bc 2a8f 0fbd 2cb9 f4bb
00000040: 620d b2bc 12df 573d af0f d13c c4f6 65bd
00000050: 7ef7 013d 01d0 2a3d bbb5 993d d0f2 323d
00000060: fecc d43c 2299 8e3c 7144 7cbd a635 733d
00000070: 60dd 0cbd 1eb4 1ebd 609a 0c3b 4c7f 01bc

_classifier.1._gate.2.weight f4 [32]
1.2268203 1.4232571 1.0135016 1.1395637 1.260637 1.3745452 1.0240772 1.3227245
1.0107975 1.2228762 1.2453012 1.1465169 1.3765323 1.2122298 1.36558 1.0858958
1.2983996 1.1443537 1.0973054 1.2565178 1.2130263 1.0977886 1.4564879 1.3838654
1.2633821 0.97735906 1.1486689 1.2129917 1.0819112 1.2976036 1.0577534 1.2947679
00000000: 7308 9d3f 4a2d b63f 6cba 813f 39dd 913f
00000010: 8e5c a13f 19f1 af3f f614 833f 094f a93f
00000020: d061 813f 3587 9c3f 0866 9f3f 11c1 923f
00000030: 3632 b03f 592a 9b3f 53cb ae3f a2fe 8a3f
00000040: f531 a63f 2f7a 923f 8174 8c3f 93d5 a03f
00000050: 7244 9b3f 5684 8c3f 326e ba3f 8022 b13f
00000060: 81b6 a13f 3434 7a3f 9507 933f 5043 9b3f
00000070: 117c 8a3f e017 a63f 7764 873f f4ba a53f

_classifier.1._gate.2.bias f4 [32]
0.037759818 0.5917875 -0.056404542 -0.037337642 0.075757444 0.026829578 -0.13579664 0.019732071
0.019510332 0.11970288 0.027880337 0.012541308 0.5415467 -0.0128121395 0.08146871 -0.08477089
0.087139 0.021839416 -0.122762315 0.11810805 0.07316216 -0.0017079948 0.6235825 0.09005502
0.14458202 -0.23326623 -0.007911083 0.08681215 0.005630623 0.05752357 0.06588848 0.13340175
00000000: 0aaa 1a3d 637f 173f 7308 67bd 5bef 18bd
00000010: b826 9b3d b4c9 db3c 460e 0bbe 27a5 a13c
00000020: 22d4 9f3c c926 f53d 4e65 e43c 0f7a 4d3c
00000030: cea2 0a3f 02ea 51bc 11d9 a63d 5c9c adbd
00000040: ef75 b23d 93e8 b23c cf6a fbbd a2e2 f13d
00000050: 0bd6 953d ccde dfba 1aa3 1f3f c46e b83d
00000060: 4f0d 143e 58dd 6ebe 7d9d 01bc 92ca b13d
00000070: 1781 b83b d69d 6b3d 8af0 863d 789a 083e

_classifier.1._gate.2.running_mean f4 [32]
-0.24301603 0.15211937 -0.52784747 -0.31085557 -0.063794136 -0.3061137 0.0095585985 -0.2880872
-0.12852177 -0.23141181 -0.16434692 -0.23794296 -0.0665839 -0.20072925 -0.31528538 -0.39539194
-0.19014047 0.07566983 -0.15633222 -0.26742098 -0.22338718 -0.09526001 0.25139022 -0.08454397
0.09160219 0.11853763 -0.29330024 -0.065196864 -0.0837231 -0.13004877 -0.3254147 -0.26275364
00000000: 32d9 78be 2ec5 1b3e 0321 07bf 7628 9fbe
00000010: 80a6 82bd efba 9cbe ab9b 1c3c 2a80 93be
00000020: 369b 03be 38f7 6cbe 8f4a 28be 52a7 73be
00000030: 245d 88bd f88b 4dbe 166d a1be d070 cabe
00000040: 2fb4 42be c9f8 9a3d 8e15 20be 67eb 88be
00000050: 9cbf 64be ae17 c3bd 38b6 803e 6425 adbd
00000060: ee99 bb3d dbc3 f23d 732b 96be ef85 85bd
00000070: 0477 abbd 812b 05be c19c a6be a587 86be

_classifier.1._gate.2.running_var f4 [32]
0.020300018 0.035387322 0.023934951 0.023357626 0.024100406 0.021118164 0.021435117 0.02519479
0.016842792 0.023186635 0.023314971 0.027852347 0.046489816 0.024756748 0.024714485 0.018096002
0.021714471 0.025660202 0.020755548 0.021477634 0.0196825 0.021958273 0.03816526 0.022491593
0.021202238 0.02871396 0.022989485 0.02380122 0.02028857 0.021142893 0.01860442 0.025445422
00000000: 394c a63c 4cf2 103d 3b13 c43c 7e58 bf3c
00000010: 376e c53c 0000 ad3c b398 af3c 4e65 ce3c
00000020: e5f9 893c e6f1 bd3c 0aff be3c 9b2a e43c
00000030: 1b6c 3e3d aace ca3c 0876 ca3c 113e 943c
00000040: 8ce2 b13c 5835 d23c 8a07 aa3c ddf1 af3c
00000050: 323d a13c d6e1 b33c 2d53 1c3d 4a40 b83c
00000060: 51b0 ad3c 8a39 eb3c 7254 bc3c c7fa c23c
00000070: 3734 a63c dc33 ad3c 4c68 983c eb72 d03c

_classifier.1._gate.4.weight f4 [256, 32]
-0.22375686 0.13767785 -0.19875659 -0.012280376 -0.14237146 -0.10903559 -0.22607782 -0.20492487
0.0429522 -0.19280253 -0.2875673 -0.091397546 0.18769827 -0.20357783 -0.03842645 -0.18558879
-0.22681424 -0.020805417 -0.002884406 -0.07853685 -0.045852028 -0.078937665 0.27717036 -0.19672047
-0.32761183 -0.113200836 -0.011037082 -0.17702588 -0.13305728 -0.11090931 -0.22555055 -0.19434091
-0.087367564 -0.26713777 -0.0065408587 -0.010055811 0.014782116 0.08520114 0.16378736 0.06911962
0.03499494 0.07295137 0.22898062 0.11013282 -0.2541618 0.08228438 0.10561167 0.09183679
0.2775262 -0.032762192 0.12837006 0.1648379 0.12950131 0.1835975 -0.54795235 0.22481726
0.044463944 -0.11492915 0.18997641 0.2031618 0.16279866 0.19863415 0.116446264 0.19462124
0.1971007 -0.12569305 -0.04962015 0.093785286 0.05501808 0.11920785 0.19597137 -0.02542009
-0.060644433 0.24836247 0.052021086 0.17670289 -0.40257636 0.18044378 0.23587209 -0.06727503
-0.0024667904 0.19214113 0.08465098 -0.045961305 0.17140807 0.19876847 -0.22947489 -0.0001586242
0.09489646 0.18940493 0.0696472 0.21146144 0.1272778 0.13517809 -0.0036698305 0.060961977
0.18162091 -0.3926134 0.052817818 0.08153769 0.08686726 0.14168432 0.1851209 0.07506708
0.16657089 0.08048632 0.08345106 0.24731457 -0.12764423 0.1994797 0.33294746 0.024119636
0.18734467 0.11540655 0.26145127 0.331265 0.34886095 0.18931581 -0.34592122 0.32122877
0.35550943 0.03473698 0.114652134 0.019118492 -0.042382445 0.244445 0.24155952 0.08254188
-0.14922518 0.4572928 -0.20157515 -0.21065736 -0.101734355 -0.15875022 -0.17534475 -0.08959829
0.033919446 -0.23127389 -0.062071197 -0.12374726 0.5329699 -0.3310617 -0.25427568 0.07139531
-0.17225128 -0.34986904 -0.2587765 -0.123752065 -0.066408075 -0.20978841 0.2882932 -0.23310217
-0.20102562 -0.14358693 -0.28664598 -0.02926171 -0.20737152 -0.21840873 -0.22638477 -0.36378452
0.13166068 -0.28930965 0.11317685 -0.058769718 0.28581345 0.17482445 0.056238912 0.29514822
0.19840552 -0.0018759526 0.18369412 0.022495996 -0.2974908 0.28477556 -0.0015521966 0.19856152
0.3183326 -0.031087715 0.19849154 0.06154097 0.027429134 0.11235266 -0.11927883 0.2526937
0.019013656 0.10727193 -0.0016317385 0.09097459 0.12747091 0.2522775 0.03780741 0.31269452
-0.04221635 0.5577895 -0.17322762 -0.2461414 -0.19208841 -0.2922746 -0.08458262 -0.06580756
0.108852014 -0.18875147 -0.28821716 -0.2590803 0.1592548 -0.21470976 -0.3171437 0.049461037
-0.30133927 -0.35271788 -0.14500682 -0.18573995 -0.037162863 -0.1684971 0.37120473 -0.2343238
-0.20432906 -0.17184272 -0.07814844 -0.00483473 0.028770098 -0.17031752 -0.015702138 -0.10741547
0.035852518 -0.26573354 0.2619052 0.18924336 0.1352656 0.087969616 0.059623446 0.16357775
0.18229797 0.12635402 0.0607599 0.0106753865 -0.27064794 0.15036678 0.19437976 0.21092911
0.20274287 -0.0343234 0.21454595 0.10310962 0.046107747 0.23251355 -0.27168632 0.35480452
0.14244308 0.15970485 0.15208466 0.16101073 -0.011968903 0.1607386 0.054373235 0.22495414
00000000: 8520 65be 6cfb 0c3e d986 4bbe a133 49bc
00000010: d3c9 11be 0d4e dfbd f280 67be d3d7 51be
00000020: a5ee 2f3d 076e 45be 053c 93be a32e bbbd
00000030: fa33 403e b576 50be 0e65 1dbd fd0a 3ebe
00000040: fe41 68be 1f70 aabc 4d08 3dbb eed7 a0bd
00000050: 56cf 3bbd 12aa a1bd 46e9 8d3e 1771 49be
00000060: bdbc a7be d7d5 e7bd e1d4 34bc 4646 35be
00000070: 2b40 08be 6c24 e3bd b9f6 66be 4e01 47be
00000080: c4ed b2bd 48c6 88be b354 d6bb 21c1 24bc
00000090: b030 723c ef7d ae3d e0b7 273e 968e 8d3d
000000a0: db56 0f3d 8767 953d e579 6a3e 518d e13d
000000b0: 7f21 82be b784 a83d ee4a d83d ed14 bc3d
000000c0: ea17 8e3e a631 06bd 7173 033e 44cb 283e
000000d0: fe9b 043e fc00 3c3e 9b46 0cbf 7f36 663e
000000e0: d31f 363d f95f ebbd 2d89 423e a609 503e
000000f0: b1b4 263e c066 4b3e 617b ee3d ca4a 473e
00000100: c4d4 493e aeb5 00be 803e 4bbd 8012 c03d
00000110: a35a 613d 3f23 f43d b8ac 483e cb3d d0bc
00000120: 4c66 78bd bb52 7e3e 1014 553d 9af1 343e
00000130: 7d1e cebe 41c6 383e 7488 713e 7ec7 89bd
00000140: e0a9 21bb a5c0 443e 7e5d ad3d ec41 3cbd
00000150: 9985 2f3e f689 4b3e 77fb 6abe 5c54 26b9
00000160: 1359 c23d 5ef3 413e 31a3 8e3d 5989 583e
00000170: 1d55 023e 206c 0a3e 8a81 70bb 44b3 793d
00000180: d5fa 393e a004 c9be 7f57 583d 3bfd a63d
00000190: 76e7 b13d b215 113e 5590 3d3e c5bc 993d
000001a0: 8f91 2a3e 03d6 a43d 64e8 aa3d 0840 7d3e
000001b0: 2bb5 02be 6844 4c3e 1778 aa3e 8b96 c53c
000001c0: 48d7 3f3e 455a ec3d f1dc 853e 919b a93e
000001d0: e79d b23e 01dc 413e 961c b1be 1978 a43e
000001e0: 5505 b63e 5d48 0e3d bdce ea3d 629e 9c3c
000001f0: 3799 2dbd ca4f 7a3e 615b 773e b80b a93d
00000200: 7cce 18be 4822 ea3e b769 4ebe 90b6 57be
00000210: 1a5a d0bd 6b8f 22be 938d 33be 4f7f b7bd
00000220: 1eef 0a3d 10d3 6cbe 5e3e 7ebd 346f fdbd
00000230: b770 083f eb80 a9be 6c30 82be b437 923d
00000240: a462 30be 0922 b3be 5a7e 84be b971 fdbd
00000250: f500 88bd c6d2 56be 2b9b 933e 56b2 6ebe
00000260: a9d9 4dbe 7408 13be 43c3 92be 41b6 efbc
00000270: 3359 54be 8aa6 5fbe 69d1 67be f741 babe
00000280: 0fd2 063e 6520 94be 44c9 e73d 84b8 70bd
00000290: 2456 923e 2e05 333e c65a 663d ab1d 973e
000002a0: d12a 4b3e 86e2 f5ba 501a 3c3e 8649 b83c
000002b0: b750 98be 1ace 913e 1373 cbba b653 4b3e
000002c0: 7efc a23e aaab febc 5e41 4b3e 6212 7c3d
000002d0: 10b3 e03c 2719 e63d 7648 f4bd 1261 813e
000002e0: 87c2 9b3c 63b1 db3d 0fe0 d5ba e350 ba3d
000002f0: bc87 023e 842a 813e f1db 1a3d 7f19 a03e
00000300: 0deb 2cbd 4bcb 0e3f 9562 31be 7e0c 7cbe
00000310: d3b2 44be 04a5 95be a739 adbd 1dc6 86bd
00000320: ceed de3d 1148 41be 3391 93be 2ca6 84be
00000330: b113 233e e0dc 5bbe a960 a2be a897 4a3d
00000340: 2449 9abe 7097 b4be ab7c 14be 9d32 3ebe
00000350: 1638 18bd 818a 2cbe 8c0e be3e 94f2 6fbe
00000360: a33b 51be 8af7 2fbe 4a0c a0bd a86c 9ebb
00000370: 45af eb3c b767 2ebe c5a1 80bc a4fc dbbd
00000380: 17da 123d 3a0e 88be 7018 863e 03c9 413e
00000390: 1183 0a3e 6a29 b43d b737 743d ed80 273e
000003a0: 52ac 3a3e f362 013e 5fdf 783d d1e7 2e3c
000003b0: 5e92 8abe c0f9 193e 7d0b 473e cdfd 573e
000003c0: d49b 4f3e b296 0cbd efb1 5b3e 232b d33d
000003d0: 7adb 3c3d 0818 6e3e 781a 8bbe f0a8 b53e
000003e0: 99dc 113e ab89 233e 15bc 1b3e ffdf 243e
000003f0: 3819 44bc a998 243e 78b6 5e3d 615a 663e

_classifier.1._gate.4.bias f4 [256]
0.10115898 -0.2384 -0.11501807 -0.22661316 0.22541296 -0.13977678 0.30483788 -0.07947344
-0.22068872 -0.28038347 -0.47003195 0.52062833 0.37507161 0.14284937 -0.44665518 -0.22375003
0.21057668 0.33491272 -0.15542094 -0.3933451 -0.43993574 -0.45696273 -0.4032956 -0.24644205
-0.2636098 -0.5438188 -0.1944627 -0.3207935 0.4829212 -0.15578915 0.49517137 0.032362837
-0.24478613 -0.315408 -0.0020099834 -0.32553536 -0.20307422 0.08651721 0.26774874 0.37077636
0.49241015 -0.053022962 -0.1713109 -0.44556627 -0.49079886 0.3330102 -0.19888249 -0.49756926
-0.11593232 0.24774313 -0.11392869 0.4487487 -0.5468182 -0.4504041 -0.07603415 0.3901519
-0.3575064 -0.26027527 0.22143787 0.08211081 0.30774444 -0.44908214 -0.5276027 -0.004316467
0.08232931 -0.2910753 0.30571875 -0.084235206 -0.08792102 -0.43804243 -0.22346024 0.22544129
-0.30603945 0.060443938 0.109835885 0.30389234 -0.09701715 -0.008392355 0.4901033 -0.28263763
-0.30564615 0.32781407 0.07609845 -0.34642464 0.350086 -0.34372893 -0.4075377 -0.2936232
0.25464058 0.27789328 -0.24750425 0.28643847 -0.26098534 0.096649766 0.45925277 -0.38424388
-0.21474865 -0.57038003 -0.39528278 -0.29550266 -0.3143422 -0.05477821 0.18831143 -0.38262734
0.23412086 -0.33084944 0.06662229 -0.2182769 -0.3807965 0.04166972 -0.07958128 -0.40694174
-0.032477174 0.2833776 0.14989789 -0.3470206 -0.32916284 -0.2062067 -0.19104603 -0.3229286
-0.48854294 -0.07259236 -0.3885648 0.14981991 -0.50256515 -0.35288745 0.2169593 -0.48979676
0.14516701 0.4944577 -0.115230106 -0.014109157 -0.39741302 0.94861585 0.09517111 -0.10557986
-0.30260924 -0.3461247 -0.33521876 0.3084177 0.67720026 -0.1012291 0.027792508 -0.129733
-0.21291545 0.69149286 -0.05147691 -0.15533675 -0.35499284 -0.25873676 -0.3868104 0.5008603
0.23100032 -0.3041314 -0.3415355 -0.17732976 -0.28787634 -0.334159 0.4865905 0.08685971
-0.17174722 0.51483184 -0.043722153 0.3526125 0.31920546 -0.35006866 -0.14971589 0.3464651
-0.006618857 0.29224423 0.41193998 -0.552712 0.48285007 0.03620147 0.26871976 0.4597205
-0.23000303 -0.4114358 -0.06679938 -0.25665346 0.2824036 -0.40065926 -0.308909 0.1430262
0.4588518 0.5407296 -0.23656084 -0.034609783 0.35587794 -0.37024915 -0.4906787 0.26144502
0.12746808 -0.075100414 -0.45852277 -0.16874772 -0.052348223 0.21818298 0.102784485 0.45299682
-0.24767898 -0.6045076 0.15756589 -0.20995179 -0.3972706 0.05370057 -0.027192902 -0.18129931
-0.3130546 -0.4031734 0.36235008 -0.40242875 -0.43220273 -0.2993777 0.21882877 -0.10349844
-0.41124415 0.41424328 -0.0050188717 0.13038592 -0.3806809 -0.08651665 -0.36363462 -0.18615896
-0.27315095 -0.28041816 0.21127214 -0.19436872 -0.33715296 0.19379549 0.1273509 -0.23655155
-0.24335054 -0.2722718 0.5060376 0.3418618 0.33277988 -0.106159754 0.18590078 -0.51722187
-0.058231015 -0.36994648 0.28993294 -0.4431421 -0.18899676 -0.38502625 0.1827844 -0.5150347
-0.04628805 0.19867542 -0.07651882 0.25942108 -0.31037465 -0.052987836 0.21799602 0.045694858
00000000: 702c cf3d 211f 74be 988e ebbd 480d 68be
00000010: a8d2 663e a521 0fbe b613 9c3e f9c2 a2bd
00000020: 39fc 61be 6c8e 8fbe 07a8 f0be e647 053f
00000030: 6309 c03e 1b47 123e fdaf e4be ba1e 65be
00000040: 6aa1 573e ae79 ab3e ab26 1fbe 8764 c9be
00000050: 423f e1be 05f7 e9be c37c cebe 4e5b 7cbe
00000060: ddf7 86be b537 0bbf 3b21 47be 0c3f a4be
00000070: 7341 f73e 3187 1fbe 1a87 fd3e e58e 043d
00000080: 37a9 7abe 287d a1be edb9 03bb 92ac a6be
00000090: b0f2 4fbe ef2f b13d 5d16 893e 66d6 bd3e
000000a0: 2f1d fc3e 9b2e 59bd 206c 2fbe 4321 e4be
000000b0: fd49 fbbe 5080 aa3e daa7 4bbe 66c1 febe
000000c0: ed6d edbd 60b0 7d3e 7253 e9bd 64c2 e53e
000000d0: 47fc 0bbf 5e9b e6be cbb7 9bbd fdc1 c73e
000000e0: 140b b7be cd42 85be 9cc0 623e b629 a83d
000000f0: ae90 9d3e 18ee e5be f810 07bf 2671 8dbb
00000100: 459c a83d d207 95be 2b87 9c3e 8283 acbd
00000110: f00f b4bd 1947 e0be c3d2 64be 15da 663e
00000120: 34b1 9cbe 1094 773d a3f1 e03d c797 9b3e
00000130: edb0 c6bd 1780 09bc d2ee fa3e e1b5 90be
00000140: a77d 9cbe 3fd7 a73e 81d9 9b3d 925e b1be
00000150: 793e b33e 3dfd afbe c8a8 d0be c855 96be
00000160: 4060 823e 0748 8e3e c171 7dbe 10a8 923e
00000170: df9f 85be 50f0 c53d 2e23 eb3e 9dbb c4be
00000180: 12e7 5bbe 6d04 12bf 8162 cabe 204c 97be
00000190: 76f1 a0be 1e5f 60bd b6d4 403e bbe7 c3be
000001a0: 61bd 6f3e 1965 a9be 4471 883d fb83 5fbe
000001b0: c2f7 c2be dead 2a3d 83fb a2bd ab5a d0be
000001c0: c906 05bd de16 913e d57e 193e afac b1be
000001d0: 0888 a8be d927 53be 92a1 43be e656 a5be
000001e0: 4d22 fabe 4eab 94bd f7f1 c6be 646a 193e
000001f0: 1ca8 00bf aaad b4be 942a 5e3e a4c6 fabe
00000200: a9a6 143e 8f29 fd3e c3fd ebbd 182a 67bc
00000210: b879 cbbe 7dd8 723f 12e9 c23d 413a d8bd
00000220: 99ef 9abe 4237 b1be cba1 abbe ede8 9d3e
00000230: ff5c 2d3f 3451 cfbd 1dad e33c bad8 04be
00000240: 8206 5abe ad05 313f 74d9 52bd 9910 1fbe
00000250: 9fc1 b5be 2579 84be 030c c6be 6138 003f
00000260: 598b 6c3e 1cb7 9bbe bedd aebe ef95 35be
00000270: 8764 93be e316 abbe 6422 f93e 81e3 b13d
00000280: 81de 2fbe 05cc 033f 0016 33bd a089 b43e
00000290: e66e a33e 333c b3be 1f4f 19be e063 b13e
000002a0: ffe2 d8bb 09a1 953e cce9 d23e 897e 0dbf
000002b0: 2038 f73e fe47 143d a395 893e 7c60 eb3e
000002c0: ea85 6bbe b7a7 d2be 1dce 88bd 1568 83be
000002d0: 3497 903e 3623 cdbe 5229 9ebe 7675 123e
000002e0: a0ee ea3e 416d 0a3f 013d 72be fdc2 0dbd
000002f0: a235 b63e 4c91 bdbe 3d3a fbbe 1fdc 853e
00000300: fe86 023e 3fce 99bd 7fc3 eabe 34cc 2cbe
00000310: 176b 56bd 5c6b 5f3e ac80 d23d 33ef e73e
00000320: 8f9f 7dbe 03c1 1abf f458 213e 9afd 56be
00000330: 0d67 cbbe 21f5 5b3d a6c3 debc 87a6 39be
00000340: b148 a0be be6c cebe f385 b93e 240b cebe
00000350: ad49 ddbe 0948 99be a614 603e fdf6 d3bd
00000360: 988e d2be b217 d43e 5975 a4bb e383 053e
00000370: 9be8 c2be a42f b1bd 512e babe 74a0 3ebe
00000380: 71da 8bbe f892 8fbe b957 583e 9808 47be
00000390: 509f acbe 5372 463e 4668 023e 923a 72be
000003a0: e230 79be 3667 8bbe ae8b 013f 8308 af3e
000003b0: 2062 aa3e 496a d9bd c65c 3e3e a768 04bf
000003c0: a583 6ebd a069 bdbe 1772 943e 85e3 e2be
000003d0: 5e88 41be 2922 c5be d52b 3b3e 50d9 03bf
000003e0: 8a98 3dbd 9271 4b3e e6b5 9cbd d7d2 843e
000003f0: 6de9 9ebe c609 59bd 593a 5f3e 882a 3b3d

_classifier.2.weight f4 [2, 256]
0.078907944 0.07103454 0.009452997 -0.2642811 -0.31483516 0.07297096 0.25024173 -0.14567518
-0.23265323 -0.2526251 -0.242726 0.40991497 -0.41450816 0.27396923 -0.06673537 -0.20974034
0.29313362 -0.31733823 -0.024160884 0.26882327 0.32706043 0.22505479 -0.37326482 0.24989581
-0.20512393 -0.24353686 0.09298067 0.15572307 0.37692267 -0.104414225 -0.38122204 -0.17255177
-0.23108317 0.27042234 0.13992389 -0.22797601 -0.19784112 -0.09856502 0.23480192 -0.32002974
0.30689603 0.031825364 0.150572 0.3117714 0.2715979 0.20511428 0.23358636 0.36375302
0.13619024 -0.2488336 -0.034912232 0.32130948 -0.31853992 0.28519574 -0.10495232 0.32229105
0.4389161 0.3265733 0.18129322 0.09492026 -0.26572543 -0.2294001 0.25789472 0.19297622
0.18054584 -0.15324996 -0.39313096 0.035756387 -0.061440524 -0.20242675 -0.12999463 -0.14632146
0.031109143 0.34912863 -0.08948396 0.23573178 -0.015853006 -0.011141892 0.3134183 -0.23554483
0.3507141 -0.15835059 -0.082835406 -0.23542738 -0.14393997 -0.26601276 -0.3374345 -0.3094824
0.20849653 -0.35391062 0.05275646 0.26089028 -0.23181604 0.09544112 -0.31743038 0.17177626
0.17491563 -0.2864496 0.0767 0.07868924 0.24154979 0.08441001 0.16913384 -0.2619237
-0.326763 0.312632 -0.0869285 0.11698623 -0.16344889 -0.13955253 -0.014503993 0.25891867
0.04130062 0.33119494 0.19753288 0.15293126 -0.17720829 0.074331835 -0.108625144 0.3058783
-0.09676911 0.084802486 -0.22233452 -0.24301955 0.32970673 -0.22077769 0.3519479 -0.38533118
0.038845554 -0.30825835 -0.14984411 -0.20897739 0.33828667 -0.63623005 0.22490098 -0.16212416
-0.21713766 -0.1371108 -0.1443514 0.21371931 -0.8151797 -0.10171251 -0.1125056 -0.107634306
-0.21855198 -0.92360246 -0.24260819 0.13601553 0.25771374 0.1563008 -0.20496424 -0.36539054
0.22794478 -0.10189742 0.18071862 0.035276074 -0.10025118 -0.3138946 -0.41214955 -0.056480683
-0.16088042 -0.38615012 -0.050334178 0.15618926 0.26324782 0.15683948 -0.15100825 -0.33058193
0.00740043 -0.2800895 -0.2770413 0.18292193 -0.35978243 -0.5312201 -0.21859927 -0.44023305
0.098719425 0.30934584 -0.067508444 -0.24839164 0.121207714 0.087049834 -0.17786339 0.18331364
-0.44387263 -0.48983812 -0.15663263 0.008567618 -0.3133166 -0.15990295 0.32734108 -0.10932848
0.07981202 -0.1265495 0.3002487 -0.037080433 0.09604619 0.14642797 0.23546535 -0.48908514
-0.0030655256 0.18151437 -0.021812433 -0.03724591 0.04302822 -0.090851635 -0.14439282 -0.17397
0.13060512 0.029281247 -0.1703899 -0.18993558 0.16174047 -0.20222177 0.19129898 -0.13370512
-0.15162565 -0.34536353 -0.045297865 0.08288639 -0.16972286 0.017920326 0.21797423 0.11911111
0.266438 -0.104040764 -0.16003786 0.01924253 0.25951275 -0.10863899 0.14516057 -0.048351623
0.2635953 0.1963971 -0.34888956 -0.21195875 0.1587924 -0.06267526 -0.10037204 0.33181053
0.015113048 -0.2534663 -0.21860956 0.14111386 -0.16711053 0.07246891 -0.3852289 0.24662676
-0.021216959 -0.11152151 -0.18038733 -0.15842152 0.39903978 -0.20591971 0.284397 0.22277555
00000000: 7d9a a13d 8f7a 913d bee0 1a3c da4f 87be
00000010: 1332 a1be cc71 953d af1f 803e e02b 15be
00000020: a63c 6ebe 1458 81be 2a8d 78be 60e0 d13e
00000030: 6a3a d4be b245 8c3e 8eac 88bd 2cc6 56be
00000040: 9c15 963e 287a a2be 0ced c5bc 34a3 893e
00000050: 7774 a73e c374 663e 911c bfbe b0e4 7f3e
00000060: 020c 52be ba61 79be a66c be3d de75 1f3e
00000070: 02fc c03e 20d7 d5bd 892f c3be 69b1 30be
00000080: 11a1 6cbe cc74 8a3e 3548 0f3e 8b72 69be
00000090: dd96 4abe 75dc c9bd ea6f 703e f0da a3be
000000a0: 7a21 9d3e 505b 023d 8c2f 1a3e 80a0 9f3e
000000b0: e10e 8b3e 7a09 523e 4331 6f3e d63d ba3e
000000c0: 7475 0b3e 3cce 7ebe 2100 0fbd ad82 a43e
000000d0: aa17 a3be 2d05 923e 3ef1 d6bd 5503 a53e
000000e0: 9cb9 e03e 9e34 a73e eea4 393e 8e65 c23d
000000f0: 2a0d 88be dce7 6abe c70a 843e 8f9b 453e
00000100: 02e1 383e 8fed 1cbe 7648 c9be 4a75 123d
00000110: 0fa9 7bbd f548 4fbe 501d 05be 4bd5 15be
00000120: 9ad8 fe3c fdc0 b23e 5e43 b7bd ac63 713e
00000130: 2ade 81bc 7b8c 36bc 5d78 a03e aa32 71be
00000140: cc90 b33e a826 22be 9ca5 a9bd e013 71be
00000150: 0065 13be d332 88be 37c4 acbe 7a74 9ebe
00000160: 1d80 553e c633 b5be 2817 583d 6993 853e
00000170: 2f61 6dbe a276 c33d 3c86 a2be 1ee6 2f3e
00000180: 151d 333e 86a9 92be e414 9d3d d327 a13d
00000190: d458 773e 28df ac3d 6c31 2d3e dd1a 86be
000001a0: 7b4d a7be 4d11 a03e 9207 b2bd 7a96 ef3d
000001b0: 255f 27be dce6 0ebe 28a2 6dbc fd90 843e
000001c0: d72a 293d 6292 a93e 0f46 4a3e 039a 1c3e
000001d0: 1776 35be 4a3b 983d dc76 debd 159c 9c3e
000001e0: e22e c6bd edac ad3d a9ab 63be 1eda 78be
000001f0: 52cf a83e 8c13 62be 8432 b43e 214a c5be
00000200: 841c 1f3d 0ad4 9dbe bc70 19be 2bfe 55be
00000210: e933 ad3e f9df 22bf 714c 663e e003 26be
00000220: 5659 5ebe c666 0cbe dad0 13be 3cd9 5a3e
00000230: 9eaf 50bf a64e d0bd 5669 e6bd 606f dcbd
00000240: 17cc 5fbe 3671 6cbf 486e 78be a847 0b3e
00000250: 0ef3 833e 510d 203e 25e2 51be 7814 bbbe
00000260: 5b6a 693e 98af d0bd 4d0e 393e a57d 103d
00000270: 7e50 cdbd cbb6 a0be 4405 d3be 4a58 67bd
00000280: d6bd 24be 78b5 c5be 362b 4ebd 14f0 1f3e
00000290: 6bc8 863e 879a 203e e8a1 1abe 0942 a9be
000002a0: 4e7f f23b e467 8fbe 5bd8 8dbe e34f 3b3e
000002b0: 6735 b8be 0afe 07bf 7dd8 5fbe 3a66 e1be
000002c0: 692d ca3d 9462 9e3e de41 8abd 615a 7ebe
000002d0: c03b f83d 2f47 b23d d221 36be 92b6 3b3e
000002e0: 4643 e3be 10cc fabe 4e64 20be 325f 0c3c
000002f0: 096b a0be 99bd 23be 4099 a73e 9ce7 dfbd
00000300: 7c74 a33d 3196 01be 33ba 993e a7e1 17bd
00000310: ddb3 c43d 37f1 153e d41d 713e 5e69 fabe
00000320: fce6 48bb e7de 393e fdaf b2bc 2b8f 18bd
00000330: 5c3e 303d 6c10 babd b6db 13be 3125 32be
00000340: 59bd 053e 3adf ef3c b17a 2ebe 797e 42be
00000350: 4b9f 253e 3913 4fbe e1e3 433e ffe9 08be
00000360: c143 1bbe 7dd3 b0be 418a 39bd 57c0 a93d
00000370: d4cb 2dbe a6cd 923c a334 5f3e 87f0 f33d
00000380: 906a 883e 5313 d5bd f7e0 23be 83a2 9d3c
00000390: dbde 843e 1e7e debd f9a4 143e 5a0c 46bd
000003a0: f7f5 863e 521c 493e a7a1 b2be b70b 59be
000003b0: 7a9a 223e e35b 80bd db8f cdbd 12e3 a93e
000003c0: b89c 773c 56c6 81be 2fdb 5fbe 2780 103e
000003d0: 061f 2bbe 946a 943d b93c c5be ba8b 7c3e
000003e0: 30cf adbc 6465 e4bd 75b7 38be 4039 22be
000003f0: f14e cc3e 9edc 52be 7c9c 913e 461f 643e

_classifier.2.bias f4 [2]
-0.05424468 0.014608561
00000000: ab2f 5ebd bf58 6f3c
