outputs/seed42_20230328.pth (torch, 84215 bytes, 30 tensors)

_peak_detector._rnn.weight_ih_l0 f4 [12, 1]
0	0xbda63208	-0.081150115
1	0x3e930528	0.2871487
2	0xbe905310	-0.28188372
3	0xbd01c710	-0.03168398
4	0x3db110c0	0.08645773
5	0xbe05184c	-0.1299755
6	0xbe1cfda8	-0.15331137
7	0x3e949022	0.29016215
8	0x3e3ca3e0	0.18421888
9	0x3e3d06f4	0.18459684
10	0xbe252d0c	-0.16130465
11	0xbe05f8fc	-0.13083261

_peak_detector._rnn.weight_hh_l0 f4 [12, 4]
0	0xbeae73c4	-0.34072697
1	0xbede3932	-0.43403012
2	0xbd464850	-0.048408806
3	0xbe34df1c	-0.17663234
4	0x3dc11f48	0.094297945
5	0xbda8dd88	-0.08245379
6	0x3ef678ca	0.4813903
7	0xbee6a560	-0.45048046
8	0xbe47532c	-0.19465321
9	0xbea0670c	-0.3132862
10	0x3e6775fc	0.22603601
11	0x3ef978a2	0.48724848
12	0xbe7f24b8	-0.24916351
13	0xbe32ef64	-0.17474133
14	0xbe9d704a	-0.30749732
15	0xbdfd5c48	-0.12371117
16	0xbdfa4848	-0.12220818
17	0xbe6991c8	-0.22809517
18	0xbde41ce8	-0.11138326
19	0x3d50d640	0.050985575
20	0xbe7d37e0	-0.24728346
21	0xbe81da3c	-0.25361812
22	0xbec93e2e	-0.39305252
23	0xbe6ef030	-0.23333812
24	0xbebad422	-0.3648997
25	0xbe448180	-0.19190025
26	0x3e6614a4	0.22468811
27	0x3dae9c78	0.08525938
28	0xbe709108	-0.23492825
29	0x3da16590	0.078807
30	0x3e07ed00	0.13274002
31	0xbdef0a20	-0.11671853
32	0xbee4df00	-0.44701385
33	0x3ee1f9a2	0.44135767
34	0xbdf16210	-0.11786282
35	0x3e0ffaf8	0.1406058
36	0x3e04b65c	0.1296019
37	0xbef23290	-0.473042
38	0x3d68be20	0.056821942
39	0xbe43abc4	-0.19108492
40	0x3d83a750	0.06428397
41	0xbdcc5090	-0.099763036
42	0x3ea3bf74	0.31982005
43	0x3e28bda0	0.16478586
44	0x3d872568	0.065989316
45	0xbed38472	-0.41311985
46	0x3e9f8a7e	0.3116035
47	0xbed72bde	-0.42025656

_peak_detector._rnn.bias_ih_l0 f4 [12]
0	0x3e36ffdc	0.1787104
1	0xbe806848	-0.2507956
2	0xbe8757fa	-0.26434308
3	0x3e94cff8	0.29064918
4	0x3ca0ad40	0.019613862
5	0x3e6f595c	0.23373932
6	0x3ec796f0	0.38982344
7	0x3ea9de66	0.3317749
8	0xbef05424	-0.46939194
9	0xbef8457a	-0.48490506
10	0x3e8168d6	0.25275296
11	0x3e277038	0.16351402

_peak_detector._rnn.bias_hh_l0 f4 [12]
0	0xbe65ed94	-0.2245391
1	0x3de23880	0.11045933
2	0x3eab4066	0.3344757
3	0x3dd7ef00	0.105436325
4	0x3ee47bb4	0.44625628
5	0xbea5f592	-0.32413918
6	0x3ebc6780	0.36797714
7	0x3d14db10	0.036341727
8	0x3de14558	0.109995544
9	0xbe4596f0	-0.1929586
10	0xbe77ddd4	-0.24205714
11	0x3e185264	0.1487518

_peak_detector._rnn.weight_ih_l0_reverse f4 [12, 1]
0	0x3e6f6320	0.23377657
1	0xbdff4cf8	-0.124658525
2	0x3e2291e4	0.15875965
3	0x3eb8682c	0.36016977
4	0xbea7403e	-0.326662
5	0xbdd19558	-0.10233563
6	0xbe83fee4	-0.25780404
7	0xbc6b1140	-0.014347374
8	0x3c190a80	0.009340882
9	0xbd942788	-0.072341025
10	0x3ecf03b2	0.40432507
11	0xbe07bca4	-0.13255554

_peak_detector._rnn.weight_hh_l0_reverse f4 [12, 4]
0	0xbe6b93e4	-0.23005635
1	0x3eb3e656	0.3513667
2	0xbe35c118	-0.1774944
3	0xbe388494	-0.18019325
4	0x3e1a0c6c	0.15043801
5	0x3e9a49d6	0.30134457
6	0x3d1e8500	0.038701057
7	0x3eccd676	0.4000737
8	0xbe253280	-0.16132545
9	0xbefd2a2e	-0.49446243
10	0xbe31d7f8	-0.17367542
11	0x3d67b210	0.056566298
12	0xbec3460c	-0.3813938
13	0x3e1544d0	0.14577031
14	0x3e148dcc	0.14507216
15	0x3eae3d0e	0.34030956
16	0x3ed656d0	0.41863108
17	0x3ec1d134	0.37854922
18	0x3eda6b56	0.42660016
19	0x3ef314d0	0.47476816
20	0xbd860110	-0.065431714
21	0x3e7d1e90	0.2471869
22	0x3ef508da	0.47858316
23	0x3e87d836	0.26532143
24	0x3d211e30	0.03933543
25	0x3eece5b4	0.46269
26	0x3eab5286	0.33461398
27	0xbe107070	-0.14105392
28	0x3e0c9704	0.13729483
29	0xbe72a3a0	-0.2369523
30	0x3e63a1d8	0.22229707
31	0xbd9b7ad0	-0.07591784
32	0x3eb3f1c8	0.35145402
33	0xbef6517e	-0.4810905
34	0xbe96449e	-0.29349226
35	0x3ec3c2a4	0.38234437
36	0xbe9f7ee6	-0.31151503
37	0xbd873900	-0.06602669
38	0x3e7cac6c	0.24675149
39	0x3eb398c8	0.350775
40	0xbe359204	-0.17731482
41	0xbddc5288	-0.10757929
42	0x3da5b8e0	0.08091903
43	0xbe54e3ac	-0.20789975
44	0xbcae7680	-0.02129674
45	0xbd4cc220	-0.04998982
46	0x3e93f32c	0.28896463
47	0x3eca0362	0.39455706

_peak_detector._rnn.bias_ih_l0_reverse f4 [12]
0	0x3e35cae4	0.17753178
1	0x3ec618fe	0.38690943
2	0x3ebd3592	0.36954933
3	0x3e863d8e	0.26218837
4	0x3e86ecc4	0.26352513
5	0x3e5976f8	0.21236789
6	0xbe352f5c	-0.17693847
7	0x3efb1048	0.4903586
8	0x3ee9502c	0.4556898
9	0xbe8bb626	-0.27287406
10	0xbecf0b1a	-0.40438157
11	0x3dcc1fd8	0.09967011

_peak_detector._rnn.bias_hh_l0_reverse f4 [12]
0	0x3e666740	0.22500324
1	0xbe7ed12c	-0.2488448
2	0x3c1f1180	0.009708762
3	0xbdd16140	-0.10223627
4	0xbe36a18c	-0.17835063
5	0xbec282ae	-0.37990326
6	0x3e60c924	0.21951729
7	0xbefd6564	-0.49491417
8	0xbe4e62b4	-0.2015484
9	0xbefdee36	-0.49595803
10	0xbe22bdc0	-0.15892696
11	0x3e833da0	0.25632954

_peak_detector._classifier.1._gate.1.weight f4 [2, 8]
0	0x3da16d64	0.07882193
1	0xbb78a980	-0.0037942827
2	0x3da45fd0	0.08026087
3	0xbe365355	-0.17805226
4	0x3e70d62e	0.23519203
5	0x3cce04b0	0.02514872
6	0xbe2b3a28	-0.16721404
7	0x3d07af00	0.033125877
8	0xbd796750	-0.060889542
9	0xbdf32850	-0.118729234
10	0xbd872ae4	-0.065999776
11	0x3e8d0941	0.27546123
12	0xbd4f56c8	-0.05061987
13	0x3e97e1d9	0.29664496
14	0xbe41236a	-0.18861166
15	0x3d83677c	0.064162225

_peak_detector._classifier.1._gate.1.bias f4 [2]
0	0x3e7515e2	0.23934129
1	0xbda9fea4	-0.08300522

_peak_detector._classifier.1._gate.2.weight f4 [2]
0	0x3f800000	1.0
1	0x3f800000	1.0

_peak_detector._classifier.1._gate.2.bias f4 [2]
0	0x00000000	0.0
1	0x00000000	0.0

_peak_detector._classifier.1._gate.2.running_mean f4 [2]
0	0x00000000	0.0
1	0x00000000	0.0

_peak_detector._classifier.1._gate.2.running_var f4 [2]
0	0x3f800000	1.0
1	0x3f800000	1.0

_peak_detector._classifier.1._gate.4.weight f4 [8, 2]
0	0x3ea0d4e2	0.31412417
1	0xbf033b17	-0.5126204
2	0x3d212900	0.03934574
3	0xbeee1a38	-0.46504378
4	0xbf03d952	-0.5150348
5	0xbef7bf06	-0.48387927
6	0x3efcb80a	0.4935916
7	0x3f0cb4d3	0.54963416
8	0xbf13a477	-0.5767283
9	0x3e6a463c	0.22878355
10	0x3eee8422	0.46585184
11	0xbf01db06	-0.5072483
12	0xbebd24f0	-0.36942244
13	0x3e9fc17a	0.31202298
14	0xbf274672	-0.65341866
15	0xbe1e8138	-0.1547898

_peak_detector._classifier.1._gate.4.bias f4 [8]
0	0x3ddc6360	0.10761142
1	0xbef8f82f	-0.4862685
2	0xbe37312c	-0.17889851
3	0xbcc15b20	-0.023603022
4	0xbf039939	-0.51405674
5	0x3efa5542	0.48893172
6	0x3e965412	0.29361016
7	0x3eba446e	0.36380333

_peak_detector._classifier.2.weight f4 [2, 8]
0	0xbeb44749	-0.35210636
1	0x3e35873a	0.17727366
2	0xbe9aa9d3	-0.3020769
3	0xbe7a54d8	-0.24446428
4	0x3e814119	0.25244978
5	0xbe7bb9c2	-0.2458258
6	0x39783000	0.00023669004
7	0x3de15090	0.11001694
8	0x3e692fe2	0.22772172
9	0x3ea37f03	0.3193284
10	0x3c75e060	0.015007108
11	0x3ea86075	0.3288609
12	0x3ca8bab0	0.020596832
13	0xbea115ea	-0.31462032
14	0x3dc7b38c	0.09751043
15	0x3d9042cc	0.070439905

_peak_detector._classifier.2.bias f4 [2]
0	0xbe9f7b5b	-0.311488
1	0xbe2ccf92	-0.16876057

_peak_classifier._cnn.0.weight f4 [128, 1, 5]
0	0x3e77c992	0.24197987
1	0xbe2c9a82	-0.16855815
2	0xbe4178c5	-0.18893726
3	0xbd41f95d	-0.047356952
4	0xbdf8d1c0	-0.12149382
5	0x3b47ebab	0.003050546
6	0xbe73e5b3	-0.23818092
7	0xbebc428f	-0.3676953
8	0xbd717ef9	-0.05895898
9	0x3e830344	0.2558843
10	0x3dc25530	0.094889045
11	0xbc90e99a	-0.017689515
12	0x3dfe341f	0.12412285
13	0x3e8bf27b	0.27333435
14	0x3d307c8a	0.04308752
15	0xbe5ac7c3	-0.21365266
16	0xbd545444	-0.051838174
17	0xbb6c9ff0	-0.0036106072
18	0xbc884a0e	-0.016636875
19	0x3b7839f7	0.0037876347
20	0xbea95c07	-0.33078024
21	0xbe7c9ae0	-0.24668455
22	0xbaea1eb1	-0.001786193
23	0xbce14c2f	-0.027502147
24	0xbda0fca3	-0.07860687
25	0xbdc97f19	-0.09838695
26	0xbda857ed	-0.082198955
27	0x3f01dea9	0.5073038
28	0x3fc1b501	1.5133363
29	0x3f20d9a6	0.62832105
30	0x3fbca725	1.4738508
31	0x3fb1d678	1.3893576
32	0x3f947aac	1.1599936
33	0x3f16bd1e	0.5888232
34	0xbe1b252e	-0.15150902
35	0xbed0cf93	-0.40783367
36	0xbed9d273	-0.42543373
37	0xbe09a607	-0.1344224
38	0xbe76ca33	-0.2410057
39	0x3ec9e018	0.39428782
40	0xbe336aa4	-0.17521149
41	0x3d39131e	0.045184247
42	0xbc358d76	-0.01108109
43	0x3c282250	0.010262087
44	0x3bad3ac4	0.0052865464
45	0xbd73a39a	-0.059482194
46	0xbd83706b	-0.064179264
47	0xbd2832af	-0.04106396
48	0x3da8e499	0.082467265
49	0x3fc24ead	1.518026
50	0xbe23b7e1	-0.15988113
51	0xbd0dbb2f	-0.03460234
52	0x3c8632f2	0.016381714
53	0xbe03bd43	-0.12865166
54	0xbd3b00ae	-0.045654945
55	0xbe35f9de	-0.17771098
56	0xbd1d9a8a	-0.038477458
57	0xbd028fd9	-0.031875465
58	0xbcdb32a5	-0.026757548
59	0xbd77dafe	-0.06051158
60	0x3fae3427	1.3609666
61	0x3fcf5376	1.6197345
62	0x3f20e2dc	0.6284616
63	0xbe81411e	-0.25244993
64	0x3d389481	0.0450635
65	0x3f01c720	0.50694466
66	0x3d4a9805	0.049461383
67	0x3c13f2ee	0.009030087
68	0x3bfe3045	0.007757219
69	0x3c683b26	0.014174258
70	0x3c6680e5	0.014068817
71	0xbdb52195	-0.08844296
72	0xbe521ab2	-0.20517996
73	0xbe36b6ec	-0.17843217
74	0xbaa91ae1	-0.0012901687
75	0xbd95179c	-0.07279894
76	0xbda37c19	-0.07982654
77	0x3e759d25	0.23985727
78	0x3f621c6b	0.8832461
79	0x3f8740bb	1.0566629
80	0xbe11cff3	-0.14239483
81	0x4030aa71	2.760403
82	0x3c90a940	0.01765883
83	0x3c85730e	0.016290214
84	0x3d15f295	0.036608297
85	0x3fe1ad95	1.7631098
86	0x3fcef36c	1.6168036
87	0x3f0e5ce1	0.5561047
88	0x3eb904a1	0.36136344
89	0x3f9397cf	1.1530703
90	0xbdf5a4fd	-0.1199436
91	0xbdeeed9d	-0.11666415
92	0xbe2838b4	-0.1642788
93	0x3d40adab	0.047040623
94	0x3f094552	0.536214
95	0xbd595659	-0.053060863
96	0xbd466d29	-0.048443947
97	0xbd20c642	-0.039251573
98	0xbd7c1dd1	-0.061551873
99	0xbe2edf8e	-0.17077467
100	0xbe34a567	-0.17641221
101	0xbe849b5a	-0.25899774
102	0xbe9fc288	-0.31203103
103	0xbe81fc52	-0.25387818
104	0x3f48ad5b	0.7838952
105	0xbea97679	-0.330982
106	0xbe166106	-0.14685449
107	0xbe80ebac	-0.25179803
108	0xbdabe330	-0.08392942
109	0xbd8f226c	-0.06988987
110	0xbeb33b06	-0.3500597
111	0xbe6d7249	-0.23188128
112	0xbe56d621	-0.20980121
113	0xbdc779e7	-0.09740048
114	0xbdcdd541	-0.100504406
115	0xbecb58fc	-0.39716327
116	0xbe8a3c0a	-0.2699893
117	0xbe857595	-0.2606627
118	0xbe84a74f	-0.25908896
119	0x3dac07b1	0.083999045
120	0xbde4239a	-0.11139603
121	0xbdf0e660	-0.117626905
122	0xbe6e4401	-0.23268129
123	0xbe21ed90	-0.15813279
124	0xbd49c690	-0.04926163
125	0x3e84b2ef	0.25917765
126	0xbe31561b	-0.17318003
127	0xbddc3d93	-0.10753932
128	0xbe0df1fc	-0.13861841
129	0xbde216b8	-0.110394895
130	0x3e92b2d6	0.28652066
131	0xbde10bde	-0.109885916
132	0xbe158a03	-0.14603429
133	0xbe1edf3d	-0.15514846
134	0x3e0e059e	0.1386933
135	0xbe5a1fa6	-0.21301135
136	0xbc0ddb22	-0.008658202
137	0x3b02d93f	0.0019965915
138	0x3b5dfb14	0.0033871578
139	0x3b8b6b76	0.0042547537
140	0x3f0539a3	0.5204107
141	0xbb8709c8	-0.004121039
142	0xbd2ebfd7	-0.04266342
143	0x3f56de89	0.8393331
144	0x3ebd7aae	0.3700766
145	0xbe0ec1c5	-0.13941105
146	0x3ba51d0b	0.0050388626
147	0xbd67f051	-0.056625668
148	0x3ed616bb	0.41814217
149	0x3f92dc1e	1.1473424
150	0x3f1c74ba	0.6111561
151	0x3f1e7497	0.6189665
152	0x3c71110b	0.014713536
153	0x3d8e1609	0.069377966
154	0x3d1ca046	0.038238786
155	0xbea5ac07	-0.3235781
156	0xbe3ed1c8	-0.18634713
157	0xbd359538	-0.04433176
158	0xbd0d5458	-0.034504265
159	0xbcaf1dcc	-0.021376513
160	0xbe36ae16	-0.17839846
161	0xbc6fe704	-0.014642481
162	0x3c1b7c19	0.009490036
163	0x3e8231d3	0.25428638
164	0x3d8d74eb	0.06907066
165	0xbcf58c06	-0.029973995
166	0x3e99c024	0.30029404
167	0x3f5bb76b	0.8582675
168	0x3c451469	0.012028792
169	0x3d570322	0.052493222
170	0xbe83e29c	-0.25758827
171	0xbea8f68e	-0.33000606
172	0xbe95e8f9	-0.29279307
173	0xbb73fcbf	-0.0037229506
174	0xbcb8f4c2	-0.022577647
175	0xbe041bd3	-0.12901239
176	0xbe2cbd82	-0.16869166
177	0xbe6efd17	-0.23338734
178	0xbdba3e8a	-0.0909396
179	0xbe060ea8	-0.13091528
180	0xbdd53492	-0.104104176
181	0xbdb2be29	-0.087276764
182	0xbdc4975d	-0.09599183
183	0xbd93f433	-0.07224312
184	0x401e7119	2.475653
185	0xbe7073b7	-0.23481642
186	0x39081552	0.00012977913
187	0x3dd7e41c	0.10541555
188	0x3c6fb593	0.014630693
189	0x3d8ea9e8	0.06966001
190	0xbe85a582	-0.26102835
191	0xbe9a60bf	-0.30151936
192	0xbeac8658	-0.33696246
193	0xbea7f788	-0.3280604
194	0xbe53fa24	-0.2070089
195	0xbe851313	-0.25991115
196	0xbeb6e265	-0.357196
197	0xbe8cbeb3	-0.27489242
198	0xbe69d3a7	-0.22834645
199	0x3eb7830c	0.35842168
200	0x3eb1572f	0.34636828
201	0xbdaedf3a	-0.08538671
202	0xbdb07366	-0.086157605
203	0xbe09dca9	-0.13463081
204	0x3caf02f9	0.021363722
205	0x3e364b8a	0.17802253
206	0xbea783fb	-0.3271788
207	0xbebc09ee	-0.36726326
208	0xbec2c9d5	-0.3804461
209	0x3f091272	0.5354377
210	0xbe50c56f	-0.20387815
211	0xbc9a90ea	-0.018867929
212	0x3f19f6cc	0.6014221
213	0x3ca85c35	0.02055178
214	0xbe220d75	-0.15825446
215	0xbdd9c3ba	-0.10633035
216	0xbe977e6d	-0.29588643
217	0xbe8c34f8	-0.27384162
218	0xbe326892	-0.17422703
219	0xbdf36dc7	-0.11886173
220	0xbcb31796	-0.021861833
221	0xbd680138	-0.056641787
222	0xbe049061	-0.12945701
223	0xbd4593e0	-0.048236728
224	0xbc88b957	-0.01668994
225	0x3f64e068	0.89404917
226	0x4010d0b5	2.2627385
227	0x3cef6047	0.029220713
228	0x3cf2ae80	0.029624224
229	0x3cec2ca0	0.028829873
230	0xbe15c0cd	-0.14624329
231	0xbe7263eb	-0.23670928
232	0xbe6c7ad6	-0.23093733
233	0xbdc6c466	-0.09705429
234	0xbdd459ae	-0.103686675
235	0xbe077608	-0.13228619
236	0xbdc3cf64	-0.09561041
237	0xbddf2e00	-0.10897446
238	0xbd34528a	-0.044024028
239	0x4046cf51	3.1064036
240	0xbe4e5e88	-0.20153248
241	0xbe6bb237	-0.23017202
242	0xbe852d6d	-0.2601122
243	0xbe4a7699	-0.19771804
244	0xbc12b80e	-0.008955015
245	0xbd43db55	-0.047816593
246	0xbdbed537	-0.09318011
247	0xbcd5ac11	-0.026083024
248	0x3ca35a88	0.01994063
249	0xbd00ce91	-0.031446997
250	0x3de4eae9	0.11177618
251	0x3f20ef29	0.6286493
252	0x3c466f5d	0.012111512
253	0xbde5c231	-0.1121868
254	0xbdc61270	-0.096714854
255	0xbe504a81	-0.20340921

_peak_classifier._cnn.0.bias f4 [128]
0	0xbd5f3dde	-0.05450236
1	0xbed9d32c	-0.42543924
2	0xbd057e5c	-0.03259121
3	0xbc5df6d1	-0.013547615
4	0xbcfe2c0c	-0.031026863
5	0xbdc3295b	-0.09529372
6	0xbeb38c18	-0.3506782
7	0xbe5ab8ef	-0.21359609
8	0xbd642402	-0.055698402
9	0xbd79d3d8	-0.060993046
10	0xbc73f533	-0.014890003
11	0xbe0eff26	-0.13964519
12	0xbecada23	-0.3961955
13	0xbc5d4b84	-0.013506774
14	0xbc3bbc3c	-0.011458453
15	0xbd9ac10f	-0.07556354
16	0xbe144901	-0.14480974
17	0xbe89bb51	-0.26900724
18	0xbe2f6cde	-0.17131373
19	0xbd8370c8	-0.06417996
20	0xbe9d9938	-0.3078096
21	0xbd38f1c8	-0.045152456
22	0xbd388880	-0.04505205
23	0xbe982f6f	-0.2972369
24	0xbd4630e2	-0.048386462
25	0xbe8b208b	-0.27173266
26	0xbd32d648	-0.043661386
27	0xbc0cd1dc	-0.008594956
28	0xbd24a5d5	-0.040197212
29	0xbce88cbe	-0.028387424
30	0xbd0cdf73	-0.034392785
31	0xbd094e74	-0.033522084
32	0xbd2bad0a	-0.04191307
33	0xbd54387c	-0.05181168
34	0xbdaf1a45	-0.085499324
35	0xbe0f72e4	-0.14008671
36	0xbde4235d	-0.111395575
37	0xbca36d4e	-0.019949581
38	0xbe9bcee1	-0.30431274
39	0xbe8b45f1	-0.272018
40	0x3cdd488b	0.02701213
41	0xbe34d176	-0.17658028
42	0x3b9c8ad7	0.004777293
43	0xbdef2e15	-0.11678711
44	0xbd467ea9	-0.048460636
45	0xbe05ad6d	-0.13054438
46	0xbe879006	-0.2647707
47	0xbe07bed1	-0.13256384
48	0xbc5d51d2	-0.013508277
49	0xbddb4e4a	-0.10708292
50	0xbcd9ff38	-0.026610956
51	0xbd3572e8	-0.044299036
52	0xbe7d6fee	-0.24749729
53	0xbe2ba7b3	-0.16763191
54	0xbd9853ab	-0.074378334
55	0xbe0b5594	-0.13606864
56	0xbdb44643	-0.08802464
57	0xbc826d29	-0.015921192
58	0x3c89a83d	0.016803855
59	0xbd3c3c3c	-0.04595588
60	0xbe44272e	-0.19155571
61	0xbe43a6c5	-0.19106586
62	0xbd5fbe4a	-0.054624833
63	0xbe80c8f7	-0.25153324
64	0xbe2c3075	-0.1681536
65	0xbd95e3fb	-0.073188744
66	0xbd0cad9a	-0.034345247
67	0xbd94072e	-0.07227932
68	0xbe8ce0c0	-0.2751522
69	0xbec0b918	-0.37641215
70	0x3c850d20	0.01624161
71	0xbd5e2e32	-0.054243274
72	0xbe927080	-0.28601456
73	0xbe3c44b2	-0.1838558
74	0xbdb25a2f	-0.087086074
75	0xbda8b494	-0.082375675
76	0xbe319efe	-0.17345807
77	0xbd5b6e4a	-0.053571977
78	0xbaba50d3	-0.0014214761
79	0xbdc19cd8	-0.09453744
80	0xbddb0b32	-0.10695495
81	0xbcb927c5	-0.022601971
82	0x3dca3491	0.098733075
83	0xbd77ff8f	-0.060546454
84	0xbd54495d	-0.051827777
85	0xbe14f3dc	-0.1454615
86	0xbeab4f1f	-0.33458802
87	0xbdc5a4b2	-0.09650554
88	0xbb01d597	-0.0019811147
89	0xbe135400	-0.14387512
90	0xbe779481	-0.24177743
91	0xbdb36aa1	-0.08760572
92	0xbd5d01b5	-0.053956706
93	0xbe14fa97	-0.14548717
94	0xbd71768d	-0.05895095
95	0xbdc87cd8	-0.09789437
96	0xbe82a2a9	-0.25514725
97	0xbe982b93	-0.29720744
98	0xbea95701	-0.3307419
99	0x3bfe039b	0.0077518946
100	0xbd41e959	-0.04734168
101	0xbd560a63	-0.052256
102	0xbdd240e7	-0.102662854
103	0xbdb3854c	-0.08765659
104	0xbd25ce76	-0.0404801
105	0xbe7c1709	-0.24618162
106	0xbde5d999	-0.11223144
107	0xbd6b2fd1	-0.05741865
108	0xbe1b9b35	-0.15195926
109	0xbb0ea697	-0.0021766776
110	0xbba46d9e	-0.00501795
111	0xbed2de29	-0.4118512
112	0xbde2dd2b	-0.11077341
113	0xbc9828a4	-0.018574066
114	0xbdb96604	-0.09052661
115	0xbe772d01	-0.24138261
116	0xbd902c78	-0.07039732
117	0xbe2bc3bc	-0.16773885
118	0xbda4f090	-0.08053696
119	0xbd53e67b	-0.051733475
120	0xbe80d215	-0.2516028
121	0xbe613404	-0.21992499
122	0xbb801fc5	-0.003910037
123	0xbd297790	-0.04137379
124	0xbe42f3b5	-0.1903828
125	0xbd20ee37	-0.03928968
126	0xbddf2242	-0.10895206
127	0xbdddc721	-0.108289964

_peak_classifier._classifier.1._gate.1.weight f4 [32, 256]
0	0xb7d21e4e	-2.5048063e-05
1	0xbcdf55a0	-0.027262509
2	0xbde03075	-0.109467424
3	0x3cc58f0a	0.024116058
4	0x3d91da87	0.07121759
5	0x3e4a1a00	0.1973648
6	0xbda0c4d5	-0.07850043
7	0x3dac01db	0.083987914
8	0xbb80f04a	-0.0039348947
9	0x3e23415e	0.15942904
10	0x3e2e0072	0.16992357
11	0x3d23f22b	0.04002587
12	0xbd49d16a	-0.04927198
13	0x3db1b348	0.08676773
14	0xbe307fe2	-0.17236283
15	0xbd0afd9f	-0.03393328
16	0xbe017cee	-0.12645313
17	0xbd009ce9	-0.03139964
18	0xbcbe0608	-0.023196235
19	0xbd510924	-0.051034108
20	0xbd3c0313	-0.04590137
21	0x3de63ef3	0.11242475
22	0xbe588a30	-0.21146464
23	0xbd141a33	-0.036157798
24	0x3de052b1	0.10953272
25	0xbdb36318	-0.08759135
26	0xbd6d6db4	-0.05796595
27	0x3d842197	0.06451719
28	0x3dbebb9f	0.0931313
29	0x3d9c9528	0.07645637
30	0x3c034bd0	0.008013681
31	0x3c8c078c	0.017093442
32	0xbd7708b1	-0.060311023
33	0xbdebaf62	-0.11508061
34	0xbcccfc43	-0.025022632
35	0xbddfe898	-0.109330356
36	0x3c700350	0.014649227
37	0xbcf9cc96	-0.030493062
38	0xbd42816e	-0.047486715
39	0xbd0b7a0a	-0.034051932
40	0x3d6bb91b	0.057549577
41	0xbc0f50e2	-0.008747311
42	0x3cb27795	0.021785537
43	0x3ce4b358	0.027917549
44	0xbb4ac62d	-0.0030940876
45	0xbdd9bfaa	-0.1063226
46	0xbd7dc6de	-0.061957233
47	0x3d2056d2	0.0391453
48	0xbd74e87f	-0.059792038
49	0xbdc7364a	-0.09727152
50	0x3c4bc1aa	0.01243631
51	0xbcf83551	-0.03029886
52	0xbdf78b19	-0.12087078
53	0x3e0a58a7	0.1351038
54	0x39ba78a9	0.00035566583
55	0x3da9472e	0.082655296
56	0xbdb39fd0	-0.08770716
57	0x3e205644	0.15657908
58	0xbd8b2e72	-0.06795968
59	0x3d83166b	0.0640076
60	0xbda810d3	-0.08206334
61	0xbdeb016a	-0.11474879
62	0xbc5e74dc	-0.013577666
63	0xbdc213a1	-0.094764
64	0xbd47ffc3	-0.048827898
65	0xba9421db	-0.0011301594
66	0xba938e18	-0.0011257557
67	0xba12935f	-0.0005591418
68	0xbdbc2153	-0.091860436
69	0x3d88c8fe	0.06678961
70	0x3dbb93e0	0.09159064
71	0x3bb4b334	0.0055145267
72	0x3db29e84	0.08721641
73	0x3beaa2f4	0.007160539
74	0x3cba78be	0.022762652
75	0xbd9dbafb	-0.07701679
76	0xbe031bab	-0.12803523
77	0xbd0f2898	-0.034950823
78	0x3dbe83d4	0.09302488
79	0x3e01ee1c	0.12688488
80	0xbd3022d3	-0.04300196
81	0x3d1693f1	0.03676218
82	0x3d169a12	0.036768027
83	0xbd8de4cb	-0.069284044
84	0x3dbc06a9	0.09180958
85	0xbd383991	-0.044976775
86	0xbce42cd9	-0.027853416
87	0x3e040ee0	0.128963
88	0xbd22f07c	-0.039780125
89	0xbe0bd1d8	-0.13654268
90	0x3d1d6eb0	0.038435638
91	0xbd533148	-0.05156067
92	0x3d88f1ff	0.06686782
93	0x3d98b943	0.07457211
94	0xbcad2699	-0.021136569
95	0xbd748218	-0.05969438
96	0x3bccc61d	0.006249203
97	0x3e160b97	0.14652859
98	0x3d5d33ab	0.054004353
99	0x3c83e8a0	0.016102135
100	0xbd127598	-0.035756677
101	0x3c62cbd8	0.013842545
102	0x3e46821c	0.1938557
103	0x3d9fd028	0.078033745
104	0x3c3e9b9e	0.011633782
105	0xbca3ada2	-0.019980256
106	0xbd22a27f	-0.03970575
107	0x3db4a034	0.08819619
108	0x3da47729	0.080305405
109	0xbd111eac	-0.03542964
110	0xbd683dc4	-0.05669953
111	0xbb22715b	-0.0024786803
112	0xbe0c7d53	-0.13719682
113	0xbe147e2c	-0.14501256
114	0xbd7d53b4	-0.061847404
115	0x3d374d46	0.044751428
116	0x3e1e9b51	0.15488936
117	0x3da83985	0.08214096
118	0xbdda3053	-0.10653748
119	0xbcddb591	-0.027064117
120	0xbda8c400	-0.08240509
121	0x3d8a1819	0.067428775
122	0x3e2337c6	0.15939245
123	0xbc21eb10	-0.009882703
124	0xbd85cf2e	-0.06533657
125	0x3d8d2e4c	0.06893596
126	0x3c949406	0.01813699
127	0xbc7c6840	-0.0154057145
128	0xbe210908	-0.15726101
129	0xbe1ceb96	-0.15324244
130	0x3d793028	0.06083694
131	0xbd08f670	-0.033438146
132	0x3bcd56fe	0.006266474
133	0x3d2a98d4	0.041649655
134	0xbd7fc9b8	-0.062448233
135	0xbd4437e9	-0.047904883
136	0xbc013ae8	-0.0078875795
137	0xbd55c834	-0.05219288
138	0xbd94af42	-0.0725999
139	0x3e0a500b	0.13507096
140	0xbdcd9938	-0.1003899
141	0xbd85babb	-0.06529757
142	0xbe0e626d	-0.13904734
143	0xbdab3e8f	-0.083615415
144	0x3c2834a9	0.010266461
145	0x3cccf2af	0.025018064
146	0xbdee8279	-0.116459794
147	0xbd97068c	-0.073742956
148	0xbc57473a	-0.01313954
149	0xbd59b24c	-0.053148553
150	0xbcfb7077	-0.030693276
151	0x3e95af83	0.29235467
152	0xbe4be238	-0.19910514
153	0x3b9bc915	0.0047541955
154	0xbdc5ad6a	-0.09652217
155	0x3939a4b6	0.00017704334
156	0xbda4e953	-0.080523156
157	0xbadbc33f	-0.0016766562
158	0x3c36a978	0.011148803
159	0x3dfe0f4f	0.12405264
160	0xbdb849ac	-0.08998427
161	0x3dcb39af	0.09923112
162	0xbe3144f9	-0.17311467
163	0x3d203591	0.039113585
164	0x3ce5cdf4	0.028052308
165	0xbc921596	-0.017832559
166	0xbe09292b	-0.1339461
167	0x3d96d464	0.07364729
168	0x3a4d7631	0.0007837741
169	0xbeb58b17	-0.3545768
170	0xbd31e9ba	-0.04343579
171	0xbe1be79c	-0.1522507
172	0xbc811fba	-0.015762199
173	0x3d2df5ab	0.042470615
174	0xbcbcacca	-0.023031611
175	0x3dca23d6	0.098701164
176	0xbdc34066	-0.095337674
177	0x3e2cc73b	0.16872875
178	0xbdfa280b	-0.12214669
179	0xbe36571b	-0.17806666
180	0xbda26b01	-0.079305656
181	0xbd4ba1a0	-0.049714684
182	0x3d060099	0.032715414
183	0x3c663199	0.014049911
184	0xbd146e01	-0.03623772
185	0xbe192851	-0.14956786
186	0xbe35f861	-0.1777053
187	0xbdfa48bf	-0.122209065
188	0x3cc4be02	0.024016384
189	0x3d01ee01	0.03172112
190	0xbd83002d	-0.06396518
191	0xbe144ad4	-0.1448167
192	0xbd27663c	-0.040868983
193	0xbd554ff2	-0.052078195
194	0x3da02867	0.07820206
195	0xbcd19096	-0.02558164
196	0xbd834f16	-0.06411569
197	0xbdef41bc	-0.1168246
198	0xbb864901	-0.004098058
199	0xbd8d89b6	-0.06911032
200	0x3ce3d6e1	0.027812423
201	0x3d7a11ac	0.06105201
202	0xbcaeb1d0	-0.021325022
203	0xbe124a32	-0.14286116
204	0xbe0f0618	-0.13967168
205	0x3e11228a	0.14173332
206	0x3d8247e0	0.06361365
207	0x3d2e4b43	0.042552244
208	0xbe4d7273	-0.2006319
209	0x3da11438	0.078651845
210	0x3bfa17b9	0.0076322225
211	0xbd2a49d4	-0.041574314
212	0xbdb47f88	-0.08813387
213	0x3d808a64	0.06276396
214	0xbe807e89	-0.2509654
215	0xbcd6c7a5	-0.026218245
216	0xbb83090b	-0.0039988807
217	0x3daaea36	0.083454534
218	0xbe470f90	-0.1943953
219	0xbe76c178	-0.2409724
220	0xbad2eea4	-0.0016092849
221	0x3d7bf799	0.061515424
222	0xbdf7ab36	-0.12093203
223	0xbe132c01	-0.14372255
224	0xbd252bdc	-0.04032503
225	0xbd14d903	-0.03633977
226	0xbe1888dd	-0.14895959
227	0xbe27377c	-0.1632976
228	0xbd4ab8cd	-0.049492646
229	0x3d17e4fd	0.037083615
230	0xbd3dd3e8	-0.046344668
231	0xbe0ad643	-0.13558297
232	0xbd8d1955	-0.06889597
233	0x3c405481	0.011738897
234	0xbd5f5733	-0.05452652
235	0x3d8e8577	0.0695905
236	0xbdc60c14	-0.096702725
237	0xbe052e8b	-0.13006036
238	0xbdde2116	-0.108461544
239	0xbe7ded94	-0.2479766
240	0xbc66b978	-0.014082305
241	0xbd702d8a	-0.05863718
242	0xbdf72b97	-0.12068861
243	0x3d234aad	0.03986614
244	0xbe08ad65	-0.13347395
245	0x3c932107	0.017960085
246	0x3c932592	0.01796225
247	0xbcd9ed74	-0.026602484
248	0xbe3818de	-0.17978236
249	0x3e029e0f	0.12755607
250	0xbd8b2df8	-0.06795877
251	0xbe28c4b3	-0.16481285
252	0x3e09182f	0.13388132
253	0xbdca3e7c	-0.09875199
254	0x3d1e82b6	0.038698874
255	0xbc6cb83b	-0.014448221

_peak_classifier._classifier.1._gate.1.bias f4 [32]
0	0x3c920305	0.017823705
1	0x3d06147a	0.03273437
2	0xbcf8cb22	-0.030370299
3	0xbca7a52d	-0.020464504
4	0x3d289fa3	0.041167866
5	0x3b861896	0.0040922863
6	0x3c72d02f	0.014820143
7	0x3d03bcd7	0.032162514
8	0xbd19043f	-0.037357565
9	0x3c8b378d	0.016994262
10	0x3c941d37	0.018080337
11	0x3ce51794	0.027965344
12	0x3d1be11d	0.03805648
13	0xbb7a94fb	-0.0038235772
14	0x3c8b5cb5	0.01701198
15	0x3c2d3eb5	0.010574033
16	0xbbf12d9f	-0.007360175
17	0xbc901afe	-0.017590996
18	0x3cbb7f1d	0.02288776
19	0xbbb44c99	-0.005502295
20	0xbc815a6d	-0.015790189
21	0xbd4740ec	-0.0486459
22	0x3d40ee50	0.047102273
23	0x3c3772bf	0.011196791
24	0x3c05462b	0.008134405
25	0x3d41f220	0.04735005
26	0x3d267a3e	0.040643923
27	0x3bdb6c6e	0.0066962754
28	0xbcc20e57	-0.023688478
29	0x3cf7a420	0.030229628
30	0xbb255c18	-0.0025231894
31	0xbc65e8ce	-0.014032556

_peak_classifier._classifier.1._gate.2.weight f4 [32]
0	0x3ed3286b	0.41241774
1	0x3f4ce894	0.80042386
2	0x3f6b789f	0.9198093
3	0x3f4072af	0.75174993
4	0x3f6cf201	0.9255677
5	0x3f496377	0.78667396
6	0x3f511c84	0.81684136
7	0x3f1f41ec	0.62209964
8	0x3f6bdae3	0.9213087
9	0x3f400a18	0.750154
10	0x3f7cb9ef	0.9872121
11	0x3f6d6174	0.92726827
12	0x3f4d5bf5	0.8021844
13	0x3f99d84f	1.2019137
14	0x3f867f5f	1.050762
15	0x3f4f64c1	0.81013113
16	0x3f39440a	0.72369444
17	0x3f5be27e	0.85892475
18	0x3f9347f1	1.150633
19	0x3f36c01e	0.713869
20	0x3f43078a	0.7618338
21	0x3f50c643	0.81552523
22	0x3fe7ba6b	1.8103765
23	0x3f39617e	0.72414386
24	0x3f913f36	1.1347415
25	0x3f39031d	0.72270375
26	0x3f4b5e06	0.79440343
27	0x3f4b3693	0.7938015
28	0x3f51e05d	0.81982976
29	0x3f66eb70	0.90203
30	0x3f70f68e	0.9412621
31	0x3f28fd44	0.6601145

_peak_classifier._classifier.1._gate.2.bias f4 [32]
0	0xbee3e5fd	-0.44511405
1	0xbf160652	-0.58603394
2	0xbe87ff5d	-0.26562014
3	0xbf047460	-0.51740074
4	0x3ef1c524	0.4722072
5	0xbf0edc19	-0.5580459
6	0xbed3334e	-0.4125008
7	0xbeca629a	-0.39528352
8	0xbe84976b	-0.25896773
9	0xbec9c25f	-0.39406106
10	0x3eb691bb	0.3565806
11	0xbf07f398	-0.5310607
12	0xbf18efd5	-0.59740955
13	0xbe0deebf	-0.13860606
14	0x3ef39d7a	0.47581083
15	0xbf178307	-0.59184307
16	0x3e230448	0.15919602
17	0xbf110a54	-0.56656384
18	0xbe38e1e9	-0.18054928
19	0xbf28e2da	-0.6597115
20	0xbeca79b6	-0.39545983
21	0xbeb19862	-0.3468657
22	0xbea1658d	-0.3152279
23	0xbeffcdb9	-0.4996164
24	0xbef7bbcc	-0.48385465
25	0xbee187b8	-0.44048858
26	0x3edf0f1e	0.4356622
27	0xbe6e479e	-0.23269507
28	0xbf1f8e0f	-0.6232614
29	0xbf0c3d76	-0.5478128
30	0x3ed6fbbf	0.41988942
31	0xbed77762	-0.4208327

_peak_classifier._classifier.1._gate.2.running_mean f4 [32]
0	0xbee4632c	-0.44606912
1	0xbf72b5c2	-0.9480859
2	0xbe0e58db	-0.13901083
3	0xbfc36dae	-1.5267847
4	0x3f41074c	0.7540176
5	0xbfa6c873	-1.3029922
6	0xbf919000	-1.137207
7	0xbfd11aaa	-1.6336262
8	0xbe6e587b	-0.2327594
9	0xbf908374	-1.1290116
10	0x3f0ea8e9	0.55726486
11	0xbfb12f16	-1.3842494
12	0xbec33f41	-0.38134196
13	0x3edd82b4	0.4326378
14	0x3eecfa0d	0.46284524
15	0xbfc7dd54	-1.5614419
16	0x3f222cab	0.6334941
17	0xbfbeb50d	-1.4899002
18	0x3cc7461a	0.02432542
19	0xbf2e45c9	-0.68075234
20	0xbfb0026b	-1.3750738
21	0xbfdc4469	-1.7208377
22	0xbee8322e	-0.45350784
23	0xbf7b260f	-0.9810495
24	0x3e66e0d9	0.2254671
25	0xbf98985b	-1.1921495
26	0x3f26faaf	0.6522626
27	0xbfa11fd8	-1.2587843
28	0xbf23c840	-0.6397743
29	0xbfc9bcdd	-1.5760761
30	0x3f2e4c27	0.6808495
31	0xbfadf0d3	-1.3589119

_peak_classifier._classifier.1._gate.2.running_var f4 [32]
0	0x3dc76d5e	0.09737657
1	0x3e837e8a	0.2568248
2	0x3da8ba4b	0.082386576
3	0x3e97c48e	0.29642147
4	0x3f0dd061	0.55396086
5	0x3e5a6b18	0.21329916
6	0x3e42d973	0.19028263
7	0x3f0a083e	0.53918827
8	0x3d90ba13	0.07066741
9	0x3e7a7bbc	0.24461263
10	0x3f02cbfd	0.5109251
11	0x3eb70114	0.3574301
12	0x3e3b415b	0.1828665
13	0x3e335fba	0.17516986
14	0x3ea46ebf	0.32115743
15	0x3eb6c7aa	0.35699207
16	0x3ec4cd98	0.38438106
17	0x3e99fe04	0.3007661
18	0x3e036aee	0.12833759
19	0x3e666f37	0.22503363
20	0x3eb97ca1	0.36227897
21	0x3efb1641	0.49040416
22	0x3e2a973d	0.16659255
23	0x3e927405	0.2860414
24	0x3e0f8326	0.14014873
25	0x3e991a7d	0.2990302
26	0x3f0c0710	0.54698277
27	0x3eaf6875	0.34259382
28	0x3e737367	0.23774491
29	0x3eb2f895	0.34955278
30	0x3ef2dc19	0.47433546
31	0x3e8bb385	0.272854

_peak_classifier._classifier.1._gate.4.weight f4 [256, 32]
0	0xbe792180	-0.24329185
1	0x3c8a6930	0.01689586
2	0xbd2443d4	-0.04010375
3	0xbe133263	-0.1437469
4	0xbd882945	-0.066484965
5	0xbd587e30	-0.052854717
6	0xbe7f1163	-0.24908976
7	0x3d3623cc	0.044467732
8	0xbe9412ae	-0.289205
9	0xbe187b95	-0.14890893
10	0xbe8d2b54	-0.2757212
11	0xbe4ca4c3	-0.19984727
12	0xbe586965	-0.21133955
13	0xbe6ec5ae	-0.23317596
14	0xbd8463a7	-0.0646432
15	0xbe6edb11	-0.23325755
16	0x3d8c558a	0.06852253
17	0x3dc719c7	0.097217135
18	0xbebb7970	-0.36616087
19	0xbd3059f0	-0.04305452
20	0xbe244562	-0.16042092
21	0xbe5bcda4	-0.21465164
22	0xbf223ce0	-0.6337414
23	0xbe9b31f0	-0.30311537
24	0xbf23dede	-0.64011943
25	0x3cfd42f8	0.030915722
26	0xbdae5018	-0.085113704
27	0xbce4ed59	-0.027945207
28	0xbec87672	-0.39152867
29	0xbb618ba4	-0.0034415508
30	0xbda82cff	-0.08211707
31	0xbdd38464	-0.10327986
32	0x3e02c67a	0.12771025
33	0x3df59ba6	0.11992578
34	0x3e58e443	0.21180825
35	0x3e5f7fe1	0.21826126
36	0xbe8e35fb	-0.2777556
37	0x3e65e0d4	0.22449046
38	0xbde16f36	-0.1100754
39	0xbe31c553	-0.1736043
40	0x3e264023	0.16235404
41	0xbdc68d48	-0.09694916
42	0xbe5b69a7	-0.21427022
43	0x3dd1a372	0.10236253
44	0x3e8f738d	0.28017846
45	0x3eb26b86	0.3484766
46	0xbeb501a7	-0.35352823
47	0x3e817f3e	0.2529239
48	0xbe9e3193	-0.30897197
49	0x3e5e8565	0.21730573
50	0x3efafc97	0.49020836
51	0x3e486acc	0.1957199
52	0xbc43ec25	-0.011958157
53	0x3dda9e46	0.106747195
54	0x3f82c339	1.0215827
55	0x3e1ca5b6	0.15297589
56	0x3ec2835b	0.3799084
57	0x3e2ea6ac	0.17055768
58	0xbeb903b7	-0.36135647
59	0x3c903b72	0.01760647
60	0x3e02e7a4	0.12783676
61	0x3e5fa0fd	0.21838756
62	0xbe36bbd4	-0.17845088
63	0x3e33c717	0.17556415
64	0xbe1b67af	-0.15176271
65	0xbe334663	-0.17507319
66	0xbe2acd51	-0.16679884
67	0x3e00f5c6	0.12593755
68	0xbed7852e	-0.42093796
69	0xbe39ab6a	-0.18131796
70	0xbbad7c0b	-0.005294328
71	0xbe6b5504	-0.2298165
72	0xbdc6feb8	-0.097165525
73	0xbe142d00	-0.14470291
74	0xbeac223a	-0.33619863
75	0xbe37f443	-0.17964272
76	0xbe802c15	-0.25033632
77	0xbe826b03	-0.25472268
78	0xbeda94c9	-0.4269164
79	0xbe3f5c06	-0.18687448
80	0xbde42961	-0.11140705
81	0xbdfcd743	-0.123457454
82	0xbeaad039	-0.33361986
83	0xbd8f9c4c	-0.07012233
84	0xbe97bec4	-0.2963773
85	0xbad4119f	-0.0016179568
86	0xbf06c04a	-0.5263716
87	0xbe903b49	-0.2817023
88	0xbf08ae95	-0.5339139
89	0x3da758c9	0.08171231
90	0xbe88b6ca	-0.26701957
91	0x3da50f5e	0.08059572
92	0xbb2f59a0	-0.0026756302
93	0x3dd7d5c3	0.10538819
94	0xbec601c8	-0.38673234
95	0xbe1ef0ab	-0.15521495
96	0x3cf8bdf3	0.030364012
97	0xbe68d078	-0.22735775
98	0x3c1cf4d8	0.00957986
99	0xbdd4aff6	-0.103851244
100	0xbde14883	-0.11000159
101	0xbdb57e6b	-0.08862003
102	0xbd831d47	-0.064020686
103	0xbd3134b3	-0.04326315
104	0xbdc7023a	-0.097172216
105	0xbdbcadf8	-0.092128694
106	0xbe8aa86e	-0.27081627
107	0xbc744ffe	-0.01491165
108	0xbe22c3a4	-0.15894943
109	0xbe58b428	-0.21162474
110	0xbebdc742	-0.37066084
111	0xbca4b9b0	-0.020108074
112	0xbe3ae297	-0.182505
113	0xbe9e6cd4	-0.30942404
114	0xbe753d6f	-0.23949216
115	0xbe055b7c	-0.1302318
116	0xbe7a2d2c	-0.24431294
117	0xbe1376c3	-0.14400773
118	0xbf1c9600	-0.6116638
119	0xbe01eae3	-0.12687258
120	0xbf1506dd	-0.582136
121	0xbd2a763c	-0.041616663
122	0xbe213e47	-0.15746413
123	0x3d99a899	0.075028606
124	0xbe520916	-0.20511279
125	0xbe98233d	-0.29714385
126	0xbe024fd0	-0.12725759
127	0xbe42da5f	-0.19028614
128	0x3c8dc9d6	0.017308157
129	0xbe6bfa68	-0.23044741
130	0x3e88820b	0.26661715
131	0xbe0fa4a6	-0.14027652
132	0x3e7eb4fe	0.2487373
133	0xbebe7e77	-0.3720586
134	0xbd1ef319	-0.038806055
135	0xbd4f09e5	-0.050546546
136	0x3e6fe248	0.23426163
137	0xbe484226	-0.19556484
138	0x3e89b235	0.26893774
139	0xbe707405	-0.23481758
140	0xbe0a3982	-0.134985
141	0x3e9d99c9	0.3078139
142	0x3e5d796d	0.21628352
143	0xbeb7ddfb	-0.35911545
144	0x3dbeedf9	0.093227334
145	0xbf176293	-0.5913479
146	0x3b25433f	0.0025217084
147	0xbdcf858f	-0.10132896
148	0xbe232fd7	-0.15936218
149	0xbe0e56f6	-0.1390036
150	0xbddad221	-0.1068461
151	0x3b3d9caf	0.0028932502
152	0xbed7feea	-0.42186671
153	0xbe8cd2e0	-0.27504635
154	0x3dddf556	0.1083781
155	0x3d88cb3a	0.066793874
156	0xbdaa3774	-0.08311358
157	0xbee7de25	-0.4528667
158	0x3e785d13	0.24254255
159	0xbeaee2c8	-0.34157395
160	0xbd86f845	-0.065903224
161	0x3e8e07e5	0.27740398
162	0xbdc59716	-0.09647958
163	0x3d9b0599	0.07569427
164	0xbdc02717	-0.09382456
165	0x3d1ae2d9	0.037813995
166	0x3e378ca1	0.1792474
167	0xbe011be1	-0.12608291
168	0xbe39c926	-0.18143138
169	0x3e6c1759	0.23055781
170	0xbd86e79b	-0.06587144
171	0x3e38ad29	0.18034805
172	0x3d5d01f4	0.05395694
173	0xbd15e801	-0.03659821
174	0xbe69abbe	-0.2281942
175	0x3e88846c	0.2666353
176	0xbe4c4bc4	-0.19950777
177	0x3e1fbebd	0.15600105
178	0xbe8bd49e	-0.27310652
179	0x3c14bfcc	0.009078931
180	0x3d4f1666	0.05055847
181	0x3cb7b9fa	0.022427548
182	0xbdb7fde4	-0.08983973
183	0x3c8360dc	0.016037397
184	0xbe588e99	-0.21148147
185	0x3e8363e4	0.25662148
186	0xbe04d696	-0.12972483
187	0x3e1cb9e7	0.15305291
188	0x3d99c805	0.07508854
189	0x3ebe6351	0.37185147
190	0xbe812660	-0.2522459
191	0xbc9643c5	-0.018342862
192	0xbcdc6889	-0.026905315
193	0x3db5ddab	0.088801704
194	0xbf045e69	-0.5170656
195	0x3e895a4d	0.26826707
196	0xbf0a2c20	-0.5397358
197	0x3e8d75df	0.2762899
198	0x3e84e27d	0.25954047
199	0xbd8d9484	-0.06913093
200	0xbf153286	-0.5828022
201	0x3e392ec8	0.18084252
202	0xbec9496e	-0.39313835
203	0x3ec3786b	0.3817781
204	0x3e8efa94	0.2792555
205	0xbe84e039	-0.25952318
206	0xbec62bbd	-0.38705245
207	0x3e3dd2fa	0.18537512
208	0xbe8128b8	-0.25226378
209	0x3e83f197	0.25770256
210	0xbef2ac00	-0.4739685
211	0x3e78b14f	0.24286388
212	0x3da62aa1	0.081135996
213	0x3ea0fc1d	0.31442347
214	0xbe8cc35d	-0.274928
215	0x3ceb5541	0.028727176
216	0xbdefeac4	-0.117147
217	0x3e2897c4	0.16464144
218	0xbeef8a7a	-0.46785337
219	0x3dbee0d4	0.09320226
220	0x3ea7a517	0.3274314
221	0x3e9578ad	0.2919363
222	0xbf18bf75	-0.5966714
223	0xbc66f749	-0.014097043
224	0x3e65f108	0.22455227
225	0x3da09c52	0.07842316
226	0x3df81c51	0.12114776
227	0x3e045742	0.12923911
228	0xbe219716	-0.15780291
229	0x3e8995fc	0.26872241
230	0x3e2ee585	0.17079742
231	0xbd2ce454	-0.04220994
232	0x3e17a35d	0.14808412
233	0xbb3befbb	-0.0028676826
234	0xbe95c600	-0.29252625
235	0x3d0724d5	0.03299411
236	0x3e3f6ce2	0.18693879
237	0x3e6624a5	0.22474916
238	0xbec50b7c	-0.38485324
239	0x3e44edf7	0.19231401
240	0xbe0a2b33	-0.13493042
241	0x3ded6de6	0.11593227
242	0x3ee262a0	0.4421587
243	0x3eaad836	0.3336808
244	0x3dd318e4	0.10307482
245	0x3e1253a5	0.1428972
246	0x3f563a34	0.8368256
247	0x3ce891d0	0.028389841
248	0x3e986d4a	0.2977088
249	0x3e6c2331	0.230603
250	0xbe8e63f8	-0.27810645
251	0x3d2de7db	0.042457443
252	0x3e3326cb	0.17495267
253	0x3d2156e9	0.039389525
254	0xbe754377	-0.23951517
255	0x3ce8ba0d	0.028409028

_peak_classifier._classifier.1._gate.4.bias f4 [256]
0	0x3e0b43f9	0.13600148
1	0xbf1d00d8	-0.6132941
2	0xbb156996	-0.002279853
3	0xbdceaa06	-0.10091023
4	0x3e9ecc27	0.3101513
5	0xbe7e1c2e	-0.24815437
6	0xbf331c1e	-0.6996478
7	0xbecc2760	-0.3987379
8	0xbddc5ced	-0.10759912
9	0xbe867e25	-0.26268116
10	0x3db59f31	0.08868254
11	0xbebfb545	-0.37442985
12	0xbd7608dc	-0.060067043
13	0xbeb6f969	-0.3573716
14	0xbf548de7	-0.83029026
15	0xbea01a3a	-0.3127001
16	0xbccf860e	-0.025332477
17	0xbeb2ab8b	-0.34896502
18	0xbea6b0c1	-0.32556728
19	0x3db0d2da	0.08633967
20	0xbf186fc3	-0.59545535
21	0x3e943ec5	0.2895414
22	0x3ec0a3e9	0.37625054
23	0xbf050534	-0.51961064
24	0xbe397daa	-0.18114343
25	0xbf1d5536	-0.61458147
26	0x3d4e1d5d	0.05032097
27	0xbd9e96f3	-0.07743635
28	0xbef4a4aa	-0.4778188
29	0xbf2d0603	-0.675873
30	0xbcf01865	-0.029308507
31	0x3e0bf99e	0.1366944
32	0xbe4aac1b	-0.19792216
33	0xbdf5f8fd	-0.12010381
34	0x3ea0e7cd	0.3142685
35	0x3e23bf5b	0.15990965
36	0xbea8ecd7	-0.32993194
37	0xbd54633b	-0.051852446
38	0xbf0e4a57	-0.55582184
39	0xbf103525	-0.5633109
40	0x3db4b428	0.088234246
41	0xbf108464	-0.5645201
42	0xbe288704	-0.16457754
43	0x3e31faf3	0.17380886
44	0xbdb14eb5	-0.0865759
45	0x3b4d11cd	0.0031291128
46	0xbf69a319	-0.9126449
47	0xbe40e11a	-0.1883587
48	0x3de0438f	0.10950386
49	0xbe4d9710	-0.20077157
50	0x3cdc477a	0.026889551
51	0x3e91d22d	0.28480664
52	0xbf3a50b0	-0.7277937
53	0xbe2efe48	-0.17089188
54	0xbea0be03	-0.31394967
55	0xbd059265	-0.032610316
56	0xbd8c9708	-0.068647444
57	0x3eba0022	0.36328226
58	0x3daf616e	0.08563505
59	0xbf6c775a	-0.92369616
60	0xbea26329	-0.31716278
61	0xbf0187d8	-0.50597906
62	0x3e6cdee6	0.23131904
63	0xbec1ef25	-0.37877765
64	0xbe8b12d0	-0.2716279
65	0xbd46a790	-0.048499644
66	0xbe4671c1	-0.19379331
67	0x3ca88720	0.020572245
68	0x3bdbc52e	0.0067068553
69	0xbe32bd59	-0.17455043
70	0xbe8373d3	-0.25674304
71	0xbebbf0ea	-0.3670724
72	0xbe069990	-0.13144517
73	0xbecebf05	-0.4038011
74	0xbddd32c0	-0.108006954
75	0xbe33d8fc	-0.17563242
76	0xbe6d7054	-0.23187381
77	0xbe8fc85c	-0.2808255
78	0xbe744ca6	-0.23857364
79	0xbeb14872	-0.34625584
80	0x3df6117f	0.12015056
81	0xbed6afba	-0.41930944
82	0xbebe8415	-0.37210146
83	0x3e581e55	0.21105321
84	0xbe0e1c79	-0.13878049
85	0x3e6ef2c2	0.23334792
86	0xbefecc35	-0.49765173
87	0xbeed193c	-0.46308315
88	0xbe55b6c0	-0.20870495
89	0xbf21b663	-0.63168925
90	0xbeb74628	-0.35795712
91	0xbe1a078e	-0.15041944
92	0xbd8dad83	-0.0691786
93	0x3bd590bb	0.0065174974
94	0xbdc783b4	-0.09741917
95	0x3ed8192d	0.42206708
96	0xbf0a9fd9	-0.5415016
97	0xbf369583	-0.71321887
98	0xbf04539b	-0.5169007
99	0x3debd3b0	0.115149856
100	0xbe953672	-0.291431
101	0x3e0ff2f8	0.14057529
102	0xbf44e29d	-0.76908284
103	0xbf017b8b	-0.50579137
104	0xbeb7b61b	-0.35881123
105	0xbf1f889d	-0.6231783
106	0x3e026293	0.12732916
107	0xbe5face4	-0.21843296
108	0xbd28a71e	-0.041175
109	0x3dd17c28	0.10228759
110	0xbe8d9025	-0.27649036
111	0xbed2ee20	-0.411973
112	0xbeeaf18a	-0.45887405
113	0xbe7e99c8	-0.2486335
114	0xbe1752ee	-0.14777729
115	0xbed4035a	-0.41408807
116	0xbd8476e6	-0.064679906
117	0x3cae4f6f	0.021278111
118	0xbed58eb8	-0.41710448
119	0x3e160f47	0.14654265
120	0xbedeab8f	-0.43490264
121	0x3de00d55	0.10940043
122	0x3e451051	0.19244505
123	0x3dd3b6af	0.103375785
124	0xbd89f01b	-0.067352496
125	0x3bd4a662	0.006489561
126	0xbd5b7f06	-0.053587936
127	0x3df8b394	0.12143627
128	0x3daf8f22	0.08572222
129	0xbd431a5c	-0.04763256
130	0xbe266232	-0.16248396
131	0xbe252732	-0.16128233
132	0x3eb1c867	0.34723207
133	0xbdc8aaea	-0.09798224
134	0x3e2b2051	0.16711546
135	0x3cdf927d	0.02729153
136	0xbe10e6b3	-0.14150505
137	0xbe1fe4be	-0.15614602
138	0xbe17e9e9	-0.14835323
139	0xbef0c865	-0.4702789
140	0xbd65a954	-0.056069687
141	0xbd8e1702	-0.06937982
142	0xbe6ec790	-0.23318315
143	0xbdc9f235	-0.098606504
144	0x3e3284d7	0.17433487
145	0x3f905016	1.127444
146	0xbe2f314c	-0.17108649
147	0xbe6bdb8c	-0.23032969
148	0xbdafe2dc	-0.08588192
149	0x3db32f64	0.087492734
150	0x3d47d46d	0.04878657
151	0xbe709bc1	-0.23496915
152	0xbd603e91	-0.054747168
153	0xbb4b56f2	-0.0031027165
154	0xbd129c4e	-0.035793595
155	0xbe8aac64	-0.2708465
156	0xbeb647fb	-0.35601792
157	0xbe6c0e36	-0.23052296
158	0xbead43e8	-0.3384087
159	0x3e8d8dca	0.2764724
160	0xbe52ec64	-0.20597988
161	0xbe1b4eff	-0.15166853
162	0x3e497341	0.19672872
163	0x3e7f537d	0.24934192
164	0xbe91f4e3	-0.28507146
165	0x3d9bf3d7	0.07614868
166	0xbda86219	-0.08221836
167	0xbd38c928	-0.045113713
168	0x3cb61c9c	0.022230439
169	0x3e2170d5	0.15765698
170	0xbd332727	-0.04373851
171	0xbcb7eb1f	-0.022450982
172	0x3c033c5f	0.008009999
173	0xbc386c55	-0.011256297
174	0xbef1eb08	-0.47249627
175	0xbd4c37ce	-0.049857907
176	0x3e259c5b	0.16172926
177	0xbee4c0bd	-0.44678298
178	0xbdb09d84	-0.08623794
179	0x3e092b1e	0.13395354
180	0xbeafc5e8	-0.34330678
181	0xbe55a5a4	-0.20863968
182	0xbe64f7ff	-0.22360228
183	0xbd8b7137	-0.068087034
184	0xbde0b0a9	-0.10971195
185	0x3e1ba3b8	0.15199172
186	0x3ca838fd	0.020534987
187	0xbd16b7f0	-0.03679651
188	0xbeeae774	-0.4587971
189	0xbe6abf5a	-0.22924557
190	0x3dd4f5cc	0.103984445
191	0x3d25b89e	0.040459268
192	0xbe59ab77	-0.21256815
193	0x3ca6bf4b	0.020354887
194	0x3db0779e	0.08616565
195	0xbe3d2974	-0.18472844
196	0x3db9b572	0.09067811
197	0x3d9d87a0	0.07691884
198	0x3e4828c3	0.195468
199	0xbecc2deb	-0.39878783
200	0x3f5d35e8	0.8641038
201	0xbd8844d5	-0.06653754
202	0x3e28f7d6	0.16500792
203	0xbdab6960	-0.08369708
204	0xbd627e90	-0.05529648
205	0xbe0684a6	-0.13136539
206	0xbee28905	-0.44245163
207	0xbcfeb586	-0.031092416
208	0xbb7cceca	-0.0038575404
209	0x3db12d0d	0.08651171
210	0xbe6eb930	-0.23312831
211	0xbc2c94fe	-0.010533569
212	0xbee5209d	-0.44751444
213	0xbd4cecca	-0.050030507
214	0xbe226671	-0.15859391
215	0xbdadf329	-0.08493645
216	0xbde4e767	-0.11176949
217	0x3c826366	0.015916537
218	0xbee66d83	-0.45005426
219	0xbe3af928	-0.18259108
220	0x3d088fd5	0.033340294
221	0xbe282403	-0.16419987
222	0x3e26486a	0.16238561
223	0x3e139978	0.14414012
224	0xbb869c64	-0.0041079987
225	0xbe3abdcf	-0.18236469
226	0xbed784dd	-0.42093554
227	0x3e0c388e	0.13693449
228	0xbdfa6a1a	-0.122272685
229	0x3de36207	0.111026816
230	0xbbb92c38	-0.0056510232
231	0xbec79438	-0.3898027
232	0xbe3a4536	-0.18190464
233	0xbe323561	-0.17403175
234	0x3ea7fb49	0.32808903
235	0x3e3e9149	0.1861011
236	0xbdf84a24	-0.12123516
237	0x3dcc028e	0.09961425
238	0xbd058505	-0.03259756
239	0xbc812490	-0.015764505
240	0x3dad92f3	0.08475294
241	0xbde49269	-0.11160738
242	0x3d63203d	0.055450667
243	0xbe60d4f8	-0.21956241
244	0xbe5c09d6	-0.21488127
245	0x3f514400	0.81744385
246	0xbe97b24d	-0.2962822
247	0xbd9928d9	-0.07478494
248	0xbe241c43	-0.16026406
249	0xbdcc4742	-0.09974529
250	0xbeacb833	-0.33734283
251	0xbd315bc2	-0.043300398
252	0xbe888250	-0.2666192
253	0x3e7dd69e	0.24788901
254	0xbdd16fd0	-0.10226405
255	0xbd3fce07	-0.046827342

_peak_classifier._classifier.2.weight f4 [2, 256]
0	0x3e9b4728	0.30327725
1	0xbee7be3b	-0.45262322
2	0x3dcd51f8	0.100254
3	0x3e584506	0.2112008
4	0x3e28c894	0.16482764
5	0x3d82ed84	0.06392959
6	0x3cccda19	0.02500634
7	0xbe7b7881	-0.24557687
8	0x3d01e70b	0.03171448
9	0xbe63ca90	-0.2224524
10	0x3e2294d7	0.1587709
11	0xbe87fb76	-0.26559037
12	0x3e7e9564	0.24861676
13	0xbb5b61dc	-0.0033475077
14	0xbebd64e5	-0.3699104
15	0x3dc8b0f7	0.09799378
16	0x3e28c61c	0.16481823
17	0xbe584003	-0.21118169
18	0xbe608052	-0.2192395
19	0x3e0f4b7d	0.1399364
20	0xbee10ba2	-0.43954188
21	0x3e8f76eb	0.28020415
22	0x3e85e1f4	0.2614895
23	0xbe9b2533	-0.30301818
24	0x3d956a32	0.07295646
25	0xbe9613bb	-0.29311928
26	0x3e18d1cc	0.14923781
27	0x3d6a2749	0.05716637
28	0x3dadc64a	0.08485086
29	0xbe5f10f3	-0.2178381
30	0x3d58144d	0.052753735
31	0x3ebb8e4d	0.36632004
32	0x3e13cfd1	0.14434744
33	0x3daeda7d	0.08537767
34	0x3e4dc321	0.20093967
35	0x3eafbdf8	0.34324622
36	0xbda63f99	-0.08117599
37	0x3de74fa5	0.11294488
38	0xbe9fa7fb	-0.31182846
39	0xbeaffec3	-0.34374055
40	0x3deb9ce8	0.11504537
41	0xbe9ca512	-0.3059469
42	0x3e597aa3	0.21238188
43	0x3e795c03	0.24351506
44	0x3e0432a4	0.12909943
45	0x3eb7e597	0.3591735
46	0xbf10e4bc	-0.5659902
47	0xbe01c085	-0.12671097
48	0x3e41464f	0.18874477
49	0x3e5cb6d9	0.21554126
50	0x3e8a6b0c	0.27034795
51	0x3e737d6a	0.2377831
52	0xbeb67295	-0.35634294
53	0x3f1f8c3f	0.62323374
54	0xbd570bf0	-0.05250162
55	0x3e1375d6	0.1440042
56	0x3de3c2cd	0.1112114
57	0x3e934284	0.28761685
58	0x3e381a20	0.17978716
59	0xbeb128a6	-0.34601325
60	0xbe589eed	-0.21154375
61	0xbe7ca052	-0.24670532
62	0x3e317f3c	0.17333692
63	0xbe8fe9c8	-0.28108048
64	0xbe574a06	-0.21024331
65	0x3dff0367	0.12451821
66	0x3d963405	0.07334141
67	0xbd7122ea	-0.058871187
68	0x3e4231fb	0.18964379
69	0x3e2eeaf2	0.17081812
70	0x3e4dc2f8	0.20093906
71	0x3e5ce4ff	0.2157173
72	0x3e8eed12	0.27915245
73	0xbe90bc39	-0.28268602
74	0x3d31f22b	0.04344384
75	0x3e41367c	0.1886844
76	0x3e70e668	0.23525393
77	0x3e355dbb	0.17711537
78	0x3e0662e3	0.1312366
79	0x3e68df03	0.22741322
80	0x3e6cc0e3	0.23120455
81	0xbe2a15df	-0.16609906
82	0x3e873fa4	0.2641574
83	0x3ea79bea	0.3273614
84	0xbd6efe58	-0.05834803
85	0x3e4a26ad	0.19741316
86	0xbe94c705	-0.2905809
87	0xbe3fea50	-0.18741727
88	0xbbcc1967	-0.006228614
89	0xbe7c153d	-0.24617477
90	0xbe5e445d	-0.21705766
91	0x3de136d7	0.10996788
92	0x3d536566	0.051610373
93	0x3e8e6fa5	0.27819553
94	0x3d47fb0e	0.04882341
95	0x3e452251	0.19251372
96	0xbec96e61	-0.39342025
97	0xbed792e3	-0.42104253
98	0xbea2b760	-0.3178053
99	0x3e036860	0.12832785
100	0x3e01922f	0.12653421
101	0x3dfb7bf6	0.12279503
102	0xbe111d04	-0.14171225
103	0xbe50457c	-0.20339006
104	0x3dfacc5d	0.122460105
105	0xbef78175	-0.48340955
106	0x3e8744d2	0.26419693
107	0x3e283a16	0.16428408
108	0xbdb0ebf7	-0.08638757
109	0x3e0bc971	0.13651063
110	0x3ddc600d	0.10760508
111	0xbe84389e	-0.25824445
112	0xbe940681	-0.28911212
113	0x3d418532	0.047246166
114	0x3d10179e	0.035178773
115	0xbea3fb47	-0.32027647
116	0x3e0a0466	0.1347824
117	0x3e8c758f	0.2743344
118	0x3e47d9e1	0.19516708
119	0xbe8bea23	-0.2732707
120	0xbe78b0d0	-0.24286199
121	0x3ec31496	0.38101643
122	0xbe5f39bb	-0.21799366
123	0x3e39d94d	0.181493
124	0x3e89c7b8	0.26910186
125	0x3e3b32b1	0.18281056
126	0xbdedd960	-0.116137266
127	0x3e4abeac	0.19799298
128	0xbe81a1c2	-0.25318724
129	0x3d7417c2	0.05959297
130	0x3d6c22ed	0.057650495
131	0xbdb64d46	-0.089014575
132	0xbe808029	-0.25097778
133	0xbe0d4739	-0.137967
134	0x3fd0e2a7	1.6319169
135	0xbed11046	-0.40832728
136	0xbd6b628d	-0.057467032
137	0x3ed0ca05	0.4077913
138	0xbdc3d882	-0.0956278
139	0x3d71f1a4	0.059068337
140	0x3f4653aa	0.7747141
141	0xbd80a0da	-0.0628068
142	0xbdf0fdf6	-0.11767189
143	0xbe92d5d3	-0.2867876
144	0xbeb4311d	-0.3519372
145	0x40557416	3.3352103
146	0xbcdfe320	-0.027329981
147	0xbd2bad7e	-0.041913502
148	0xbd5ab7fb	-0.053398114
149	0xbe4988b0	-0.19681048
150	0xbe5438f1	-0.20724846
151	0xbe7915a1	-0.24324657
152	0xbe852681	-0.2600594
153	0x3db04904	0.086076766
154	0xbe745173	-0.23859195
155	0xbd9ad64a	-0.07560404
156	0x3d0f408f	0.034973677
157	0xbd9d7356	-0.07688014
158	0xbe2f517a	-0.17120925
159	0xbe9cd578	-0.30631614
160	0xbe22266b	-0.15834968
161	0xbdcc2077	-0.0996713
162	0xbea70f5e	-0.32628912
163	0xbe1adf38	-0.15124214
164	0x3e6a4667	0.22878419
165	0xbe3eeb7f	-0.18644522
166	0xbdcb6dfb	-0.099330865
167	0xbe52fb14	-0.20603591
168	0xbdf9b9ad	-0.12193618
169	0xbe3fd2cf	-0.18732761
170	0xbe1283ae	-0.14308044
171	0xbe611300	-0.21979904
172	0xbdbdcd51	-0.092676766
173	0xbecaed5e	-0.39634222
174	0xbd9b7a8b	-0.075917326
175	0xbe1e5dc2	-0.15465453
176	0xbe21ddae	-0.1580722
177	0xbc2acdd4	-0.01042505
178	0xbe3a7f2f	-0.18212579
179	0xbe8231f7	-0.25428745
180	0xbd5947aa	-0.05304686
181	0x3e57f9ec	0.21091431
182	0xbd6fde99	-0.058561895
183	0xbe2806ee	-0.16408893
184	0xbdd48a41	-0.10377932
185	0xbeae084c	-0.33990705
186	0xbe55ff9d	-0.2089829
187	0xbe662264	-0.22474056
188	0x3cf5e249	0.030015128
189	0xbd666da5	-0.05625691
190	0xbe6be9fb	-0.23038475
191	0xbb809d2d	-0.003924987
192	0xbdc743e4	-0.09729746
193	0xbe115677	-0.1419314
194	0xbde0fe8c	-0.10986051
195	0x3de094b1	0.10965861
196	0x3f396ff3	0.72436446
197	0x3fdd410f	1.7285479
198	0xbe65f069	-0.2245499
199	0x3cc39cd6	0.023878496
200	0x400bc181	2.1836855
201	0xbc7e742b	-0.015530626
202	0xbdf2c294	-0.11853519
203	0xbd220bc4	-0.039562
204	0x3e852bd9	0.26010016
205	0x3d9450b6	0.07241957
206	0xbcefd04b	-0.029274127
207	0x3ec8685a	0.39142114
208	0xbe1c828c	-0.15284175
209	0xbe5f4194	-0.2180236
210	0x3e1592f7	0.14606844
211	0xbe80ad2a	-0.25132114
212	0xbc874912	-0.016514335
213	0xbdb00a04	-0.0859566
214	0xbd4f5c7e	-0.050625317
215	0x3db9a7fb	0.09065243
216	0xbbc64490	-0.0060506538
217	0x3d0dc770	0.034614027
218	0xbceab5ca	-0.028651137
219	0xbe72802d	-0.23681708
220	0xbd9f4cc8	-0.07778317
221	0x3dedfacc	0.11620101
222	0xbe4f7f68	-0.20263445
223	0xbe37c1c8	-0.17945015
224	0xbdf63310	-0.12021458
225	0x40930e5d	4.5955033
226	0xbe4d5b3d	-0.20054336
227	0xbe722817	-0.23648106
228	0xbdc4e5a8	-0.09614116
229	0xbeca865f	-0.39555642
230	0xbe11b62d	-0.14229651
231	0xbe4c213c	-0.19934553
232	0x3b72c302	0.0037042503
233	0xbdb25f73	-0.08709612
234	0xbe90ca53	-0.2827936
235	0xbdf69f17	-0.12042063
236	0x3c81940f	0.01581767
237	0xbe2cd4c1	-0.16878034
238	0xbdd24e0e	-0.10268794
239	0xbda989b6	-0.082782194
240	0xbdca2b30	-0.098715186
241	0x3d1dab75	0.038493592
242	0xbdd537ae	-0.10411011
243	0xbe03c703	-0.12868886
244	0x3d81b9e2	0.063342825
245	0xbfb0f47b	-1.382461
246	0x3def2e67	0.116787724
247	0x3ea84292	0.3286329
248	0xbdcc681d	-0.099807955
249	0xbf89355d	-1.071941
250	0x3e7a1a44	0.24424082
251	0xbe5ec03e	-0.21753022
252	0xbf90a69b	-1.1300844
253	0xbe561d81	-0.20909692
254	0x3df3ea07	0.119098715
255	0xbe3738df	-0.17892788

_peak_classifier._classifier.2.bias f4 [2]
0	0x3d7a64c8	0.06113127
1	0xbd2a909d	-0.04164182
