outputs/seed42_detector.pth (torch, 407116 bytes, 10 tensors)

_rnn.weight_ih_l0 f4 [384, 1]
0.01836367 0.052870996 -0.005509064 0.092942186 -0.7409669 -0.99503875 -0.05134936 0.01774012
0.1735932 -0.07649441 0.16230896 -0.09721736 0.038618118 0.009032744 0.13421397 -0.11813715
-0.7594569 0.012549025 -0.083285116 0.014138557 -0.08980525 -0.00450591 -0.07472368 0.1199838
-0.1155032 -0.07603603 -0.13551721 -0.06568221 0.053860135 -0.02720994 0.13876648 -0.051957775
0.48010525 -0.01834754 -0.019471152 0.028290274 -0.14935687 0.15671028 -0.087147504 -0.095582366
0.053751837 -0.12758614 0.002679811 0.035917494 0.0017362683 -0.021911424 0.19195576 -0.2229974
0.06725345 -0.18858977 0.04837091 -0.1431482 -0.11595965 0.10761769 -0.39448196 -0.07549107
-0.18455139 -0.13524686 0.021881867 -0.068861224 0.15788114 -0.8675592 -0.032465618 -0.10321599
0.008207833 -0.034045517 -0.08630087 -0.5869526 0.35869855 -0.047224924 0.07438018 -0.23867856
0.13483635 -0.0519053 -0.18193403 -0.047442254 -0.44923797 -0.017454091 0.039526664 0.027992569
-0.06429135 -0.27138117 0.07128092 -0.010699931 0.050490282 -0.11797718 0.070569865 -0.5760054
-0.21193099 0.011135556 -0.9064879 -0.09210809 -0.5050073 0.09783502 -0.020751385 -0.083009504
0.09446927 -0.16120441 -0.040784135 -0.09153785 -0.0430021 -0.039426118 -0.016332714 -0.066899486
0.06990242 -0.08960388 -0.17359875 -0.092851505 -0.07245056 0.002987028 0.17895603 -0.2488122
0.08971747 -0.012655317 -0.052109778 -0.064934775 0.92500144 -0.08414585 -0.039073575 -0.07874656
-0.09860594 -0.06058537 -0.0032347061 -0.17100716 -0.08901158 -0.07999661 -0.3043578 -0.12795246
0.11103722 -0.017171025 0.08707022 0.02066798 0.14348404 0.17648396 -0.020639217 -0.027044248
-0.14432931 -0.09205064 0.029607458 -0.0040655723 0.03659701 -0.08485642 0.01689792 0.01098387
0.07626875 0.019903703 0.0928503 0.10703887 0.14223582 -0.054501988 0.062402263 -0.0055435575
0.0031358781 -0.06945945 0.14074804 -0.07539636 0.017849613 0.01870204 0.037093535 -0.034923233
-0.05114772 0.023769416 0.0062303706 -0.07070168 0.08762808 0.0013311702 -0.06786117 0.08237238
0.028358731 -0.032106645 -0.07135168 0.010419316 0.054377973 -0.02102235 -0.0963558 0.076914705
-0.06683985 0.0735757 0.050621774 -0.0042702057 0.035019513 0.044954423 0.1349735 -0.032609094
0.07349597 0.14193265 0.046910398 -0.020029042 -0.039463647 0.19060382 -0.006305237 0.024845228
0.055580355 0.08125202 -0.0037915946 0.13695344 -0.045613017 -0.0032114822 0.023431465 0.16273947
-0.13452813 -0.04866925 0.11527223 0.024955204 0.03825225 -0.035899248 -0.05780257 -0.04646154
-0.034449257 0.043590795 0.056181926 0.03801458 -0.10371309 -0.054043036 -0.04516096 0.23098198
0.07736182 -0.02578188 0.16582394 -0.026991744 0.47399935 0.028756524 -0.070104375 -0.014682639
-0.09344602 0.120256044 0.06400215 0.11661144 -0.06407966 -0.08701726 -0.07471847 0.06649162
0.02426627 0.103559576 0.06565697 0.01733306 -0.0020353268 -0.060431965 -0.08876195 -0.025740365
0.046662897 -0.044803694 -0.011512185 -0.050413962 -0.0824517 -0.100803964 -0.03350655 0.029222762
-0.021290625 0.0755262 -0.03289212 -0.073943764 -0.03197687 -0.036917176 -0.011559489 -0.104120664
00000000: 686f 963c 428f 583d 6185 b4bb 7958 be3d
00000010: 02b0 3dbf dcba 7ebf b553 52bd ba53 913c
00000020: 6ac2 313e 1aa9 9cbd 5234 263e e519 c7bd
00000030: 082e 1e3d 13fe 133c 636f 093e e4f1 f1bd
00000040: c46b 42bf 6d9a 4d3c 6391 aabd 68a5 673c
00000050: d1eb b7bd 50a6 93bb bb08 99bd 11ba f53d
00000060: f18c ecbd c7b8 9bbd 06c5 0abe 6584 86bd
00000070: 729c 5c3d 61e7 debc cd18 0e3e add1 54bd
00000080: 5bd0 f53e 954d 96bc f781 9fbc 01c1 e73c
00000090: 02f1 18be a978 203e 647a b2bd b0c0 c3bd
000000a0: e32a 5c3d f1a5 02be c59f 2f3b 391e 133d
000000b0: 7f93 e33a 967f b3bc 0d90 443e 6e59 64be
000000c0: 2dbc 893d ad1d 41be 9320 463d 7195 12be
000000d0: 417c edbd aa66 dc3d 8af9 c9be 109b 9abd
000000e0: 0afb 3cbe 277e 0abe 9a41 b33c 1d07 8dbd
000000f0: 98ab 213e 5c18 5ebf abfa 04bd e862 d3bd
00000100: 267a 063c 5073 0bbd 83be b0bd 8742 16bf
00000110: 56a7 b73e ec6e 41bd a354 983d 2768 74be
00000120: 8a12 0a3e a79a 54bd ea4c 3abe cf52 42bd
00000130: 8502 e6be e2fb 8ebc b6e6 213d ac50 e53c
00000140: 2fab 83bd 79f2 8abe bbfb 913d c34e 2fbc
00000150: e6ce 4e3d 059e f1bd ef86 903d 1775 13bf
00000160: 7004 59be e871 363c 970f 68bf 2ba3 bcbd
00000170: 2948 01bf ba5d c83d cffe a9bc e300 aabd
00000180: 1b79 c13d c512 25be 440d 27bd 3278 bbbd
00000190: f822 30bd 487d 21bd 2fcc 85bc 9902 89bd
000001a0: 0029 8f3d 3d82 b7bd dfc3 31be ee28 bebd
000001b0: f660 94bd 04c2 433b 4040 373e a0c8 7ebe
000001c0: cbbd b73d 3f58 4fbc 1071 55bd 86fc 84bd
000001d0: e5cc 6c3f a954 acbd 9d0b 20bd e045 a1bd
000001e0: e9f1 c9bd 5d28 78bd 5dfd 53bb 801c 2fbe
000001f0: b44b b6bd 43d5 a3bd c9d4 9bbe f805 03be
00000200: 7b67 e33d 40aa 8cbc df51 b23d e54f a93c
00000210: 7bed 123e 36b8 343e 9313 a9bc e68b ddbc
00000220: 10cb 13be 0c85 bcbd 578b f23c 7e38 85bb
00000230: bfe6 153d 34c9 adbd 826d 8a3c b1f5 333c
00000240: ca32 9c3d 170d a33c 4c28 be3d 3237 db3d
00000250: 44a6 113e 7a3d 5fbd 8499 7f3d bba6 b5bb
00000260: 4e83 4d3b c240 8ebd 4120 103e 6869 9abd
00000270: 5a39 923c 0535 993c 64ef 173d aa0b 0fbd
00000280: 4680 51bd 14b8 c23c 2328 cc3b 0bcc 90bd
00000290: 5a76 b33d a97a ae3a ccfa 8abd dab2 a83d
000002a0: 9250 e83c 4282 03bd d420 92bd c7b5 2a3c
000002b0: 70bb 5e3d 1037 acbc 3156 c5bd 7585 9d3d
000002c0: 55e3 88bd dbae 963d c758 4f3d 15ed 8bbb
000002d0: 9f70 0f3d 2122 383d 7e36 0a3e 1d91 05bd
000002e0: 0e85 963d cb56 113e 1e25 403d f213 a4bc
000002f0: a2a4 21bd a62d 433e 299c cebb 3888 cb3c
00000300: 3aa8 633d 7667 a63d 677c 78bb 863d 0c3e
00000310: b7d4 3abd bb77 52bb 58f3 bf3c 2da5 263e
00000320: bec1 09be 6859 47bd d913 ec3d db6e cc3c
00000330: 64ae 1c3d 170b 13bd 63c2 6cbd 754e 3ebd
00000340: aa1a 0dbd 438c 323d 051f 663d 2db5 1b3d
00000350: 8767 d4bd 3b5c 5dbd b3fa 38bd 8a86 6c3e
00000360: e06f 9e3d 8534 d3bc c0cd 293e ca1d ddbc
00000370: 0bb0 f23e cd92 eb3c e292 8fbd 748f 70bc
00000380: a060 bfbd cd48 f63d 8f13 833d fbd1 ee3d
00000390: 323c 83bd 1b36 b2bd ff05 99bd c22c 883d
000003a0: 0fca c63c 0b17 d43d 2977 863d 10fe 8d3c
000003b0: 1e63 05bb 8287 77bd d3c8 b5bd 75dd d2bc
000003c0: 9821 3f3d 1484 37bd 9b9d 3cbc df7e 4ebd
000003d0: 70dc a8bd 4f72 cebd 2a3e 09bd 9364 ef3c
000003e0: ad69 aebc 7bad 9a3d e3b9 06bd d46f 97bd
000003f0: 2efa 02bd 7736 17bd 0364 3dbc 373d d5bd

_rnn.weight_hh_l0 f4 [384, 128]
-0.009403551 0.09260916 -0.08056661 -0.07249156 0.0029145677 0.0068073696 0.014621171 -0.06284923
0.12470237 0.028498845 -0.015676914 -0.08663302 -0.10833707 -0.0030552777 0.037061647 -0.029173246
-0.047506962 0.015823765 -0.06680782 -0.050759844 0.057773095 -0.07952009 -0.09093519 -0.011187233
0.00026444587 -0.013386376 -0.018451268 -0.04835723 0.14589924 0.00058090134 0.07836025 -0.06659286
-0.019297708 0.03685119 -0.114643 -0.09727847 0.09010989 -0.021029914 -0.09122276 0.1056585
0.050285805 0.09095225 -0.021824257 -0.08656994 -0.027866466 0.040352345 0.0786151 0.080974884
-0.014724158 -0.05191635 -0.088021934 0.080374405 0.04764774 -0.008394759 -0.11237404 -0.02233201
-0.03085564 -0.036776263 0.07121432 0.04735552 0.09085294 -0.08459751 -0.010059898 0.09685916
0.029177973 -0.07557181 -0.009683813 -0.17023604 -0.08786641 0.01331788 0.036880013 0.09969831
-0.04010477 0.13460779 -0.05887662 -0.047086682 -0.006360272 0.05182422 0.040843323 0.01885795
0.0708505 -0.1044293 -0.046264235 -0.065525554 0.045522045 0.11643713 0.110228404 0.15710849
0.13603562 0.024505256 -0.07624578 0.042577066 0.017553085 -0.0027616073 -0.01602317 0.050827146
0.04192858 -0.10007059 -0.038414493 0.01040299 -0.041341748 -0.06315297 0.07409525 -0.043403883
0.06750798 0.14065273 0.08049192 0.01576335 6.471271e-05 0.0014356349 -0.020642227 0.07585076
0.05326805 0.08036588 -0.03855163 -0.054724194 -0.009340928 -0.02171729 0.042480927 0.07472063
0.14464124 -0.0188317 -0.062652186 -0.059257723 -0.061791804 -0.021041054 -0.023196336 -0.098946065
0.02887535 -0.057217747 -0.053969186 -0.075866394 0.075420335 -0.086821645 0.0630563 0.0016135393
0.008169295 0.053637695 -0.010990559 0.057465583 0.06154728 -0.08148036 0.034407146 0.00968179
0.025209052 0.009678688 0.017559532 -0.034102894 -0.004294585 0.07600837 0.04886457 -0.00022923155
-0.08119748 0.005121382 -0.072070375 0.07182681 -0.059761092 0.002783568 -0.018886898 0.010299247
0.088573225 -0.0034253781 0.049838066 0.0714458 0.065346345 -0.028436854 -0.012158442 0.04689366
-0.02479035 0.0381287 -0.006355002 -0.0637596 0.04285265 0.0197917 0.030414319 0.09218031
0.066427074 0.08380143 0.010844712 -0.08851063 -0.06837983 -0.05104578 -0.07957866 -0.03758425
-0.08230292 -0.0730079 -0.060308315 -0.0837532 -0.054165512 0.03994508 0.05618544 -0.012758279
-0.018738603 0.048021894 -0.040324125 -0.042531207 0.055535134 -0.07378584 0.0080103725 0.08559723
0.0077361474 0.054669827 -0.0509122 0.0007189693 0.0018178651 0.025777098 0.033150006 0.0739449
-0.07120336 0.0067623476 -0.04137531 -0.0727075 -0.0037747705 -0.08916469 0.0545947 0.010490628
-0.045620076 0.052833214 -0.08121904 -0.032562535 -0.013142153 -0.07419556 -0.058156 -0.013558011
0.056988273 0.08016404 0.054483317 -0.051735427 -0.062392436 0.08565721 0.03906362 0.001203904
0.010909853 -0.06752452 -0.031852446 0.08935252 -0.02110296 -0.004441786 -0.07604433 -0.04815355
0.0043300968 -0.05577978 -0.014659607 0.03348189 -0.08306858 0.029083993 -0.053004827 -0.035614043
0.032224663 0.07051839 -0.025446739 -0.038225528 -0.07344226 -0.04497819 -0.07309148 -0.018616093
00000000: 5a11 1abc dfa9 bd3d 1b00 a5bd 7476 94bd
00000010: 5502 3f3b 5b10 df3b a38d 6f3c 19b7 80bd
00000020: f563 ff3d 6976 e93c df6c 80bc a76c b1bd
00000030: d3df ddbd 0e3b 48bb f4cd 173d bbfc eebc
00000040: a996 42bd d7a0 813c 8ad2 88bd 8ee9 4fbd
00000050: 7ba3 6c3d 6edb a2bd 3b3c babd a84a 37bc
00000060: 53a5 8a39 8852 5bbc 1d27 97bc 3b12 46bd
00000070: 9c66 153e a147 183a 577b a03d d661 88bd
00000080: 3a16 9ebc 46f1 163d f3c9 eabd ef39 c7bd
00000090: 898b b83d ed46 acbc 00d3 babd 7c63 d83d
000000a0: 7df8 4d3d 2c45 ba3d c9c8 b2bc 954b b1bd
000000b0: 3748 e4bc 8048 253d f400 a13d 29d6 a53d
000000c0: 983d 71bc 3da6 54bd d844 b4bd 569b a43d
000000d0: 472a 433d 2c8a 09bc 5c24 e6bd 9ff1 b6bc
000000e0: f8c4 fcbc b5a2 16bd d0d8 913d ddf7 413d
000000f0: 1b11 ba3d 7641 adbd 45d2 24bc 185e c63d
00000100: a506 ef3c 65c5 9abd dba8 1ebc 5b52 2ebe
00000110: 4ef3 b3bd 3d33 5a3c 7f0f 173d a12e cc3d
00000120: e644 24bd a0d6 093e 9c28 71bd f7dd 40bd
00000130: d469 d0bb a245 543d 544b 273d fd7b 9a3c
00000140: 111a 913d 07df d5bd 917f 3dbd 4332 86bd
00000150: 5375 3a3d 9776 ee3d 6ebf e13d 0ce1 203e
00000160: ec4c 0b3e 3fbf c83c bf26 9cbd 4a65 2e3d
00000170: 7dcb 8f3c 15fc 34bb 0643 83bc 2030 503d
00000180: 4dbd 2b3d cff1 ccbd 8458 1dbd 4d71 2a3c
00000190: f755 29bd 5856 81bd 40bf 973d 45c8 31bd
000001a0: a041 8a3d 4507 103e f3d8 a43d 2422 813c
000001b0: 5fb6 8738 ea2b bc3a e319 a9bc a557 9b3d
000001c0: 992f 5a3d de96 a43d 50e8 1dbd 7a26 60bd
000001d0: b10a 19bc 75e8 b1bc 7b00 2e3d 2107 993d
000001e0: d51c 143e f044 9abc ca4f 80bd 3ab8 72bd
000001f0: 6719 7dbd 4a5e acbc 3e06 bebc 3ca4 cabd
00000200: ff8b ec3c 285d 6abd cb0e 5dbd d75f 9bbd
00000210: fa75 9a3d 8ccf b1bd a923 813d 657d d33a
00000220: 82d8 053c 33b3 5b3d bf11 34bc 0861 6b3d
00000230: 0019 7c3d 2ddf a6bd 82ee 0c3d 5fa0 1e3c
00000240: 3783 ce3c 5c93 1e3c 02d9 8f3c 7aaf 0bbd
00000250: 97b9 8cbb 47aa 9b3d 3726 483d e05d 70b9
00000260: dd4a a6bd 44d1 a73b a299 93bd ef19 933d
00000270: 0cc8 74bd 866c 363b b2b8 9abc 2cbe 283c
00000280: e165 b53d 4f7c 60bb 0023 4c3d 2d52 923d
00000290: 4ed4 853d 68f4 e8bc 3434 47bc 9113 403d
000002a0: 2215 cbbc d72c 1c3d 9f3d d0bb 6594 82bd
000002b0: 4386 2f3d 3422 a23c 7327 f93c 08c9 bc3d
000002c0: eb0a 883d 16a0 ab3d 05ae 313c 1045 b5bd
000002d0: b90a 8cbd 6115 51bd 23fa a2bd f1f1 19bd
000002e0: 6f8e a8bd 2a85 95bd da05 77bd cc86 abbd
000002f0: a8dc 5dbd 749d 233d b422 663d 1a08 51bc
00000300: b381 99bc 9bb2 443d e92a 25bd 3435 2ebd
00000310: cf78 633d 081d 97bd f03d 033c 9a4d af3d
00000320: 827f fd3b 78ed 5f3d 5089 50bd 3779 3c3a
00000330: 6e45 ee3a 7e2a d33c 4dc8 073d 6c70 973d
00000340: 11d3 91bd af96 dd3b 2879 29bd abe7 94bd
00000350: 2462 77bb fa9b b6bd b19e 5f3d e2e0 2b3c
00000360: 1edc 3abd a467 583d 2b56 a6bd 4b60 05bd
00000370: 2f52 57bc d7f3 97bd fc34 6ebd 6b22 5ebc
00000380: 896c 693d 0b2d a43d e629 5f3d 87e8 53bd
00000390: 368f 7fbd 0c6d af3d 2d01 203d 51cc 9d3a
000003a0: 3dbf 323c 4c4a 8abd b677 02bd 74fe b63d
000003b0: 1de0 acbc 678c 91bb 21bd 9bbd a83c 45bd
000003c0: 7ce3 8d3b 5779 64bd d92e 70bc 4e24 093d
000003d0: dc1f aabd 8e41 ee3c 971b 59bd 08e0 11bd
000003e0: 02fe 033d f26b 903d ae75 d0bc 5f92 1cbd
000003f0: e568 96bd 0d3b 38bd fcb0 95bd c780 98bc

_rnn.bias_ih_l0 f4 [384]
-0.1037003 0.043531094 -0.16936505 -0.058544286 -0.046842027 -0.016509425 0.07692776 0.0016047435
-0.047444467 -0.08616851 -0.038774863 -0.01455588 -0.02543072 0.010780161 0.24287216 0.025518347
-0.031027865 -0.050099272 -0.05872192 -0.06806879 -0.14213015 -0.034510676 -0.0023906918 -0.36154264
-0.07279184 -0.117721826 -0.10352906 0.07846753 0.042654354 0.12794828 -0.3212186 0.03390447
0.37828383 0.040810075 0.008772625 -0.05548609 -0.2669183 -0.29322535 -0.066968694 -0.3685235
-0.10745655 -0.020117853 -0.00062451634 -0.003918617 -0.070715316 -0.083482854 0.368319 -0.2664134
-0.11705285 -0.1816871 -0.038195938 -0.07259283 -0.26046464 0.05505731 0.039792422 -0.099297576
-0.41522872 -0.09695027 -0.033422124 0.03815549 -0.20240447 0.16069405 -0.07781168 0.091372095
-0.12825009 -0.14970905 -0.4419803 -0.10005924 0.27817118 -0.066513725 -0.11830727 -0.020002557
0.10008271 0.17527185 -0.16759638 -0.0012449179 -0.30788752 -0.06370024 -0.063853 -0.14963147
-0.049585894 -0.20013115 0.014740611 0.009913492 0.0028743495 -0.13646121 -0.53122616 -0.15452506
-0.4551635 -0.17756392 0.17128292 -0.14635225 -0.6137489 0.007990637 -0.010131616 -0.037140284
0.00039418775 -0.1810057 0.08745621 0.13462786 -0.01380306 -0.020631677 -0.0079666525 0.031222997
0.11746329 -0.24294166 -0.11070593 -0.21651669 -0.048589036 0.017345153 -0.11695595 -0.84949994
-0.25597158 -0.046493586 0.0055156634 -0.4664881 -0.12468443 0.0121106785 -0.15919678 -0.11560676
-0.11303215 -0.33750868 0.008617142 -0.26662016 -0.39665082 -0.07243124 -0.18066339 0.0086184405
0.063881725 0.040064495 -0.37272435 -0.105230816 -0.8551527 -0.96837854 -0.042937204 -0.23778312
-0.031198695 -0.23385774 -0.14832555 -0.2569632 -0.14848255 -0.056977745 -0.30071905 0.1811367
-1.030084 -0.05288381 -0.067006655 0.107687995 0.13823563 -0.04497372 -0.6266179 -0.5870822
-0.5657803 -0.27238718 -0.35274607 -0.06736886 -0.3905712 -0.3200448 -0.43632126 -0.37646365
-1.0215733 0.051066313 -0.2780451 -0.24765956 -0.9436043 -0.4337781 -0.49578342 -0.33078498
0.07631907 -0.3797158 0.14970972 -0.085686244 -0.055218413 -0.034538403 -0.54161006 -0.39940894
-0.32100078 -0.31482643 -0.6536442 -0.1630991 -0.011635251 0.018113773 -0.78619087 -0.40397984
-0.6497345 -0.0688085 -0.25894943 0.048879877 -0.34037867 -1.033066 -0.7396983 0.5552381
-0.34820226 -0.4575031 -0.5170381 -0.7185454 -0.8554895 -0.07472806 -0.6260089 -0.85057855
-0.11031845 2.0985768 -0.47021508 0.054162294 -0.440784 0.061903182 -0.384056 0.17016615
-0.39402172 -0.59023166 0.09632836 0.06429111 -0.38623595 -0.6458852 -1.0209118 -0.7707714
-0.73535997 -0.3869567 -0.70381683 -0.6349086 -0.5419449 -0.11085601 -0.29705867 -0.2673865
-0.074480504 -0.49024487 0.011256386 0.36608005 -0.25509617 -0.21189451 -0.017851911 -0.28537092
-0.358218 -0.55533427 -0.5048885 -0.2926862 0.02670718 -0.2800478 -0.416742 -1.1182648
-0.22485107 -0.08644664 -0.073921904 -0.7640256 -1.1860752 -0.13601013 -0.3745611 -0.011063349
-0.26921538 -0.5163042 -0.2555908 -0.9855401 -0.45483968 -0.14413877 -0.50225013 -0.43752736
00000000: d360 d4bd a94d 323d 086e 2dbe 22cc 6fbd
00000010: 6ddd 3fbd c63e 87bc 4d8c 9d3d 4256 d23a
00000020: 2155 42bd 1e79 b0bd 64d2 1ebd c97b 6ebc
00000030: 1654 d0bc 469f 303c 7bb3 783e da0b d13c
00000040: 262e febc e534 4dbd 6586 70bd a667 8bbd
00000050: 918a 11be 115b 0dbd 27ad 1cbb 1e1c b9be
00000060: e313 95bd 2418 f1bd 0b07 d4bd 96b3 a03d
00000070: 55b6 2e3d e004 033e c476 a4be 6adf 0a3d
00000080: 6bae c13e 7728 273d 0ebb 0f3c 6245 63bd
00000090: 84a9 88be a221 96be e226 89bd 1daf bcbe
000000a0: 2e12 dcbd 32ce a4bc 95b6 23ba be67 80bb
000000b0: 31d3 90bd 0ff9 aabd 4f94 bc3e 5667 88be
000000c0: 68b9 efbd 2f0c 3abe 5873 1cbd 8dab 94bd
000000d0: 9f5b 85be c683 613d 61fd 223d 875c cbbd
000000e0: dc98 d4be dd8d c6bd a3e5 08bd ee48 1c3d
000000f0: 1e43 4fbe fb8c 243e bb5b 9fbd 4b21 bb3d
00000100: fe53 03be 544d 19be 3e4b e2be dceb ccbd
00000110: 746c 8e3e 5938 88bd 154b f2bd 67dc a3bc
00000120: 2af8 cc3d 777a 333e 639e 2bbe 832c a3ba
00000130: 6fa3 9dbe 4575 82bd 5dc5 82bd fe38 19be
00000140: 941a 4bbd 2eef 4cbe 9b82 713c 336c 223c
00000150: 955f 3c3b 7dbc 0bbe 70fe 07bf d13b 1ebe
00000160: 310b e9be 51d3 35be ca64 2f3e 5ddd 15be
00000170: a61e 1dbf 29eb 023c 14ff 25bc 6920 18bd
00000180: fcaa ce39 8f59 39be 3e1c b33d e3db 093e
00000190: 3b26 62bc c303 a9bc 9086 02bc 5fc7 ff3c
000001a0: 9890 f03d b3c5 78be cab9 e2bd 8db6 5dbe
000001b0: 4c05 47bd 6c17 8e3c 9a86 efbd d478 59bf
000001c0: b50e 83be 0f70 3ebd bdbc b43b 87d7 eebe
000001d0: 8d5a ffbd de6b 463c 7b04 23be 3dc3 ecbd
000001e0: 667d e7bd f0cd acbe ea2e 0d3c 7082 88be
000001f0: d115 cbbe d456 94bd d3ff 38be 5c34 0d3c
00000200: 6cd4 823d ab1a 243d bad5 bebe 4183 d7bd
00000210: 4aeb 5abf a8e7 77bf ecde 2fbd 6b7d 73be
00000220: 6894 ffbc 6778 6fbe a7e2 17be ae90 83be
00000230: cf0b 18be 7f61 69bd d9f7 99be e67b 393e
00000240: cbd9 83bf b29c 58bd c93a 89bd 868b dc3d
00000250: a48d 0d3e 5d36 38bd 086a 20bf 054b 16bf
00000260: fad6 10bf 5576 8bbe 229b b4be aff8 89bd
00000270: f3f8 c7be e9dc a3be 8065 dfbe d8bf c0be
00000280: eac2 82bf e92a 513d ed5b 8ebe 789a 7dbe
00000290: 0d90 71bf 2a18 debe 53d7 fdbe a65c a9be
000002a0: 2c4d 9c3d 1c6a c2be 814d 193e 457c afbd
000002b0: b42c 62bd 2478 0dbd f5a6 0abf 547f ccbe
000002c0: 375a a4be ee30 a1be 3a55 27bf 7303 27be
000002d0: c8a1 3ebc 5663 943c ce43 49bf 72d6 cebe
000002e0: 0055 26bf 79eb 8cbd 0595 84be 4436 483d
000002f0: 1d46 aebe 823b 84bf de5c 3dbf 1624 0e3f
00000300: 9147 b2be d93d eabe 9c5c 04bf 97f2 37bf
00000310: 5c01 5bbf 060b 99bd 1f42 20bf 84bf 59bf
00000320: a4ee e1bd 154f 0640 08c0 f0be 48d9 5d3d
00000330: 71ae e1be 318e 7d3d fda2 c4be 0940 2e3e
00000340: 37bd c9be 6c19 17bf ce47 c53d 0fab 833d
00000350: b8c0 c5be bc58 25bf 3dad 82bf 4651 45bf
00000360: 8d40 3cbf 301f c6be 572d 34bf 5f89 22bf
00000370: e7bc 0abf 7a08 e3bd 1318 98be e2e6 88be
00000380: 3c89 98bd 6001 fbbe b46c 383c d86e bb3e
00000390: f79b 82be e0fa 58be 2c3e 92bc 231c 92be
000003a0: 5a68 b7be 632a 0ebf 5f40 01bf f7da 95be
000003b0: 04c9 da3c 6d62 8fbe 355f d5be 4d23 8fbf
000003c0: 5c3f 66be f00a b1bd 5e64 97bd 2f97 43bf
000003d0: 50d1 97bf 3d46 0bbe 79c6 bfbe 0d43 35bc
000003e0: 99d6 89be 832c 04bf ccdc 82be 5b4c 7cbf
000003f0: bfe0 e8be 1d99 13be 7793 00bf 9603 e0be

_rnn.bias_hh_l0 f4 [384]
-0.055362433 -0.027027017 -0.044733185 -0.12694655 -0.10654984 0.073026 0.062588766 -0.07158732
0.019413458 -0.10625649 0.02364589 -0.021198303 -0.022463797 0.072902195 0.17966512 0.12965932
-0.06126286 0.002139727 -0.07616684 0.08982128 -0.016567 -0.075172104 -0.015492083 -0.2341287
-0.07668495 -0.083061874 -0.15568212 -0.06260569 -0.007736496 0.21538979 -0.3187981 0.029235484
0.36380735 0.16518475 -0.07985396 -0.11403769 -0.19332108 -0.3398088 0.022595594 -0.3438172
-0.10386234 -0.012526017 -0.020923235 -0.10720948 -0.010659634 -0.12439701 0.30524367 -0.28853133
-0.048222326 -0.34287354 -0.006865777 -0.11137298 -0.2804148 0.027421646 0.0772706 -0.1502661
-0.3767203 -0.13254222 -0.06790918 0.014477748 -0.20981482 0.13188055 -0.09693669 0.14844443
-0.055439387 -0.15228134 -0.39887416 -0.151424 0.19158708 0.030509878 -0.12867354 -0.032402955
0.027849762 0.07279679 -0.18859021 -0.0253334 -0.4544562 -0.19600321 -0.0044693183 -0.2032395
-0.07970524 -0.2639787 -0.04048988 -0.028759787 0.06482831 -0.09254835 -0.5476793 -0.07422506
-0.39492738 -0.07078551 0.028909136 -0.2322412 -0.5816189 0.13152087 0.0055053337 0.07517197
0.03358827 -0.08067209 -0.037128616 0.21820405 -0.025168315 -0.07561041 0.07357338 -0.035186317
0.1584872 -0.18417458 -0.13136446 -0.23125494 0.09573192 -0.012825934 -0.14047869 -0.79011506
-0.25933993 0.025739942 -0.069583125 -0.43713254 -0.06389732 0.008071099 -0.12216072 0.015004162
-0.054904584 -0.35450056 -0.03507234 -0.24202853 -0.36675608 -0.09558296 -0.18396798 -0.081093654
-0.005321033 0.013542902 -0.47933474 0.030676993 -0.7598701 -0.91274405 -0.14928162 -0.23473524
-0.012702335 -0.38192466 -0.070778 -0.1737225 -0.13481605 -0.072174 -0.26223278 0.21829703
-1.1125073 -0.051761374 -0.23114552 0.20412837 0.14990872 -0.20671189 -0.5365131 -0.74266547
-0.46178633 -0.34709492 -0.34882832 -0.08664548 -0.409182 -0.22741246 -0.5203731 -0.32408056
-1.0461448 0.07614817 -0.10241195 -0.12957633 -0.95998347 -0.49895838 -0.53983337 -0.37634686
0.015207737 -0.28034598 0.20879479 -0.1086731 -0.22766502 -0.072242714 -0.50194293 -0.44869566
-0.40159237 -0.28655863 -0.6622741 -0.25427783 -0.123438306 -0.058424044 -0.75740755 -0.43065256
-0.59952915 0.025130667 -0.2445763 0.015718741 -0.3266201 -0.9718669 -0.7323176 0.6707322
-0.30611753 -0.34896797 -0.41360587 -0.67779964 -0.95379156 -0.10536855 -0.593609 -0.8363457
-0.20222215 2.0752196 -0.36905262 -0.09358182 -0.44028187 0.01795581 -0.29913753 0.017978335
-0.39174235 -0.5834437 -0.0049796402 0.052995697 -0.4384812 -0.5534074 -1.0325404 -0.8288038
-0.75572526 -0.22859083 -0.8539718 -0.7197872 -0.544135 -0.05243538 -0.3145591 -0.30277815
-0.10991325 -0.5112273 0.084463514 0.36144984 -0.12826754 -0.1910194 0.013935111 -0.28063965
-0.3685449 -0.4453442 -0.51285785 -0.24238673 0.05313063 -0.18672547 -0.41253576 -1.0928499
-0.36024404 -0.22286965 -0.017284572 -0.7438536 -1.2301875 -0.05637447 -0.47618324 -0.036937796
-0.3976205 -0.51252455 -0.22483782 -0.99239475 -0.5500968 -0.07576357 -0.5510635 -0.4697925
00000000: b8c3 62bd c367 ddbc 253a 37bd 47fe 01be
00000010: cd36 dabd a88e 953d 8a2e 803d 5f9c 92bd
00000020: f908 9f3c 019d d9bd 07b5 c13c 10a8 adbc
00000030: ff05 b8bc bf4d 953d 22fa 373e 6ac5 043e
00000040: c4ee 7abd a93a 0c3b 5cfd 9bbd 38f4 b73d
00000050: 84b7 87bc d5f3 99bd 81d2 7dbc 6fbf 6fbe
00000060: 000d 9dbd 581c aabd 226b 1fbe 6937 80bd
00000070: 6f82 fdbb 248f 5c3e 8139 a3be 417f ef3c
00000080: f544 ba3e 3126 293e 798a a3bd 988c e9bd
00000090: f6f5 45be 6bfb adbe 651a b93c cf08 b0be
000000a0: c7b5 d4bd ec39 4dbc 3467 abbc a590 dbbd
000000b0: bfa5 2ebc dcc3 febd e648 9c3e 61ba 93be
000000c0: c684 45bd 1f8d afbe 50fa e0bb 8417 e4bd
000000d0: 8792 8fbe 5ca3 e03c 0c40 9e3d 5bdf 19be
000000e0: 7ce1 c0be 26b9 07be f813 8bbd 1434 6d3c
000000f0: b2d9 56be b20b 073e be86 c6bd d101 183e
00000100: 6914 63bd a4ef 1bbe 3c39 ccbe e50e 1bbe
00000110: 672f 443e daef f93c ffc2 03be f6b8 04bd
00000120: 2f25 e43c 7c16 953d cb1d 41be fe87 cfbc
00000130: 7cae e8be 11b5 48be 5c73 92bb 041e 50be
00000140: 803c a3bd 3728 87be b7d8 25bd a599 ebbc
00000150: b4c4 843d fd89 bdbd b634 0cbf 4f03 98bd
00000160: ec33 cabe fef7 90bd dad2 ec3c a3d0 6dbe
00000170: fae4 14bf 68ad 063e 1666 b43b c3f3 993d
00000180: db93 093d 6937 a5bd 2d14 18bd e270 5f3e
00000190: c82d cebc a1d9 9abd a4ad 963d 871f 10bd
000001a0: 784a 223e 4398 3cbe 6884 06be 18ce 6cbe
000001b0: 190f c43d de23 52bc a5d9 0fbe fb44 4abf
000001c0: 34c8 84be 92dc d23c 9981 8ebd d6cf dfbe
000001d0: 99dc 82bd a53c 043c 662f fabd 04d4 753c
000001e0: a1e3 60bd 1981 b5be 04a8 0fbd 54d6 77be
000001f0: 74c7 bbbe 00c1 c3bd 1a62 3cbe 6e14 a6bd
00000200: 0f5c aebb 0ce3 5d3c 5d6b f5be 514e fb3c
00000210: d986 42bf 98a9 69bf 48dd 18be 6f5e 70be
00000220: 741d 50bc a18b c3be 0ef4 90bd 50e4 31be
00000230: 380d 0abe f6cf 93bd 6043 86be 4289 5f3e
00000240: a466 8ebf bc03 54bd 69b1 6cbe 0707 513e
00000250: ac81 193e 48ac 53be ec58 09bf 531f 3ebf
00000260: 426f ecbe 6db6 b1be a099 b2be 2f73 b1bd
00000270: 4e80 d1be d0de 68be 2c37 05bf e3ed a5be
00000280: 13e8 85bf 92f3 9b3d 5bbd d1bd a8af 04be
00000290: 7ac1 75bf 7977 ffbe 8532 0abf 89b0 c0be
000002a0: df29 793c 8289 8fbe 4dce 553e 0190 debd
000002b0: 0521 69be fdf3 93bd 557f 00bf 70bb e5be
000002c0: 849d cdbe d0b7 92be cc8a 29bf b430 82be
000002d0: 39cd fcbd 0d4e 6fbd 76e5 41bf 7e7e dcbe
000002e0: be7a 19bf d4de cd3c 3672 7abe 97c4 803c
000002f0: c03a a7be 45cc 78bf 2b79 3bbf 1bb5 2b3f
00000300: 70bb 9cbe eeab b2be 26c4 d3be 4784 2dbf
00000310: af2b 74bf 77cb d7bd c2f6 17bf c01a 56bf
00000320: 5313 4fbe 66d0 0440 77f4 bcbe d3a7 bfbd
00000330: a06c e1be 1018 933c 8e28 99be 4d47 933c
00000340: 7492 c8be 915c 15bf 402c a3bb 0412 593d
00000350: 9c80 e0be 1bac 0dbf 492a 84bf 7c2c 54bf
00000360: 3677 41bf b713 6abe e59d 5abf f943 38bf
00000370: 6e4c 0bbf 7bc6 56bd e40d a1be bd05 9bbe
00000380: 331a e1bd cbdf 02bf 35fb ac3d f40f b93e
00000390: 9158 03be 979a 43be 1850 643c 00b0 8fbe
000003a0: ebb1 bcbe 2804 e4be a74a 03bf 3a34 78be
000003b0: 819f 593d f634 3fbe e337 d3be 81e2 8bbf
000003c0: e871 b8be f137 64be 6098 8dbc 316d 3ebf
000003d0: c976 9dbf ebe8 66bd 4ace f3be 164c 17bd
000003e0: ea94 cbbe cf34 03bf e33b 66be 950d 7ebf
000003f0: 25d3 0cbf ee29 9bbd 7f12 0dbf a488 f0be

_rnn.weight_ih_l0_reverse f4 [384, 1]
0.038815156 -0.06418316 0.13468538 -0.044381786 0.04277312 -0.062116306 0.009171459 1.3029134
0.1032084 0.050508033 -0.04582504 0.031330053 0.13451292 0.113843985 0.23878045 0.12378178
-0.07731604 0.004526514 -0.0575628 0.057817362 -0.07258787 0.18905915 -0.013805719 0.06949178
-0.016563404 0.13308087 0.20056702 0.27747828 0.08494191 -0.070095055 0.042249408 -0.002542586
0.080505505 0.61719495 0.008206202 0.14350775 -0.008069039 0.038068846 -0.12495171 -0.13876219
-0.3379043 -0.00091434066 0.35118023 -0.04198868 -0.05011339 0.17060658 -0.05042164 0.028839726
0.038886894 -0.023892805 0.41868877 0.010576019 0.5526658 -0.070851944 0.14622347 1.4012824
0.05400855 0.15910399 -0.027801214 0.014157738 0.08889672 2.623204 0.042983204 0.2947013
0.05994963 0.14020546 -0.14317815 -0.056610525 -0.050043408 -0.079224095 -0.05046222 -0.01424157
0.030301796 0.1604029 0.49743506 0.13329434 0.15693778 -0.02678854 -0.15590435 -0.11334273
0.095471725 -0.020561548 0.003377106 -0.13202396 -0.027118007 0.13035002 0.115840696 -0.005732468
-0.082661286 0.24658725 0.22108835 -0.14860326 0.040365826 0.011914415 -0.13299102 0.21178824
0.020718625 0.1165775 0.034441214 0.018670395 0.09692379 0.009188798 -0.048341412 -0.042061996
0.07499229 -0.0013447724 0.13173923 0.22919095 0.15737242 0.008232121 -0.063361906 -0.22271846
0.18276377 -0.07924573 -0.010343519 0.17068732 -0.0822027 -0.06079902 0.16896623 0.013046134
-0.061784007 -0.038165193 -0.080478474 0.35137615 0.016137583 0.023818582 0.1090142 0.017682282
-0.016569296 -0.06474868 -0.12116228 0.014062884 -0.023193246 0.0046762535 -0.06995857 -0.40574902
-0.056219153 0.016962843 -0.008251245 0.07078292 0.029738203 -0.08098285 -0.19708358 -0.08267397
-0.12417654 -0.012557896 0.037365317 0.009482932 -0.089798726 -0.10427553 -0.08287837 0.06134826
-0.0043464005 0.024001773 -0.04138976 -0.097418346 0.021284442 0.07626315 0.053391904 0.014394749
0.03147979 -0.219284 0.04780231 0.08832852 0.005013796 0.065957576 -0.16361952 -0.05086956
0.1042339 0.04486452 -0.1621704 -0.11025242 0.08899045 0.044965718 0.11016787 -0.015773557
0.053201206 -0.0020285014 -0.25122783 0.047936063 -0.20328966 -0.079981044 -0.15597019 -0.34260604
-0.0022499782 0.105956435 -0.059385754 -0.04968601 -0.016938336 -0.17796695 -0.04967405 -0.252625
-0.07889229 -0.086408265 0.02410922 -0.0016307869 0.084762916 -0.095202 0.107213415 0.13595822
0.06565525 -0.043301854 -0.28994662 -0.1386001 0.009683205 -0.06361916 -0.056184508 -0.0015442132
-0.1371106 -0.014989155 -0.012305394 -0.009101531 0.25997546 0.024813507 0.0019299774 0.019901875
-0.08119495 0.07850594 -0.22816898 -0.022445325 -0.037040588 -0.036895845 -0.004352215 -0.07052954
0.042299982 0.029886333 0.058141496 0.0059630806 -0.077554286 -0.019950021 -0.061100505 0.026498038
0.057428382 -0.05729196 -0.006181944 0.08694609 0.19448777 -0.09920053 0.02499542 -0.08052655
-0.11827746 -0.1973671 0.07778776 0.038871553 -0.013282246 0.07307681 0.025692465 -0.0867161
-0.0039308737 -0.06431036 0.043028887 -0.072307624 0.1287797 -0.024158105 -0.104123585 0.005848992
00000000: a4fc 1e3d 7672 83bd f7ea 093e adc9 35bd
00000010: de32 2f3d ab6d 7ebd e343 163c dec5 a63f
00000020: ed5e d33d 83e1 4e3d 0ab3 3bbd f153 003d
00000030: c1bd 093e 0927 e93d dd82 743e 4d81 fd3d
00000040: df57 9ebd 2753 943b f8c6 6bbd e6d1 6c3d
00000050: f3a8 94bd b998 413e 6231 62bc b551 8e3d
00000060: faaf 87bc 5a46 083e 7161 4d3e a211 8e3e
00000070: 06f6 ad3d ff8d 8fbd b70d 2d3d 84a1 26bb
00000080: 12e0 a43d 7d00 1e3f 4e73 063c b2f3 123e
00000090: 0134 04bc 14ee 1b3d afe6 ffbd ad17 0ebe
000000a0: cb01 adbe 5db0 6fba e5cd b33e 52fc 2bbd
000000b0: b343 4dbd 7eb3 2e3e ec86 4ebd 4a41 ec3c
000000c0: dd47 1f3d d8ba c3bc 605e d63e 0a47 2d3c
000000d0: 827b 0d3f d31a 91bd 9bbb 153e 395d b33f
000000e0: 1238 5d3d 28ec 223e 5fbf e3bc dbf5 673c
000000f0: 7c0f b63d 93e2 2740 280f 303d 17e3 963e
00000100: be8d 753d 0592 0f3e 4b9d 12be 70e0 67bd
00000110: 51fa 4cbd 3e40 a2bd 79b1 4ebd 7955 69bc
00000120: 793b f83c a840 243e cfaf fe3e 507e 083e
00000130: 4cb4 203e a473 dbbc 64a5 1fbe 3c20 e8bd
00000140: ae86 c33d b170 a8bc 7052 5d3b 4a31 07be
00000150: 9526 debc 7a7a 053e e33d ed3d 6dd7 bbbb
00000160: 524a a9bd 5e81 7c3e fc64 623e 742b 18be
00000170: a356 253d ae34 433c cc2e 08be 04df 583e
00000180: 1bba a93c 2fc0 ee3d 3b12 0d3d a8f2 983c
00000190: fb7f c63d 9d8c 163c a501 46bd 3349 2cbd
000001a0: 8f95 993d 1343 b0ba a6e6 063e 08b1 6a3e
000001b0: 3c26 213e 05e0 063c e3c3 81bd 4f10 64be
000001c0: 6d26 3b3e 964b a2bd dd77 29bc a8c8 2e3e
000001d0: e459 a8bd 6508 79bd 7c05 2d3e 74bf 553c
000001e0: 3a11 7dbd 1b53 1cbd e6d1 a4bd 93e7 b33e
000001f0: f732 843c 301f c33c d642 df3d 6fda 903c
00000200: 55bc 87bc f59a 84bd ee23 f8bd 0368 663c
00000210: c3ff bdbc 423b 993b 7046 8fbd 56be cfbe
00000220: 0e46 66bd a9f5 8a3c 3b30 07bc a3f6 903d
00000230: 889d f33c 56da a5bd 47d0 49be f850 a9bd
00000240: 4550 febd a2bf 4dbc 600c 193d 4d5e 1b3c
00000250: 65e8 b7bd 698e d5bd 23bc a9bd 5048 7b3d
00000260: 406c 8ebb 5e9f c43c 4f88 29bd 4583 c7bd
00000270: b65c ae3c db2f 9c3d 78b1 5a3d f4d7 6b3c
00000280: f4f0 003d fc8b 60be 5bcc 433d 95e5 b43d
00000290: c54a a43b c414 873d e08b 27be 9a5c 50bd
000002a0: 9578 d53d dcc3 373d ff0f 26be 05cc e1bd
000002b0: a040 b63d f92d 383d b19f e13d 8c37 81bc
000002c0: 82e9 593d 9bf0 04bb efa0 80be 9b58 443d
000002d0: 2a2b 50be 1acd a3bd a6b6 1fbe 0f6a afbe
000002e0: 5f74 13bb b0ff d83d 7a3e 73bd 8f83 4bbd
000002f0: 44c2 8abc f83c 36be 0477 4bbd 1058 81be
00000300: 4892 a1bd d1f6 b0bd b380 c53c 21c0 d5ba
00000310: 2e98 ad3d 44f9 c2bd b592 db3d a238 0b3e
00000320: 4276 863d 495d 31bd e273 94be 2fed 0dbe
00000330: 4ea6 1e3c c34a 82bd ba21 66bd 3267 caba
00000340: b966 0cbe 1395 75bc 909c 49bc 961e 15bc
00000350: 811b 853e b245 cb3c 4cf7 fc3a 4209 a33c
00000360: 8a49 a6bd b9c7 a03d 21a5 69be 42df b7bc
00000370: dfb7 17bd 1920 17bd 079d 8ebb cb71 90bd
00000380: bf42 2d3d 2fd4 f43c c725 6e3d f265 c33b
00000390: c8d4 9ebd 3a6e a3bc 8644 7abd 6a12 d93c
000003a0: 063a 6b3d f9aa 6abd e891 cabb cb10 b23d
000003b0: cd27 473e a629 cbbd 32c3 cc3c 1beb a4bd
000003c0: 743b f2bd 9a1a 4abe 304f 9f3d c737 1f3d
000003d0: c79d 59bc 4ba9 953d 0179 d23c 3698 b1bd
000003e0: 8fce 80bb 26b5 83bd 0f3f 303d 0516 94bd
000003f0: d3de 033e 38e7 c5bc bf3e d5bd e7a8 bf3b

_rnn.weight_hh_l0_reverse f4 [384, 128]
0.055280764 -0.09786047 -0.026072465 -0.04966797 -0.00545031 0.015562728 -0.02220116 0.13868646
-0.039900333 -0.022337593 -0.20834078 0.0486552 -0.04249043 -0.012648886 -0.07985782 0.057860877
-0.06843503 0.0042129145 0.05008512 0.10191017 0.052612565 -0.020226061 -0.014452009 0.061658226
-0.024045167 0.041983254 0.042520486 0.019655446 0.115282945 -0.037075657 0.011942947 0.006115753
-0.062141925 -0.09995821 0.014890186 -0.08590921 0.09013382 0.063149996 -0.13626215 0.08431122
-0.1466493 0.10242669 0.028765593 0.10982438 0.020558802 -0.13129562 0.023500878 0.10913224
-0.113305815 0.189374 0.01867321 0.075583495 -0.06628254 -0.07816886 0.07533243 0.003950767
0.013868413 -0.016510058 0.010410463 -0.037960652 -0.11853949 0.035074964 0.046993986 0.17408994
0.012515386 0.042368945 -0.17571022 -0.19156408 0.1433848 -0.020115169 -0.09517342 -0.0042839046
0.093735345 -0.06832144 0.041897643 0.20569885 -0.083005965 -0.0027731236 -0.07729838 -0.034516934
0.051675465 -0.012787044 -0.06848543 0.14299712 0.15581825 -0.18134777 -0.0028741374 -0.02501269
0.051003955 -0.10577603 0.07366493 -0.07795897 -0.17991765 0.008314585 -0.07826601 0.04265811
0.042247925 0.008837656 0.09768361 0.1870133 0.06954073 0.04651949 0.13455223 0.018609712
-0.06701426 0.13165893 -0.089817874 0.14907886 -0.09258923 -0.0057946504 0.059011757 -0.03351735
0.10495498 -0.16671169 -0.10254297 0.105001494 -0.04806591 -0.056702122 -0.03495852 0.1402881
0.0032735344 0.013425337 0.18777181 0.108493194 -0.16018127 -0.014465291 -0.10301182 -0.018993473
-0.078546084 -0.12734658 -0.18645042 0.023911571 -0.03728691 -0.016013326 -0.09187666 -0.008345801
-0.059039414 -0.009173156 -0.08491916 -0.018050762 -0.034593392 -0.08151124 0.061159518 0.031997066
0.014467401 0.069679804 0.038442753 -0.00045915236 -0.04715612 0.054430693 0.085713476 0.035934407
0.07336949 -0.034756906 0.0025972188 -0.075822964 -0.050337035 -0.03921594 0.10081531 -0.017512795
-0.09604011 0.031730477 -0.06319499 -0.037769992 -0.024042558 -0.028441023 -0.04231679 0.05052371
-0.08928376 -0.064362824 0.06643601 0.127875 0.10458735 0.08040975 0.008465624 0.058896963
0.092793316 -0.059033792 -0.08371252 0.04031533 0.047303993 -0.040099688 0.028724348 -0.06399667
0.061857358 0.00065967056 -0.0077767884 0.09097673 0.057917118 -0.058259774 -0.032270692 -0.043120757
0.03336877 0.0687245 -0.048111003 -0.06112916 0.11614364 -0.07823768 0.034243174 -0.010890686
0.07870846 0.036087904 0.030783352 -0.08440304 -0.038030803 0.058254585 -0.07398858 0.01989992
-0.045165874 -0.07817331 -0.020980056 -0.10785916 0.083821215 -0.06414531 0.018730514 -0.052956406
0.068226054 0.040283732 -0.062249538 -0.058333892 0.08699231 -0.05487177 -0.072026536 -0.06810092
-0.08242963 -0.034313843 0.029533759 0.06972531 0.0042179427 0.031630225 -0.0034994395 -0.06785726
0.05081842 0.078331426 0.024929073 0.08743275 0.04646781 0.010332334 -0.033939607 0.068436645
0.004700525 0.0052389586 0.0050235325 0.08411236 -0.035263956 0.024917895 -0.048937265 -0.025655836
-0.0853371 0.039986502 -0.008944539 -0.01364511 0.060613357 -0.0074167824 -0.0014229653 0.06449126
00000000: 156e 623d 126b c8bd ec95 d5bc a470 4bbd
00000010: 8498 b2bb d0fa 7e3c 35df b5bc d303 0e3e
00000020: 886e 23bd 54fd b6bc 4957 55be ad4a 473d
00000030: 720a 2ebd 463d 4fbc 7f8c a3bd 87ff 6c3d
00000040: aa27 8cbd 7d0c 8a3b 0e26 4d3d 47b6 d03d
00000050: 4680 573d 20b1 a5bc 1fc8 6cbc 568d 7c3d
00000060: 5ffa c4bc a2f6 2b3d f629 2e3d 7504 a13c
00000070: 7719 ec3d a5dc 17bd 5aac 433c a866 c83b
00000080: 8888 7ebd e4b6 ccbd f7f5 733c 2bf1 afbd
00000090: 1598 b83d c954 813d 4e88 0bbe 5cab ac3d
000000a0: 3c2b 16be 16c5 d13d d2a5 eb3c 9beb e03d
000000b0: ef6a a83c 5c72 06be ea84 c03c b980 df3d
000000c0: e10c e8bd 42eb 413e 8ff8 983c 85cb 9a3d
000000d0: 24bf 87bd ff16 a0bd e447 9a3d 7075 813b
000000e0: 5738 633c 1a40 87bc a690 2a3c a17c 1bbd
000000f0: d5c4 f2bd c4aa 0f3d c47c 403d a244 323e
00000100: 550d 4d3c 0f8b 2d3d 61ed 33be 6029 44be
00000110: 77d3 123e 91c8 a4bc 48ea c2bd ff5f 8cbb
00000120: 51f8 bf3d 1cec 8bbd dd9c 2b3d b8a2 523e
00000130: 08ff a9bd 4bbd 35bb 9d4e 9ebd a161 0dbd
00000140: a7a9 533d c080 51bc 1742 8cbd d66d 123e
00000150: d28e 1f3e 3bb3 39be 065c 3cbb 6ae7 ccbc
00000160: 86e9 503d 1aa1 d8bd a4dd 963d f4a8 9fbd
00000170: 553c 38be e639 083c ee49 a0bd 45ba 2e3d
00000180: 290c 2d3d d1cb 103c 580e c83d 6a80 3f3e
00000190: 5f6b 8e3d 398b 3e3d 0fc8 093e 6573 983c
000001a0: c63e 89bd 99d1 063e 6ff2 b7bd 21a8 183e
000001b0: 6c9f bdbd 0de1 bdbb 50b6 713d 7d49 09bd
000001c0: a3f2 d63d 78b6 2abe 0c02 d2bd 060b d73d
000001d0: c2e0 44bd 7c40 68bd aa30 0fbd afa7 0f3e
000001e0: cb88 563b f2f5 5b3c 4147 403e ae31 de3d
000001f0: 8f06 24be d4ff 6cbc dcf7 d2bd 3398 9bbc
00000200: c5dc a0bd 2467 02be dcec 3ebe 33e2 c33c
00000210: 29ba 18bd 612e 83bc d529 bcbd d4bc 08bc
00000220: 50d3 71bd 014b 16bc 19ea adbd 31df 93bc
00000230: cdb1 0dbd 5def a6bd 6782 7a3d 5b0f 033d
00000240: ae08 6d3c 49b4 8e3d 2676 1d3d 63ba f0b9
00000250: c726 41bd b8f2 5e3d 8c8a af3d f52f 133d
00000260: be42 963d 425d 0ebd 1a36 2a3b 1249 9bbd
00000270: 352e 4ebd e5a0 20bd 4278 ce3d fe76 8fbc
00000280: adb0 c4bd d1f7 013d 606c 81bd b5b4 1abd
00000290: e6f4 c4bc 26fd e8bc 5f54 2dbd f3f1 4e3d
000002a0: 67da b6bd a8d0 83bd 9a0f 883d aaf1 023e
000002b0: e431 d63d dead a43d 67b3 0a3c f13d 713d
000002c0: 6c0a be3d 6bcd 71bd 7871 abbd b021 253d
000002d0: d5c1 413d 923f 24bd 534f eb3c b010 83bd
000002e0: 245e 7d3d beed 2c3a 6ed4 febb 0252 ba3d
000002f0: 803a 6d3d cda1 6ebd 462e 04bd 649f 30bd
00000300: b1ad 083d 6ebf 8c3d 0b10 45bd 9262 7abd
00000310: b7dc ed3d 143b a0bd 9242 0c3d d96e 32bc
00000320: e731 a13d e9d0 133d 5e2d fc3c 80db acbd
00000330: 30c6 1bbd 5c9c 6e3d 5387 97bd 2805 a33c
00000340: daff 38bd 5419 a0bd 5ede abbc 43e5 dcbd
00000350: 75aa ab3d 9e5e 83bd bc70 993c d1e8 58bd
00000360: 1aba 8b3d 8e00 253d 5ff9 7ebd 85ef 6ebd
00000370: 0629 b23d 39c1 60bd a682 93bd 7f78 8bbd
00000380: ded0 a8bd ac8c 0cbd c8f0 f13c 25cc 8e3d
00000390: ab36 8a3b b28e 013d da56 65bb bff8 8abd
000003a0: fa26 503d 3a6c a03d 0e38 cc3c f10f b33d
000003b0: 0855 3e3d f348 293c 4204 0bbd 8328 8c3d
000003c0: dd06 9a3b 92ab ab3b 729c a43b 1a43 ac3d
000003d0: f070 10bd 9d20 cc3c 7172 48bd 302c d2bc
000003e0: 38c5 aebd e3c8 233d 1e8c 12bc bd8f 5fbc
000003f0: b645 783d 7b08 f3bb cb82 baba fe13 843d

_rnn.bias_ih_l0_reverse f4 [384]
-0.00833248 0.06448638 0.23711415 -0.041694436 0.18439741 -0.13565895 -0.007784185 -0.24116959
-0.15538171 -0.0048151263 -0.09203708 -0.089793466 -0.39936 -0.5336931 -0.28024325 -0.19919722
-0.016597655 -0.23043253 -0.031146612 -0.111198716 0.06589172 -0.10208905 -0.06366653 -0.042092312
-0.11815096 -0.60805887 -0.118404545 -0.13245648 -0.027341807 -0.17149438 -0.10363035 -0.0037183682
-0.093734644 -0.063379355 -0.09082234 -0.4848095 0.090840116 -0.19586462 -0.30986825 -0.6055102
-0.00869755 -0.6461155 -0.0031406994 -0.01914707 -0.040695585 -0.5968243 0.052211534 -0.07614056
-0.18399523 -0.63908356 -0.123599 0.08291057 0.020632384 -0.43267703 -0.34419194 -0.1870242
-0.05695549 -0.24896657 -0.3009392 0.24382867 -0.10631588 0.059202656 -0.23757936 -0.25719488
-0.0566255 -0.8967782 0.3275931 -0.29106736 -0.2557282 -0.34168774 -0.21446574 -0.20660149
-0.019173985 -0.5728656 0.085347734 -0.16322108 -0.26796097 -0.15593062 -0.20049492 -0.12858629
-0.016214892 -0.54364586 -0.5462818 -0.8148136 -0.29047745 -0.37492204 -0.35444516 -0.040261853
-0.07125084 -0.12963313 -0.09905473 0.061929546 -0.8802556 -0.0013513248 -0.04185415 -0.43315324
-0.044230875 -0.04363183 0.17759839 -0.36144722 -0.0771248 0.07269447 -0.5077256 -0.7209978
9.396451e-05 -0.3069502 -0.04753954 -0.19270964 -0.29918462 -0.20558818 -0.32703996 -0.022613414
-0.545176 -0.23438361 -0.116153955 0.1518715 -0.5510527 0.287588 -0.020211978 -0.41149595
-0.0010036604 -0.47482902 -0.520999 -0.37732178 -0.62036234 0.13023713 -0.099377245 -0.14116436
-0.33954442 0.11831034 0.85175616 -0.536994 -0.3987384 -0.37494388 0.18523912 -1.1015735
-0.4699241 -0.09303588 -0.47265545 -0.53835773 -0.6626622 -0.28408942 -0.8896298 -0.64793855
-0.7138527 -0.08545846 -0.037718993 0.060336914 -0.33354455 -0.41362804 0.11899513 0.15736556
-0.22602996 -0.36784437 -0.3845195 -0.16964658 -0.24356836 -0.28096563 -0.029179355 0.24021995
-0.050470915 -0.83139354 0.065672316 -0.5270571 -0.43121073 -0.16323967 -0.87677985 -0.24331468
-0.79617625 -0.7674132 -0.8095397 0.26913333 -0.10335644 -0.3009763 0.051473465 -0.31685728
-0.18140832 -0.6800103 -1.0133296 -0.2472831 -0.26516753 -0.49421337 -0.6819246 -1.445054
-0.25721616 0.07735982 -0.30499044 0.065012164 -0.30676126 -1.6753412 -0.54270494 -0.7328607
-0.09848221 -0.69616884 -0.5414646 -0.54881376 0.02301097 -0.7422767 -0.27754965 -0.18334964
-0.10963296 -0.8171745 -0.7556938 -0.98290086 -0.11127005 0.015478459 -0.272259 -0.2210233
0.361527 -0.796375 -0.9053468 -0.65461457 0.23197164 -0.61088675 -0.32139802 -0.17140952
-0.06762309 0.028641658 -0.48903865 -0.47961673 -0.94438916 0.0991697 -0.4517866 -0.73389256
0.6896841 -0.092099614 -0.4697881 -0.5574295 -0.4461091 -0.10832102 -0.9267341 -0.7813457
-0.041252166 -0.6339559 -0.2476572 -0.508139 0.14134431 0.27239472 -0.16296771 -0.53172123
-0.7815661 -0.9881121 -0.24756537 1.4441799 -0.73362875 -0.3424171 -0.09692886 -0.6295548
-0.19818307 -0.37755004 -0.3994486 -0.8274445 -0.44582334 -0.1545888 -0.13588771 -0.55303264
00000000: f484 08bc 6f11 843d 0dce 723e c9c7 2abd
00000010: add2 3c3e 2eea 0abe 7a12 ffbb 29f5 76be
00000020: 621c 1fbe 35c8 9dbb f07d bcbd a3e5 b7bd
00000030: ea78 ccbe 1ca0 08bf 0b7c 8fbe 5bfa 4bbe
00000040: cef7 87bc 81f6 6bbe 2e27 ffbc 27bc e3bd
00000050: 3df2 863d 1014 d1bd 9963 82bd fd68 2cbd
00000060: 21f9 f1bd bfa9 1bbf 157e f2bd aca2 07be
00000070: edfb dfbc 399c 2fbe 263c d4bd deaf 73bb
00000080: f3f7 bfbd 09cd 81bd 1001 babd f338 f8be
00000090: 620a ba3d bc90 48be 0da7 9ebe b702 1bbf
000000a0: 2b80 0ebc d367 25bf 31d4 4dbb 51da 9cbc
000000b0: 6ab0 26bd 7ac9 18bf c3db 553d 95ef 9bbd
000000c0: 3f69 3cbe fb9a 23bf 7921 fdbd 04cd a93d
000000d0: 3f05 a93c d887 ddbe ed39 b0be 4683 3fbe
000000e0: 294a 69bd 18f1 7ebe b414 9abe 39ae 793e
000000f0: 24bc d9bd 7c7e 723d 0148 73be 0caf 83be
00000100: 24f0 67bd 4293 65bf 48ba a73e c806 95be
00000110: ceee 82be b2f1 aebe e89c 5bbe 578f 53be
00000120: c312 9dbc 52a7 12bf cbca ae3d 6d23 27be
00000130: 2e32 89be 47ac 1fbe 8a4e 4dbe 20ac 03be
00000140: 18d5 84bc 602c 0bbf 20d9 0bbf a097 50bf
00000150: 76b9 94be c8f5 bfbe d679 b5be 9de9 24bd
00000160: f6eb 91bd 8cbe 04be 35dd cabd d6a9 7d3d
00000170: 6e58 61bf f01e b1ba 426f 2bbd 43c6 ddbe
00000180: 6f2b 35bd 4ab7 32bd 5adc 353e 9c0f b9be
00000190: 9bf3 9dbd d7e0 943d 4efa 01bf 5093 38bf
000001a0: d00e c538 9428 9dbe d2b8 42bd ad55 45be
000001b0: ba2e 99be b585 52be c871 a7be c43f b9bc
000001c0: a890 0bbf 4202 70be 20e2 edbd 3484 1b3e
000001d0: ca11 0dbf bc3e 933e 9793 a5bc 99af d2be
000001e0: 418d 83ba ca1c f3be 3160 05bf 5230 c1be
000001f0: 11d0 1ebf e25c 053e 4c86 cbbd 648d 10be
00000200: c4d8 adbe b14c f23d b10c 5a3f 7078 09bf
00000210: 7127 ccbe a5f8 bfbe 53af 3d3e 5c00 8dbf
00000220: e499 f0be 9889 bebd e5ff f1be d0d1 09bf
00000230: 3ba4 29bf 2b74 91be c7be 63bf 4ddf 25bf
00000240: 0dbf 36bf d804 afbd 3b7f 1abd d723 773d
00000250: 5ac6 aabe 0ec7 d3be b8b3 f33d 7024 213e
00000260: 6674 67be 1956 bcbe bddf c4be d5b7 2dbe
00000270: fc69 79be bada 8fbe 8b09 efbc 38fc 753e
00000280: 97ba 4ebd 35d6 54bf 357f 863d 37ed 06bf
00000290: a7c7 dcbe 4d28 27be a574 60bf 7c27 79be
000002a0: 35d2 4bbf 3175 44bf fe3d 4fbf d8cb 893e
000002b0: 8bac d3bd 9119 9abe d7d5 523d 1e3b a2be
000002c0: 1ac3 39be 2815 2ebf c9b4 81bf c837 7dbe
000002d0: 0ac4 87be 8909 fdbe 9c92 2ebf 88f7 b8bf
000002e0: d6b1 83be d36e 9e3d b527 9cbe 1925 853d
000002f0: d00f 9dbe 9571 d6bf b6ee 0abf c29c 3bbf
00000300: 0ab1 c9bd 1f38 32bf 6d9d 0abf 0f7f 0cbf
00000310: 8081 bc3c d905 3ebf fd1a 8ebe 02c0 3bbe
00000320: 3f87 e0bd 5932 51bf 2675 41bf 649f 7bbf
00000330: 8de1 e3bd 5d99 7d3c 8865 8bbe ef53 62be
00000340: 111a b93e 3bdf 4bbf cfc4 67bf d294 27bf
00000350: f989 6d3e 1363 1cbf 488e a4be fa85 2fbe
00000360: fa7d 8abd e9a1 ea3c 4663 fabe 5390 f5be
00000370: 7dc3 71bf 7c19 cb3d 9350 e7be 62e0 3bbf
00000380: 238f 303f b99e bcbd 1188 f0be b3b3 0ebf
00000390: 6968 e4be 69d7 ddbd 723e 6dbf 4606 48bf
000003a0: 08f8 28bd ef4a 22bf d999 7dbe 6615 02bf
000003b0: 90bc 103e 5277 8b3e 02e1 26be e21e 08bf
000003c0: b714 48bf eaf4 7cbf c781 7dbe e3da b83f
000003d0: 18cf 3bbf 4b51 afbe a382 c6bd 812a 21bf
000003e0: 81f0 4abe 3d4e c1be 8784 ccbe 67d3 53bf
000003f0: f542 e4be 874c 1ebe 2626 0bbe 8c93 0dbf

_rnn.bias_hh_l0_reverse f4 [384]
-0.082125254 0.07700636 0.0913514 -0.09501715 0.048306897 -0.086042725 -0.07492184 -0.34393284
-0.18069173 -0.03482239 -0.0891659 -0.1629492 -0.41507474 -0.37992603 -0.39362574 -0.17891544
0.094471164 -0.1505084 -0.04858726 -0.19747703 -0.018179307 -0.008338153 -0.054968297 -0.011705735
-0.049894284 -0.57492745 -0.14898805 -0.11664083 -0.102583766 -0.113534294 -0.0532994 -0.009389508
-0.1918532 -0.096529506 -0.15114766 -0.4979146 0.12970462 -0.05531495 -0.44464585 -0.50050616
0.0766067 -0.6149988 -0.053937215 -0.08365614 0.02209409 -0.6073683 0.16394624 -0.19442216
-0.10638182 -0.5941572 -0.07258144 -0.042817205 0.030278344 -0.30276957 -0.27421707 -0.3292826
-0.09033439 -0.22036989 -0.34154674 0.31873298 -0.066692755 0.11873033 -0.114886016 -0.3092484
0.08767842 -0.8725327 0.37783635 -0.28034404 -0.1426798 -0.30883035 -0.24016897 -0.10447987
-0.17177044 -0.59675676 0.03492236 -0.08305646 -0.17233138 -0.050934203 -0.31823996 -0.13071693
-0.08120408 -0.55794585 -0.56632435 -0.80699307 -0.33297902 -0.39456463 -0.4796111 -0.043953273
-0.005544749 -0.1790204 -0.04190786 -0.05670484 -1.0105265 -0.13437662 0.019903606 -0.35905993
-0.028048974 0.021201415 0.14002454 -0.3972854 -0.18017042 0.011428954 -0.47653493 -0.65906507
0.020111198 -0.27366754 -0.021824878 -0.24219067 -0.14814503 -0.105454125 -0.37498787 -0.0074022994
-0.684722 -0.35085022 -0.22628921 0.23760487 -0.5712151 0.18108231 -0.08257608 -0.42100358
-0.032135144 -0.46946907 -0.5346685 -0.40272805 -0.55458474 0.084556505 -0.040297106 -0.1847618
-0.3182648 0.10406281 0.9377989 -0.539596 -0.39545664 -0.31248394 0.3558057 -1.0556576
-0.45844325 -0.041694913 -0.5193127 -0.38847756 -0.6188508 -0.41336608 -0.8880825 -0.6933538
-0.7184817 -0.22010943 -0.056916196 0.16366987 -0.32619348 -0.35834134 0.23441455 0.050673537
-0.35249826 -0.42100674 -0.48860645 -0.2576899 -0.3096309 -0.32118168 -0.053135768 0.21847604
-0.110015705 -0.90715855 0.1207931 -0.490493 -0.35041246 -0.0684133 -0.86915207 -0.3422818
-0.70952487 -0.77719516 -0.79919106 0.2840711 -0.15283273 -0.25086173 0.06542974 -0.28881353
-0.2254615 -0.71838355 -0.9756261 -0.2885143 -0.4039191 -0.45307165 -0.776048 -1.4567146
-0.30692422 0.13780288 -0.29006428 -0.013865548 -0.2841945 -1.6368337 -0.5345508 -0.7226138
-0.18483736 -0.62987846 -0.5725975 -0.45611745 0.08375319 -0.6842179 -0.21824552 -0.16392338
0.019181527 -0.8577746 -0.7168408 -0.87891215 -0.17306067 0.017552696 -0.25791323 -0.15610972
0.37052915 -0.7475744 -0.95275956 -0.70849067 0.33506092 -0.5080486 -0.4416754 -0.27335605
-0.12289587 0.002966517 -0.4460965 -0.47171164 -0.93922704 0.21819127 -0.3980482 -0.8009573
0.78997993 -0.0266508 -0.46646702 -0.56528544 -0.58222884 0.023894295 -0.88608044 -0.8471706
-0.06315584 -0.78709 -0.27831224 -0.46161634 0.1607039 0.27707732 -0.11774634 -0.524727
-0.7591736 -0.8479185 -0.17078184 1.5721139 -0.70827216 -0.35959378 -0.22447522 -0.60764664
-0.2398036 -0.39873064 -0.33776158 -0.8179593 -0.34896046 -0.2090174 -0.19631103 -0.5567198
00000000: 4931 a8bd 83b5 9d3d 7116 bb3d 5a98 c2bd
00000010: 74dd 453d 2b37 b0bd 9f70 99bd f717 b0be
00000020: 4107 39be eca1 0ebd 9d9c b6bd 28dc 26be
00000030: ad84 d4be aa85 c2be 5089 c9be 9c35 37be
00000040: 197a c13d e01e 1abe 6f03 47bd 6b37 4abe
00000050: c5ec 94bc c09c 08bc 7026 61bd 69c9 3fbc
00000060: f35d 4cbd 722e 13bf 5390 18be 63e1 eebd
00000070: 7017 d2bd ab84 e8bd 7950 5abd 73d6 19bc
00000080: 2a75 44be 43b1 c5bd 74c6 1abe aaee febe
00000090: 4ad1 043e ee91 62bd 9fa8 e3be 2c21 00bf
000000a0: f9e3 9c3d 9070 1dbf 45ed 5cbd e953 abbd
000000b0: aafe b43c 7d7c 1bbf 86e1 273e 9a16 47be
000000c0: b6de d9bd b01a 18bf 94a5 94bd 1861 2fbd
000000d0: 4a0a f83c 9d04 9bbe 2e66 8cbe bb97 a8be
000000e0: 3d01 b9bd a5a8 61be 37df aebe f830 a33e
000000f0: 3696 88bd e328 f33d 5c49 ebbd ce55 9ebe
00000100: be90 b33d 4e5e 5fbf c473 c13e 4189 8fbe
00000110: a71a 12be 031f 9ebe dbee 75be 8bf9 d5bd
00000120: 97e4 2fbe 0dc5 18bf c00a 0f3d 8119 aabd
00000130: a377 30be 62a0 50bd 59f0 a2be a9da 05be
00000140: 534e a6bd 8ad5 0ebf a2fa 10bf 1997 4ebf
00000150: 3a7c aabe 6004 cabe 968f f5be 5908 34bd
00000160: bab0 b5bb 2051 37be 94a7 2bbd 5643 68bd
00000170: ef58 81bf 069a 09be e30c a33c b4d6 b7be
00000180: f6c6 e5bc 97ae ad3c 9862 0f3e fe68 cbbe
00000190: 987e 38be 8240 3b3c 63fc f3be 7db8 28bf
000001a0: 3dc0 a43c 271e 8cbe 16ca b2bc d500 78be
000001b0: 55b3 17be 55f8 d7bd 69fe bfbe fd8e f2bb
000001c0: f149 2fbf a4a2 b3be 5cb8 67be b14e 733e
000001d0: 273b 12bf a46d 393e a61d a9bd c88d d7be
000001e0: 24a0 03bd 405e f0be 09e0 08bf 5f32 cebe
000001f0: 44f9 0dbf f62b ad3d 940e 25bd 3332 3dbe
00000200: 9bf3 a2be e21e d53d 9713 703f f722 0abf
00000210: 4b79 cabe e5fd 9fbe 2a2c b63e ca1f 87bf
00000220: 13b9 eabe 49c8 2abd adf1 04bf 88e6 c6be
00000230: 026d 1ebf b8a4 d3be 6059 63bf a27f 31bf
00000240: 6bee 37bf 5e64 61be f520 69bd 1399 273e
00000250: d502 a7be 8478 b7be 5e0a 703e 0e8f 4f3d
00000260: a77a b4be 328e d7be a02a fabe eeef 83be
00000270: f187 9ebe ed71 a4be e4a4 59bd 2fb8 5f3e
00000280: ea4f e1bd 8b3b 68bf 5f62 f73d e621 fbbe
00000290: 4369 b3be 461c 8cbd c080 5ebf 8f3f afbe
000002a0: 6ca3 35bf 43f6 46bf c997 4cbf c471 913e
000002b0: 2f80 1cbe f370 80be 0700 863d 5edf 93be
000002c0: 61df 66be fce7 37bf a2c2 79bf 25b8 93be
000002d0: 7cce cebe 02f9 e7be 15ab 46bf a075 babf
000002e0: 2c25 9dbe 331c 0d3e 4e83 94be 532c 63bc
000002f0: f181 91be c483 d1bf 52d8 08bf 38fd 38bf
00000300: 0146 3dbe b73f 21bf c095 12bf 3a88 e9be
00000310: cb86 ab3d e728 2fbf c17b 5fbe 88db 27be
00000320: 9422 9d3c 1e97 5bbf e182 37bf 6300 61bf
00000330: d136 31be acca 8f3c 340d 84be 3adb 1fbe
00000340: ffb5 bd3e 0961 3fbf 0de8 73bf a55f 35bf
00000350: 1b8d ab3e 790f 02bf 4723 e2be 53f5 8bbe
00000360: d4b0 fbbd e569 423b c366 e4be 3084 f1be
00000370: 2f71 70bf 886d 5f3e f9cc cbbe 8a0b 4dbf
00000380: 203c 4a3f c752 dabc c4d4 eebe 8cb6 10bf
00000390: f30c 15bf f8bd c33c 2bd6 62bf 2ce0 58bf
000003a0: d957 81bd bb7e 49bf f17e 8ebe fa58 ecbe
000003b0: 908f 243e 14dd 8d3e fe24 f1bd 8254 06bf
000003c0: 3359 42bf 3011 59bf 6fe1 2ebe 073b c93f
000003d0: 5351 35bf ad1c b8be d5dc 65be bb8e 1bbf
000003e0: 138f 75be 6c26 ccbe 16ef acbe c865 51bf
000003f0: f2aa b2be a808 56be c205 49be 3085 0ebf
