outputs/seed42_initial.pth (torch, 484011 bytes, 20 tensors)

_cnn.weight f4 [128, 1, 5]
0.09351432 0.4346364 0.23268181 -0.10139769 0.18740135 -0.260589 0.17094803 -0.289424
0.43697655 0.21797824 0.19449878 -0.40590367 0.2332663 -0.29207003 -0.20329043 -0.097673
0.20742226 0.13607532 -0.14507148 0.28330332 -0.36853608 0.41331458 -0.3666457 -0.28970325
-0.15143847 -0.34094673 0.07281816 0.42744553 0.23181558 -0.18917075 -0.06789449 -0.22395642
-0.30129743 -0.39193037 0.38909262 0.20826006 -0.2528736 -0.12515101 0.04514402 -0.3238328
-0.0885236 0.3887713 -0.040359497 -0.143451 0.35996467 -0.27017927 -0.16957283 -0.43375397
-0.079419166 0.2784425 -0.11861834 0.383218 0.15937692 0.0819667 -0.28248176 -0.21954927
-0.13501978 -0.015539646 0.41769445 -0.016827136 0.27178502 0.1792736 -0.16905156 0.3463869
0.0114785135 -0.041519552 -0.22528319 -0.16616726 0.4301312 -0.11901581 0.35565406 0.21024525
-0.029079795 0.38073432 0.18947113 -0.34214658 -0.04710105 0.20264858 -0.41825104 -0.44076326
0.037074566 -0.39919978 0.0028598607 -0.436459 0.4354983 0.01540494 0.38516617 0.32609957
0.38053578 -0.18624082 -0.3753844 0.3660754 -0.2649209 0.29920143 -0.37406647 -0.35047367
-0.30673796 0.16505867 -0.4362845 -0.032730103 0.022685021 -0.36649072 0.3736661 -0.21795252
0.15313399 -0.064240664 -0.11811149 -0.20890537 -0.03622088 0.2407068 0.37468743 0.15813583
-0.2466589 0.40451354 0.37126505 -0.17212749 -0.20287888 -0.09850636 -0.19544932 -0.280879
-0.2717864 0.12177223 0.34140837 0.20086002 -0.3768924 -0.063213915 -0.04085365 0.16008264
0.3195203 -0.32645547 0.30441517 -0.19704244 -0.28676265 -0.36145785 -0.000544101 0.16018128
-0.23866238 -0.09840268 -0.32460007 -0.27711532 -0.022884607 -0.08020052 0.21683049 -0.034576625
0.32341766 0.0013588071 -0.14497072 0.13845742 -0.33933726 0.35729682 -0.14462274 -0.22645232
0.2616161 -0.32944041 0.392331 0.13562173 0.29973662 0.1438945 0.26968628 0.42684704
-0.20640312 -0.006060779 0.29417717 0.21651363 -0.22570835 0.21100956 -0.400499 0.3132165
0.15293092 -0.31921244 -0.033190876 -0.41245985 -0.19967237 0.32549733 0.42293113 -0.24044065
0.03780532 0.3060878 -0.12337595 0.43814313 -0.20735042 0.12212402 -0.27220654 0.26718223
0.07131153 0.10733259 -0.43680474 0.3804363 0.38283026 -0.20472938 -0.09849736 0.1309942
-0.26766843 -0.42148542 -0.27362594 -0.09692317 0.39705634 0.13172168 0.072044015 0.2512768
-0.004783362 0.43750578 -0.22535671 -0.30793715 0.12529588 -0.35963288 -0.29403 -0.15679485
0.2499994 -0.07172784 -0.31456375 -0.434862 -0.38374057 0.00861454 0.20939773 -0.41529158
0.1048798 0.060300052 -0.23470785 0.40837795 -0.049081236 -0.04889682 -0.25080398 -0.20811294
-0.045339376 -0.22513275 -0.3674762 -0.2930559 -0.08635518 -0.13747531 -0.3416363 -0.4271782
-0.06022328 0.13462454 0.0470874 0.1570617 -0.2774829 0.39780933 0.42891115 -0.151084
-0.03667727 -0.3610437 -0.12639275 0.06323826 0.22792536 0.003830731 0.128775 0.19849402
0.26029474 -0.3184509 -0.18142265 -0.15004432 -0.3622523 -0.24531406 0.43102664 0.068211675
00000000: 7084 bf3d aa88 de3e 2444 6e3e 98a9 cfbd
00000010: 24e6 3f3e ec6b 85be 000d 2f3e 622f 94be
00000020: 64bb df3e b035 5f3e b02a 473e 9bd2 cfbe
00000030: 5cdd 6e3e 348a 95be 5e2b 50be c808 c8bd
00000040: 8066 543e 5457 0b3e 9e8d 14be 220d 913e
00000050: c3b0 bcbe f89d d33e fcb8 bbbe fc53 94be
00000060: b012 1bbe 9290 aebe b021 953d 24da da3e
00000070: 1061 6d3e fab5 41be 440c 8bbd d554 65be
00000080: a843 9abe 19ab c8be 2637 c73e 2042 553e
00000090: a678 81be 9627 00be f0e8 383d 6acd a5be
000000a0: dc4b b5bd 080d c73e 0050 25bd d2e4 12be
000000b0: 4a4d b83e f054 8abe 80a4 2dbe 0015 debe
000000c0: 84a6 a2bd 0490 8e3e 2cee f2bd 2635 c43e
000000d0: b433 233e 28de a73d 73a1 90be 86d1 60be
000000e0: a042 0abe 009a 7ebc 0cdc d53e 10d9 89bc
000000f0: 6827 8b3e 8093 373e da1b 2dbe a059 b13e
00000100: 6010 3c3c 6810 2abd a3b0 66be c027 2abe
00000110: 283a dc3e 90be f3bd 4a18 b63e 884a 573e
00000120: c038 eebc 9cef c23e b804 423e d62d afbe
00000130: 08ed 40bd 1c83 4f3e 0025 d6be b9ab e1be
00000140: 80db 173d ea63 ccbe 806c 3b3b 8e77 dfbe
00000150: a2f9 de3e 0065 7c3c 8034 c53e 86f6 a63e
00000160: 96d5 c23e eab5 3ebe 6232 c0be 3c6e bb3e
00000170: b6a3 87be ee30 993e a485 bfbe 4971 b3be
00000180: c20c 9dbe 2405 293e af60 dfbe 0010 06bd
00000190: f0d5 b93c aca4 bbbe 2a51 bf3e f22e 5fbe
000001a0: 28cf 1c3e 9c90 83bd 70e4 f1bd 4aeb 55be
000001b0: 585c 14bd d87b 763e 08d7 bf3e 5cee 213e
000001c0: 2794 7cbe 661c cf3e 7416 be3e 3042 30be
000001d0: 7bbf 4fbe b4bd c9bd de23 48be 5fcf 8fbe
000001e0: 9627 8bbe b863 f93d 14cd ae3e 40ae 4d3e
000001f0: 0af8 c0be 4c76 81bd 2856 27bd b4ec 233e
00000200: 2a98 a33e 2c25 a7be 4edc 9b3e 7ec5 49be
00000210: 8ed2 92be 0111 b9be 00a2 0eba 9006 243e
00000220: e963 74be 5887 c9bd fb31 a6be 0fe2 8dbe
00000230: 8078 bbbc 2c40 a4bd d008 5e3e 38a0 0dbd
00000240: 0097 a53e 001a b23a 3473 14be c8c7 0d3e
00000250: 9dbd adbe 9cef b63e fc17 14be 1ee3 67be
00000260: 8cf2 853e 6aac a8be 9cdf c83e 6ce0 0a3e
00000270: 1477 993e 1459 133e 5214 8a3e b28b da3e
00000280: 575b 53be 8099 c6bb 649e 963e c0b5 5d3e
00000290: 1720 67be e412 583e 340e cdbe ea5d a03e
000002a0: ec99 1c3e d06f a3be 28f3 07bd f02d d3be
000002b0: ea76 4cbe 96a7 a63e 6e8a d83e 1336 76be
000002c0: c0d9 1a3d 8ab7 9c3e 88ac fcbd 4c54 e03e
000002d0: ab53 54be 281c fa3d a85e 8bbe 1ccc 883e
000002e0: c80b 923d 30d1 db3d dfa4 dfbe 8cc8 c23e
000002f0: 5402 c43e 94a4 51be fcb8 c9bd 5823 063e
00000300: d60b 89be f0cc d7be b318 8cbe a87f c6bd
00000310: f84a cb3e 0ce2 063e d08b 933d 5aa7 803e
00000320: c0bd 9cbb c200 e03e e9c3 66be f0a9 9dbe
00000330: 904d 003e cd21 b8be 1a8b 96be d48e 20be
00000340: d8ff 7f3e 0ce6 92bd 800e a1be 3ba6 debe
00000350: a579 c4be 0024 0d3c 5c6c 563e 19a1 d4be
00000360: 38cb d63d 30fd 763d 4157 70be ea16 d13e
00000370: 6809 49bd 0848 48bd 6169 80be 8f1b 55be
00000380: c8b5 39bd 3389 66be d725 bcbe 6c0b 96be
00000390: fcda b0bd 54c6 0cbe f4ea aebe 1ab7 dabe
000003a0: b0ac 76bd 04db 093e b8de 403d c8d4 203e
000003b0: 3d12 8ebe aaad cb3e 3e9a db3e c4b5 1abe
000003c0: e83a 16bd b8da b8be 1a6d 01be 1083 813d
000003d0: 4465 693e 000d 7b3b 98dd 033e 0442 4b3e
000003e0: 5a45 853e ff0b a3be dcc6 39be 38a5 19be
000003f0: 2279 b9be 9c33 7bbe 86af dc3e 90b2 8b3d

_cnn.bias f4 [128]
-0.4367315 0.17991501 0.094629645 0.07576352 0.30714226 -0.22134541 0.23370129 -0.24063018
0.117507875 -0.08829531 0.26271486 0.32729894 -0.32132313 -0.38187107 0.38612914 0.15567404
0.03544247 0.10221702 -0.40392482 0.017219394 -0.21001932 0.35977763 -0.098216295 -0.17332023
-0.26479954 0.3292051 0.1296528 -0.24498326 -0.19620118 -0.35981476 -0.43420523 -0.28193903
0.44373798 -0.22501348 -0.42413118 0.15519232 0.11437738 -0.27459532 0.2709421 0.17394316
0.36832154 -0.12847784 0.021181881 -0.05991003 -0.060966074 -0.3056727 0.22527331 -0.35601816
-0.22559811 0.044482797 -0.16427004 0.28431338 0.13590848 0.35356778 -0.07124159 0.063378274
0.19573891 0.25432146 0.4303648 0.022307545 0.30501747 0.15897101 -0.14825287 0.1933096
0.29922986 -0.20396233 0.06083107 -0.4064685 0.018439174 0.39659476 -0.3514932 0.43071568
-0.056883126 0.38423294 -0.11465272 0.2412898 -0.31864473 -0.26294467 0.35138464 -0.4229683
-0.24037956 -0.07431784 -0.31801897 -0.42595878 -0.44195804 0.36393178 -0.40645266 0.15245467
0.19896013 -0.22388919 0.15057749 0.32966578 -0.20214035 0.287835 -0.4189314 0.35346478
-0.05435127 -0.11835864 -0.30499083 0.19304079 0.19977283 0.22768348 -0.32448506 0.21383697
0.41834146 -0.3463295 0.2683289 -0.28622746 -0.16539264 -0.21933629 -0.20198275 0.4298845
0.41574156 0.16565949 -0.3538564 0.23919958 0.14180636 -0.13652396 -0.095364004 0.38814938
0.32317162 -0.011693239 0.24480724 -0.014622033 -0.27773035 -0.28490013 0.22567856 -0.18483707
00000000: 459b dfbe a43b 383e 30cd c13d e829 9b3d
00000010: c041 9d3e 5fa8 62be 644f 6f3e c267 76be
00000020: f8a7 f03d 2cd4 b4bd 9082 863e ba93 a73e
00000030: 7784 a4be 9b84 c3be b8b2 c53e 0469 1f3e
00000040: 202c 113d 2857 d13d 3ccf cebe b00f 8d3c
00000050: 4e0f 57be c634 b83e a025 c9bd dc7a 31be
00000060: ce93 87be 928d a83e b4c3 043e e4dc 7abe
00000070: f6e8 48be a439 b8be 2650 debe 505a 90be
00000080: a031 e33e ef69 66be b927 d9be bcea 1e3e
00000090: b03e ea3d c297 8cbe ecb8 8a3e 281e 323e
000000a0: a494 bc3e b28f 03be a085 ad3c 3864 75bd
000000b0: 90b7 79bd 2281 9cbe 0cae 663e 0348 b6be
000000c0: 3103 67be 9833 363d 6836 28be 8691 913e
000000d0: 982b 0b3e d606 b53e 1ce7 91bd 78cc 813d
000000e0: c86f 483e 6c36 823e c658 dc3e 50be b63c
000000f0: 402b 9c3e 4cc9 223e 9acf 17be f4f2 453e
00000100: a834 993e 80db 50be 002a 793d a41c d0be
00000110: c00d 973c 780e cb3e ebf6 b3be c486 dc3e
00000120: 48fe 68bd 2eba c43e 0ccf eabd ac14 773e
00000130: 6725 a3be afa0 86be b0e8 b33e 4d8f d8be
00000140: 0f26 76be f433 98bd 62d3 a2be 4517 dabe
00000150: 5348 e2be 4455 ba3e 901a d0be 141d 1c3e
00000160: 34bc 4b3e 3543 65be fc30 1a3e f4c9 a83e
00000170: e1fd 4ebe 1c5f 933e 2d7e d6be 56f9 b43e
00000180: 709f 5ebd 0466 f2bd c227 9cbe 7cac 453e
00000190: 4091 4c3e dc25 693e e822 a6be 14f8 5a3e
000001a0: da30 d63e 1a52 b1be 6862 893e 688c 92be
000001b0: b05c 29be b199 60be 91d4 4ebe d219 dc3e
000001c0: 14dc d43e a4a2 293e ab2c b5be bcf0 743e
000001d0: b035 113e f0cc 0bbe 344e c3bd 84bb c63e
000001e0: c076 a53e 0095 3fbc c0ae 7a3e 4091 6fbc
000001f0: ac32 8ebe 6ede 91be 4818 673e ee45 3dbe

_rnn.weight_ih_l0 f4 [384, 1]
-0.008328694 0.06540421 0.044907883 -0.046859875 -0.001819378 -0.04318254 -0.14370225 -0.033009782
0.09177158 -0.040552642 0.007704008 0.122974165 0.018398914 0.057066124 0.028943412 -0.050291177
-0.01527826 0.11819782 0.0042973473 -0.06708195 -0.05828487 0.044155292 -0.03035275 0.031429097
0.02167103 0.075013705 -0.035135314 0.08245908 0.05171167 0.07415816 -0.070849694 -0.09543246
0.10984541 0.029836534 0.077514306 0.035036076 0.047337703 -0.018717287 0.10490283 -0.03416618
0.04419449 -0.013957243 0.08261616 -0.01796318 0.08066776 0.0059208153 -0.032102462 -0.014442134
0.09344772 -0.00766313 -0.048804116 -0.056160707 0.04603669 0.030927626 -0.0869038 -0.006972336
-0.018017402 -0.061604794 -0.02333582 -0.061982103 -0.12219164 -0.03739158 -0.06511867 -0.008236281
0.05915628 -0.011769827 -0.03541707 0.001116485 -0.027665908 0.012629455 -0.015731703 -0.049983658
-0.07014395 -0.05208058 0.040390607 0.079128966 0.014301167 -0.035049453 0.018678023 -0.09576645
-0.09663581 0.044788837 -0.05687156 0.025461202 -0.023520002 0.012878758 -0.06203282 -0.17198366
-0.026042407 -0.04806929 0.008040542 0.054936454 -0.06855166 -0.037236486 0.0047592 -0.03400075
-0.05740521 0.07411566 -0.07704989 0.016699487 0.03114717 0.07170631 -0.024577219 0.049581807
0.026135797 -0.0677284 0.05972837 0.08900417 0.061396766 -0.24161626 0.048284266 0.044004213
-0.056199744 -0.06571181 0.118695974 -0.10191835 -0.047602158 0.041409288 0.04823499 -0.06647049
-0.041434575 0.03875358 0.018885126 0.066475615 0.13028911 -0.018469838 -0.029051067 -0.030942537
0.17312221 -0.087667465 0.11344557 0.11661145 -0.010126396 0.038803004 0.14297235 0.11480837
0.11117038 0.036231626 -0.3080638 0.110225186 0.13327044 -0.025062013 -0.29567596 -0.05468576
0.035991665 -0.5189907 0.016304832 0.0693993 -0.05800238 -0.1736811 -0.51481164 -0.055474553
0.02519029 -0.03203969 -0.79207206 -0.17350544 0.06693295 -0.16754992 -0.16903935 0.0906058
-0.47306305 0.14981186 0.0856835 -0.3663374 -0.14495799 -0.3080997 0.18899831 0.11231103
-0.37512374 -0.21705048 -0.10674186 -0.28454074 -0.009080338 0.18812111 -0.021107603 0.08505435
-0.30443946 -0.12988459 -0.12589437 -0.25162458 -0.15269515 -0.07745566 0.023120174 0.09212255
-0.07967405 0.016948558 -0.12254272 0.017078772 0.08384414 0.027662145 -0.037025042 -0.124974646
-0.014778119 0.03127711 0.08416147 0.115805194 -0.06272952 0.10693289 -0.1410855 -0.101202
-0.34202784 0.0959753 -0.10678189 0.0076130414 -0.022227652 -0.12495618 0.07263043 0.19428332
0.09096057 -0.09526939 -0.0010592213 0.06468049 0.011343589 0.01737486 0.071975455 0.39200273
0.15855303 0.0071997247 -0.3433576 -0.1515343 -0.01488825 -0.44261396 -0.045004457 -0.43611202
-0.016944772 -0.0650641 0.016193423 -0.60085285 -0.035228297 -0.096429415 -0.3648722 -0.06527605
0.25856405 0.08717267 -0.093429506 -0.013081599 0.1196718 0.4765976 -0.03805253 0.007528634
-0.1837252 -0.10040838 -0.02137885 -0.04294176 -0.028757608 0.044747368 -0.3991601 -0.08243581
-0.02268393 0.024580307 -0.038589638 -0.1637518 -0.15209414 -0.04097108 -0.075179696 -0.049833473
00000000: 1375 08bc a4f2 853d 54f1 373d 24f0 3fbd
00000010: 3278 eeba 2de0 30bd af26 13be 4435 07bd
00000020: bdf2 bb3d 871a 26bd e771 fc3b e1d9 fb3d
00000030: 52b9 963c 2bbe 693d bc1a ed3c 1ffe 4dbd
00000040: ab51 7abc b311 f23d c3d0 8c3b 4362 89bd
00000050: 1ebc 6ebd 2edc 343d 55a6 f8bc ccbb 003d
00000060: 7287 b13c c9a0 993d 0cea 0fbd 4ee0 a83d
00000070: 9ecf 533d 3ce0 973d a519 91bd 1872 c3bd
00000080: a1f6 e03d bf6b f43c d2bf 9e3d fd81 0f3d
00000090: 2ee5 413d ff54 99bc 4cd7 d63d d6f1 0bbd
000000a0: 4805 353d ecac 64bc a932 a93d 8527 93bc
000000b0: 2335 a53d 6603 c23b df7d 03bd b39e 6cbc
000000c0: 8561 bf3d fe1a fbbb d3e6 47bd c508 66bd
000000d0: f890 3c3d ef5b fd3c 9ffa b1bd 3278 e4bb
000000e0: 3b99 93bc 4f55 7cbd c32a bfbc f2e0 7dbd
000000f0: 9c3f fabd ea27 19bd f05c 85bd 77f1 06bc
00000100: db4d 723d 3cd6 40bc 7d11 11bd 0557 923a
00000110: 9da3 e2bc c6eb 4e3c c6df 80bc aabb 4cbd
00000120: a2a7 8fbd 7252 55bd 9f70 253d 5e0e a23d
00000130: 714f 6a3c 0490 0fbd a702 993c 3321 c4bd
00000140: ffe8 c5bd 8074 373d 27f2 68bd 0394 d03c
00000150: 05ad c0bc 6d01 533c 2016 7ebd 7c1c 30be
00000160: e356 d5bc 4ee4 44bd 7abc 033c 0c05 613d
00000170: d064 8cbd 4985 18bd 10f3 9b3b 5f44 0bbd
00000180: ba21 6bbd f3c9 973d 55cc 9dbd 5dcd 883c
00000190: 5a28 ff3c c2da 923d 2a56 c9bc 4b16 4b3d
000001a0: bd1a d63c 30b5 8abd bca5 743d d147 b63d
000001b0: 2d7b 7b3d 416a 77be b9c5 453d c33d 343d
000001c0: b431 66bd ea93 86bd e016 f33d 91ba d0bd
000001d0: 7bfa 42bd c99c 293d 0e92 453d ae21 88bd
000001e0: 4db7 29bd 13bc 1e3d fbb4 9a3c 5e24 883d
000001f0: 826a 053e 0f4e 97bc 81fc edbc 347b fdbc
00000200: f346 313e 008b b3bd 2756 e83d fcd1 ee3d
00000210: 2fe9 25bc e6ef 1e3d 5867 123e a720 eb3d
00000220: 4cad e33d 9d67 143d 8aba 9dbe bebd e13d
00000230: 0c78 083e da4e cdbc d762 97be 2dfe 5fbd
00000240: ff6b 133d 93dc 04bf b691 853c 3821 8e3d
00000250: e793 6dbd 75d9 31be b2ca 03bf 4939 63bd
00000260: de5b ce3c 0d3c 03bd 3cc5 4abf 69ab 31be
00000270: 2414 893d 3592 2bbe a718 2dbe 898f b93d
00000280: 5235 f2be 4868 193e d57a af3d 9390 bbbe
00000290: de6f 14be 3ebf 9dbe c688 413e 5303 e63d
000002a0: 3810 c0be 7b42 5ebe 7a9b dabd 53af 91be
000002b0: b3c5 14bc d2a2 403e dae9 acbc fa30 ae3d
000002c0: 7ddf 9bbe 7700 05be 74ea 00be f0d4 80be
000002d0: 1e5c 1cbe 13a1 9ebd 8566 bd3c bfaa bc3d
000002e0: 262c a3bd b4d7 8a3c adf7 fabd c8e8 8b3c
000002f0: 7ab6 ab3d b99b e23c 92a7 17bd b5f2 ffbd
00000300: ec1f 72bc 6d1c 003d d95c ac3d 462b ed3d
00000310: 5678 80bd a2ff da3d b878 10be ff42 cfbd
00000320: 461e afbe b38e c43d 77b0 dabd d276 f93b
00000330: c416 b6bc 07e9 ffbd 43bf 943d 35f2 463e
00000340: 8949 ba3d 991c c3bd 92d5 8aba 3477 843d
00000350: 76da 393c b955 8e3c de67 933d 95b4 c83e
00000360: ba5b 223e abeb eb3b 91cc afbe cf2b 1bbe
00000370: d9ed 73bc 4c9e e2be 9856 38bd 134a dfbe
00000380: c3cf 8abc 5440 85bd 12a8 843c 7ed1 19bf
00000390: 8c4b 10bd c97c c5bd 87d0 babe 73af 85bd
000003a0: 8262 843e 9687 b23d f857 bfbd 3454 56bc
000003b0: 7d16 f53d 9a04 f43e f8dc 1bbd c2b2 f63b
000003c0: 7522 3cbe e9a2 cdbd b322 afbc b3e3 2fbd
000003d0: 1395 ebbc 0449 373d b65e ccbe 1bd4 a8bd
000003e0: a6d3 b9bc a45c c93c 2b10 1ebd 8dae 27be
000003f0: 91be 1bbe 4bd1 27bd d0f7 99bd 2f1e 4cbd

_rnn.weight_hh_l0 f4 [384, 128]
-0.021092234 -0.054341998 0.049063396 0.036738906 0.06809367 0.0010670784 0.04377893 -0.05099254
0.054838136 -0.050791748 0.034131903 0.059477255 -0.061084513 0.08821124 -0.013101524 -0.043843612
0.002607699 -0.0681223 0.06578956 -0.0010652405 -0.055003207 -0.052346222 0.033713125 0.05863042
-0.029495709 -0.07767164 -0.028374212 0.08529458 0.09378785 0.0060437783 -0.005974669 0.01631636
0.0077661583 0.018393157 -0.054094534 0.07718287 0.055783372 -0.042589482 -0.02507074 -0.045748346
0.047933742 -0.03270805 -0.047189593 0.07029803 0.004047046 -0.0049723256 -0.05865595 -0.025710842
-0.0010343204 -0.08606744 0.0014193476 -0.046778593 0.014657957 -0.041829575 0.015822118 -0.010894083
0.058555014 0.059297107 0.039765175 0.07670779 0.008137173 -0.04100314 -0.048887234 0.0029858314
-0.027322194 -0.056823432 -0.022240395 0.02236424 0.0011901612 -0.09612393 -0.025195485 0.03189045
0.071130544 -0.06250507 -0.0053141722 -0.0010291139 -0.0133624915 -0.053538054 0.06645023 0.048252188
-0.016592821 0.005196159 -0.023622194 0.023014432 -0.07797851 0.016597716 -0.026652353 0.037090838
0.056261994 0.07428559 0.0018793759 0.07853268 0.05015395 -0.026716061 -0.018335762 -0.01600484
0.0016084122 -0.05040997 0.06250496 -0.016434904 -0.07366384 -0.048788648 0.014049139 0.0043335333
0.08054622 0.024457896 -0.049162842 -0.03329616 0.06637648 0.031911675 0.05916643 -0.06214027
-0.08377859 -0.06821524 0.07327654 -0.0714759 0.07229282 0.021493774 0.038808502 -0.03654635
-0.0392236 -0.08081408 -0.06316839 -0.07219296 0.05340853 -0.010915702 0.057971235 0.039523743
-0.003877967 0.043506976 -0.026539678 0.0201178 -0.025539942 -0.04296104 -0.038011283 -0.024538629
-0.0048138266 -0.00780297 -0.05274398 0.07330647 0.041046295 0.0067705447 -0.052748162 -0.054274365
-0.0526004 -0.051837362 -0.07573606 0.07107003 0.0124509325 0.069229804 0.019976588 0.073277615
-0.06978558 -0.019261898 0.030805888 -0.05912491 -0.059638094 -0.0012234423 -0.012274029 -0.032736424
-0.048497688 0.05117566 -0.058471777 -0.06695449 0.008990908 -0.074010916 0.030313188 0.0916335
-0.03727096 -0.07291145 -0.040814802 0.06601368 -0.0236305 0.06750553 -0.035666376 0.06461377
0.0015765495 -0.006279701 -0.0043196143 -0.057442736 -0.04735011 0.03095526 -0.050511036 -0.005534209
0.08651584 -0.030613702 -0.047846872 0.015317687 0.0030318655 0.029459942 -0.03620643 -0.033689924
0.02919596 0.073982045 -0.0103453025 -0.0076610157 -0.0018908768 -0.0535607 -0.05774091 -0.031470157
0.007233422 -0.026486691 -0.050605524 -0.05145167 -0.043479946 -0.033303875 -0.07153643 0.0746406
0.030662406 -0.041817613 -0.0028470543 0.02935496 0.027000098 -0.009740036 -0.047884475 0.09030921
-0.021102982 0.013752542 -0.06088854 -0.028084733 -0.017359188 -0.037721127 -0.03006713 -0.018710298
0.0014696555 -0.082412764 -0.0055152564 0.08424565 -0.0005416649 -0.07131125 0.05646394 -0.047916405
-0.083407596 -0.04091237 -0.076154746 -0.05007244 -0.06958433 0.09956753 -0.008538999 0.03246515
-0.013967234 -0.011587288 0.08437084 0.07383585 -0.0077640554 0.034747485 -0.07504272 0.06909663
-0.01912395 0.00055005704 0.028377896 -0.047170542 0.025574252 -0.056921832 0.017972838 -0.00481785
00000000: 9fc9 acbc b795 5ebd b3f6 483d 897b 163d
00000010: b274 8b3d 36dd 8b3a 8951 333d 8edd 50bd
00000020: f49d 603d 020b 50bd e5cd 0b3d 6c9e 733d
00000030: c133 7abd 18a8 b43d c6a7 56bc 5c95 33bd
00000040: eee5 2a3b b483 8bbd adbc 863d 8a9f 8bba
00000050: 0b4b 61bd fe68 56bd c616 0a3d 7426 703d
00000060: fca0 f1bc 4f12 9fbd 0971 e8bc edae ae3d
00000070: d813 c03d e30a c63b 28c7 c3bb e3a9 853c
00000080: 427b fe3b 3fad 963c 3b92 5dbd 0d12 9e3d
00000090: 1b7d 643d 4f72 2ebd 2761 cdbc 9e62 3bbd
000000a0: 2c56 443d e0f8 05bd e049 41bd 6af8 8f3d
000000b0: 159d 843b e4ee a2bb 3941 70bd 8b9f d2bc
000000c0: 0992 87ba 2044 b0bd 6709 ba3a e99a 3fbd
000000d0: ed27 703c 7d55 2bbd 639d 813c 197d 32bc
000000e0: 62d7 6f3d 86e1 723d cfe0 223d f918 9d3d
000000f0: c751 053c e9f2 27bd fb3d 48bd f0ad 433b
00000100: cbd2 dfbc b0bf 68bd 7d31 b6bc 3635 b73c
00000110: 2fff 9b3a 9fdc c4bd c366 cebc 8f9f 023d
00000120: e4ac 913d a802 80bd 8222 aebb 55e3 86ba
00000130: 5aee 5abc b84a 5bbd 0f17 883d 16a4 453d
00000140: abed 87bc 8a44 aa3b 5583 c1bc c388 bc3c
00000150: 32b3 9fbd eff7 873c 0956 dabc 90ec 173d
00000160: fa72 663d 0b23 983d 6455 f63a bed5 a03d
00000170: 3a6e 4d3d a4db dabc e134 96bc 951c 83bc
00000180: 5cd1 d23a af7a 4ebd 9a02 803d 7ea2 86bc
00000190: 11dd 96bd 9bd6 47bd 5c2e 663c 5000 8e3b
000001a0: 6bf5 a43d ed5b c83c fa5e 49bd 8e61 08bd
000001b0: 64f0 873d d1b5 023d 8058 723d cc86 7ebd
000001c0: 1c94 abbd 6fb4 8bbd 0312 963d f561 92bd
000001d0: 420e 943d b613 b03c aaf5 1e3d a0b1 15bd
000001e0: eda8 20bd da81 a5bd 6e5e 81bd e7d9 93bd
000001f0: e7c2 5a3d c6d7 32bc 3f73 6d3d a6e3 213d
00000200: 7d25 7ebb 5f34 323d bd69 d9bc 16ce a43c
00000210: 2439 d1bc eaf7 2fbd b8b1 1bbd 3c05 c9bc
00000220: 4ebd 9dbb 0eb0 ffbb 120a 58bd b421 963d
00000230: 2920 283d 72db dd3b 750e 58bd cc4e 5ebd
00000240: 8473 57bd 6a53 54bd 821b 9bbd 2a8d 913d
00000250: fffe 4b3c 5bc8 8d3d f1a5 a33c 9312 963d
00000260: beeb 8ebd 21cb 9dbc a15c fc3c f62c 72bd
00000270: 1347 74bd e95b a0ba 0219 49bc a116 06bd
00000280: 83a5 46bd 929d 513d 1a80 6fbd 701f 89bd
00000290: 9a4e 133c 0993 97bd 5d53 f83c 58aa bb3d
000002a0: 6fa9 18bd 9952 95bd 6c2d 27bd 2e32 873d
000002b0: c094 c1bc 5740 8a3d e816 12bd 3954 843d
000002c0: 39a4 ce3a f3c5 cdbb 8d8b 8dbb 1349 6bbd
000002d0: 30f2 41bd e395 fd3c a9e4 4ebd 4f58 b5bb
000002e0: 372f b13d 96c9 fabc 15fb 43bd 09f7 7a3c
000002f0: 43b2 463b fa55 f13c 324d 14bd 72fe 09bd
00000300: 5e2c ef3c e683 973d 587f 29bc 4209 fbbb
00000310: 4cd7 f7ba 7762 5bbd bc81 6cbd dae6 00bd
00000320: 5706 ed3b 9efa d8bc bd47 4fbd fcbe 52bd
00000330: 0718 32bd a569 08bd b181 92bd 2cdd 983d
00000340: ba2f fb3c f248 2bbd a595 3abb d079 f03c
00000350: 4f2f dd3c ac94 1fbc 8322 44bd 09f4 b83d
00000360: 29e0 acbc 5852 613c 4366 79bd f411 e6bc
00000370: db34 8ebc 7881 1abd 584f f6bc 5746 99bc
00000380: 75a1 c03a 06c8 a8bd 53b9 b4bb fc88 ac3d
00000390: 84fe 0dba a20b 92bd bb46 673d fe43 44bd
000003a0: 9ad1 aabd bb93 27bd 05f7 9bbd c218 4dbd
000003b0: 3b82 8ebd 10ea cb3d 28e7 0bbc 2dfa 043d
000003c0: d3d6 64bc 9cd8 3dbc 9eca ac3d 4037 973d
000003d0: 9e69 febb 6153 0e3d ffaf 99bd 8982 8d3d
000003e0: d4a9 9cbc b431 103a c378 e83c e635 41bd
000003f0: 1881 d13c de26 69bd c63b 933c 0edf 9dbb

_rnn.bias_ih_l0 f4 [384]
-0.04460926 0.0024825414 -0.086090825 0.06802533 0.055574033 0.089716874 0.07928231 0.09855127
0.026561651 0.08513595 -0.0043001426 -0.068880804 0.018118659 -0.03698596 0.09496446 0.07003497
0.00045682624 0.15223019 0.07303539 -0.03735862 -0.0025137719 0.10512791 0.06266801 -0.044949874
0.00042818682 0.103124075 0.10253782 -0.05673444 0.0026401873 -0.005069812 0.015217421 -0.044870198
0.13480179 -0.042210016 0.0076609594 -0.038183823 0.09575068 -0.07740999 0.030650383 0.028132968
0.035273675 -0.059406094 0.014319986 0.05811119 -0.010463261 0.025266169 0.007596275 -0.0620843
0.104685254 0.10645561 -0.007158503 -0.048097976 -0.01184732 -0.021041648 0.07728237 0.11081678
0.062146503 0.047163047 0.079684466 0.11631584 0.055398393 -0.046131965 0.056864075 0.050115485
-0.014081766 -0.0055445633 -0.061169453 0.0057696924 -0.07932979 0.02116093 0.06278837 0.09506951
0.07850203 -0.008888523 -0.03061561 -0.032063097 -0.073908396 -0.03259345 0.059047673 0.15709141
0.0616855 0.08637975 0.045432888 -0.011859336 0.066046365 0.063151665 0.0037663477 0.02868255
0.085375 -0.015413041 -0.030445468 -0.008164943 0.047654573 0.038890477 -0.052722067 -0.04323671
0.0064322087 -0.045130797 -0.010543023 0.026367554 0.07497863 0.08889269 0.06765053 -0.07865182
0.074180804 -0.022337893 -0.02723252 0.017119702 0.059668966 0.045197476 -0.0075426805 0.07443949
0.0016282207 0.010114482 0.0982234 -0.031849887 -0.03850891 -0.07900077 0.05831846 0.013905687
0.08269514 0.09148731 0.06588055 0.07272832 0.07223349 -0.021343958 -0.019622764 0.11310505
0.10093633 -0.07221096 -5.2405838e-05 0.098923385 0.0062356764 -0.13867258 -0.13875185 -0.038560867
0.1178313 -0.024963826 0.042161923 -0.039115664 0.016319342 -0.008477568 0.05193224 0.018275123
0.07353912 -0.107930705 -0.0043820688 0.012292853 0.06271024 0.017798694 -0.048457693 -0.02411026
-0.049515564 -0.11899274 0.090043314 -0.040549178 0.018566394 0.07124254 -0.050204545 0.053729855
0.028569978 0.01644831 -0.13374044 -0.04512354 -0.08016908 0.0086194435 0.12477023 0.010948212
-0.04664096 0.07642888 -0.012332794 -0.016146284 0.04381818 0.030500388 0.0011498971 -0.031983167
-0.13696626 -0.07358512 -0.08438478 -0.060652666 0.009069389 0.02741158 0.025999911 -0.08414128
-0.0355711 -0.12397294 -0.0049297595 -0.0146871535 0.16390492 0.06464292 -0.105100006 -0.10890265
0.054176256 0.05975358 0.032775395 -0.07915483 -0.077665135 -0.05118442 -0.06979982 -0.117808804
0.058778442 0.03546716 0.00022961105 0.07976607 -0.05440406 0.043203298 0.007544274 0.055926308
0.004236676 0.009274426 0.06369488 -0.07160598 -0.00021283035 0.06174898 0.001882524 0.17483217
-0.020032456 0.019186927 -0.07952239 0.013688931 0.028513184 -0.075061105 -0.031721093 0.0078120916
0.015256897 -0.053206638 -0.067692444 -0.06997525 -0.05836256 -0.1663091 -0.038610008 -0.042667225
0.0541218 0.05932086 0.07375994 -0.10916592 0.04115893 0.92354095 -0.032169733 0.07018888
0.036603343 0.027946591 -0.13097925 0.07641214 -0.0920096 0.096330024 -0.06546368 -0.037687898
0.046276513 -0.09351092 -0.065977305 -0.097230665 -0.13766643 -0.058578316 -0.08876932 -0.12177935
00000000: 33b8 36bd 22b2 223b 6350 b0bd dd50 8b3d
00000010: 99a1 633d 7bbd b73d c45e a23d 40d5 c93d
00000020: d297 d93c c25b ae3d 36e8 8cbb 6111 8dbd
00000030: 956d 943c 977e 17bd ba7c c23d 7f6e 8f3d
00000040: 2e82 ef39 3be2 1b3e 9493 953d 5a05 19bd
00000050: 18be 24bb 4d4d d73d 1658 803d 5c1d 38bd
00000060: 437e e039 b732 d33d 59ff d13d 5f62 68bd
00000070: fe06 2d3b aa20 a6bb 7d52 793c d0c9 37bd
00000080: 7b09 0a3e 69e4 2cbd c908 fb3b a466 1cbd
00000090: ef18 c43d 2189 9ebd 8316 fb3c 1c77 e63c
000000a0: 217b 103d ce53 73bd 609e 6a3c 0006 6e3d
000000b0: 196e 2bbc fffa ce3c 2cea f83b 1b4c 7ebd
000000c0: 3965 d63d 6605 da3d e091 eabb 6202 45bd
000000d0: 431b 42bc 895f acbc 3846 9e3d e8f3 e23d
000000e0: 558d 7e3d 0a2e 413d 9c31 a33d 0037 ee3d
000000f0: 6de9 623d dff4 3cbd 4eea 683d e545 4d3d
00000100: 35b7 66bc 2baf b5bb d28c 7abd b00f bd3b
00000110: a877 a2bd b059 ad3c 3097 803d ceb3 c23d
00000120: acc5 a03d 2ba1 11bc 96cd fabc 9854 03bd
00000130: 495d 97bd b680 05bd f9db 713d 92dc 203e
00000140: efa9 7c3d dee7 b03d d617 3a3d a94d 42bc
00000150: 5143 873d a955 813d d4d4 763b abf7 ea3c
00000160: 17d9 ae3d fb86 7cbc c668 f9bc 41c6 05bc
00000170: 7131 433d 9f4b 1f3d 18f3 57bd fa18 31bd
00000180: 47c5 d23b 12db 38bd a5bc 2cbc c500 d83c
00000190: 658e 993d 5f0d b63d 5c8c 8a3d 3514 a1bd
000001a0: 1bec 973d f5fd b6bc bc16 dfbc 9e3e 8c3c
000001b0: 7267 743d fd20 393d 9728 f7bb bb73 983d
000001c0: 056a d53a 36b7 253c 5a29 c93d 0775 02bd
000001d0: 85bb 1dbd 28cb a1bd 56df 6e3d aed4 633c
000001e0: 125c a93d b35d bb3d 62ec 863d 96f2 943d
000001f0: 27ef 933d 86d9 aebc ebbf a0bc 9fa3 e73d
00000200: b5b7 ce3d 57e3 93bd 57ce 5bb8 5898 ca3d
00000210: a554 cc3b 2f00 0ebe f714 0ebe 00f2 1dbd
00000220: 8951 f13d f080 ccbc fbb1 2c3d bf37 20bd
00000230: 24b0 853c 7fe5 0abc e7b6 543d b6b5 953c
00000240: ae9b 963d c60a ddbd 7597 8fbb f667 493c
00000250: 3a6e 803d 91ce 913c 937b 46bd e182 c5bc
00000260: d5d0 4abd 77b2 f3bd a168 b83d e516 26bd
00000270: 8d18 983c 9ce7 913d 48a3 4dbd d613 5c3d
00000280: 960b ea3c 9bbe 863c 41f3 08be 76d3 38bd
00000290: b02f a4bd 9138 0d3c 8987 ff3d 2160 333c
000002a0: 970a 3fbd bf86 9c3d 7d0f 4abc 3645 84bc
000002b0: b17a 333d f3db f93c 25b8 963a c800 03bd
000002c0: e240 0cbe ccb3 96bd edd1 acbd ee6e 78bd
000002d0: c697 143c 408e e03c c4fd d43c 4352 acbd
000002e0: 00b3 11bd 86e5 fdbd d289 a1bb 63a2 70bc
000002f0: b1d6 273e 8263 843d ac3e d7bd 5a08 dfbd
00000300: ece7 5d3d 2bc0 743d 7e3f 063d ed1b a2bd
00000310: e60e 9fbd c1a6 51bd 35f3 8ebd be45 f1bd
00000320: aac1 703d 0346 113d bfc3 7039 655c a33d
00000330: cbd6 5ebd f1f5 303d f535 f73b fc12 653d
00000340: d0d3 8a3b c3f3 173c 7672 823d 28a6 92bd
00000350: 362b 5fb9 80ec 7c3d 06bf f63a 3407 333e
00000360: 1b1b a4bc e72d 9d3c a3dc a2bd 8a47 603c
00000370: 7b94 e93c a3b9 99bd faed 01bd 93fc ff3b
00000380: 10f8 793c 34ef 59bd 56a2 8abd 2f4f 8fbd
00000390: 940d 6fbd ef4c 2abe 8725 1ebd d4c3 2ebd
000003a0: d2ae 5d3d 6efa 723d 740f 973d 6292 dfbd
000003b0: 4496 283d 2e6d 6c3f 69c4 03bd 30bf 8f3d
000003c0: 63ed 153d 40f0 e43c 6d1f 06be f87d 9c3d
000003d0: 876f bcbd ad48 c53d d211 86bd a05e 1abd
000003e0: 718c 3d3d a782 bfbd 1c1f 87bd df20 c7bd
000003f0: 6ef8 0cbe d1ef 6fbd b0cc b5bd 7467 f9bd

_rnn.bias_hh_l0 f4 [384]
0.050742503 -0.06915305 -0.07909749 0.055497937 0.08475593 0.10450776 0.11870806 0.0666743
0.013646901 -0.03789173 -0.011000997 -0.071718335 0.076014705 -0.052530568 -0.008129241 0.012469932
0.02886296 0.1830238 0.084580675 0.005587285 0.10308934 0.088769145 0.06439115 0.090606086
-0.04639675 0.062144253 0.11085935 0.02158001 0.031529248 -0.010088856 -0.055567637 -0.03715002
0.089822054 0.11234619 0.024103371 -0.071500145 0.08641637 -0.08319138 0.056280084 0.06834797
0.05196693 0.012189279 -0.06736008 0.06501401 0.023236135 -0.017748661 0.12172855 -0.0032739523
0.11480979 0.037973806 0.0037017742 0.040101316 -0.045900013 0.02026373 -0.051331516 0.08151945
-0.06577351 0.101850785 -0.080665424 0.007169113 0.0744068 -0.05443382 -0.059738316 0.027126387
-0.063521735 0.0105703715 -0.05323794 0.063005306 -0.0005654123 0.042164296 0.025741389 0.113269895
0.048294768 0.102210656 -0.062767014 0.061419733 0.034087215 -0.015343761 -0.010052434 0.15417527
-0.031628918 -0.04751822 -0.029306551 0.1249378 0.09784164 -0.014798886 0.068114944 0.032197732
-0.03161416 -0.04480077 -0.06942148 -0.020814246 0.05666924 0.012255856 -0.05348791 -0.055595487
-0.042632118 0.005167576 0.07491827 0.053930894 0.01069359 0.02121862 -0.01774716 0.0581357
-0.045112446 0.06965546 0.10797518 0.052311677 0.030655239 0.100596905 -0.032506242 0.10909496
-0.050710466 -0.029574677 -0.057173166 0.025971545 0.038305927 0.0062404666 0.0069271717 0.06651854
0.064195506 0.061658055 0.044502575 0.0798468 -0.021250768 0.040669367 -0.043643862 0.044169847
0.031577095 -0.07648935 0.013178169 0.030401329 0.0068045096 -0.08685387 -0.1414484 -0.044851314
0.04286921 -0.12923898 0.02508821 0.07828745 0.055150736 0.09212867 -0.11451139 0.011080637
0.045795485 -0.1486645 -0.08370478 0.017847626 -0.038104452 0.03337457 -0.017858475 -0.12060282
0.058634784 -0.21634445 0.08653973 -0.036038045 -0.05876758 0.0015530217 0.0031032497 0.097373515
-0.12825581 0.03442072 -0.17569298 -0.076388024 -0.06608499 -0.06475737 0.08855621 0.035326865
-0.05868975 0.13047008 -0.017029418 -0.09440964 -0.08540592 0.023779381 -0.051887494 0.02092548
-0.01524842 0.0013608332 0.054797374 0.027466055 0.0028647506 -0.081754796 -0.018584294 -0.1656872
0.020165635 -0.075577945 0.028060734 0.004731957 0.13515243 -0.028573861 -0.088374324 0.055336274
-0.08359511 -0.058913115 -0.04436629 0.066612214 0.027974643 -0.12716986 -0.058145706 -0.083191216
-0.018251795 0.03933913 -0.072616376 -0.084342994 0.000961388 -0.0981035 0.10408098 -0.038534157
-0.06002259 -0.07338888 -0.03918879 -0.10538796 -0.10289986 0.057366684 0.074577436 0.27314672
0.013444225 -0.016075397 0.031899057 -0.011618615 -0.04566933 -0.005143841 0.004969581 -0.095856905
0.011290364 -0.05709769 -0.035190504 -0.09334897 -0.09757392 -0.012888187 0.007861305 -0.038374074
-0.011116176 0.022576613 0.10659983 -0.07878069 -0.037551273 0.94954914 -0.083110794 0.15248623
-0.006723405 0.078363635 0.013655815 0.046111036 -0.016137123 0.058759782 0.08179707 0.05146621
0.08847173 -0.13250731 -0.103739776 -0.13517058 -0.11853481 0.072471626 -0.0867932 -0.16939442
00000000: 5fd7 4f3d 1da0 8dbd ddfd a1bd ce51 633d
00000010: 8494 ad3d 2a08 d63d 361d f33d 898c 883d
00000020: 4097 5f3c 5c34 1bbd 873d 34bc 10e1 92bd
00000030: 99ad 9b3d 4b2a 57bd 8230 05bc b04e 4c3c
00000040: 0472 ec3c 976a 3b3e a238 ad3d 8b15 b73b
00000050: 8120 d33d 99cc b53d 82df 833d af8f b93d
00000060: 850a 3ebd f98a 7e3d 3a0a e33d 90c8 b03c
00000070: d024 013d bb4b 25bc e49a 63bd 9f2a 18bd
00000080: a0f4 b73d c215 e63d 6f74 c53c ab6e 92bd
00000090: 11fb b03d 3e60 aabd f285 663d 05fa 8b3d
000000a0: 47db 543d 8bb5 473c 15f4 89bd 1126 853d
000000b0: b559 be3c a465 91bc d14c f93d ce8f 56bb
000000c0: 6521 eb3d 6c8a 1b3d 7799 723b 4741 243d
000000d0: a701 3cbd 1f00 a63c ff40 52bd abf3 a63d
000000e0: 43b4 86bd 2597 d03d ea33 a5bd e1ea ea3b
000000f0: 9862 983d fff5 5ebd 2ab0 74bd 2838 de3c
00000100: af17 82bd 5a2f 2d3c 0710 5abd ed08 813d
00000110: 2d38 14ba 78b4 2c3d 9bdf d23c 0cfa e73d
00000120: bcd0 453d d253 d13d fe8b 80bd 4293 7b3d
00000130: 099f 0b3d 6664 7bbc f7b2 24bc 1fe0 1d3e
00000140: 538d 01bd 77a2 42bd 4b14 f0bc 64df ff3d
00000150: 3361 c83d 0777 72bc d97f 8b3d c5e1 033d
00000160: d97d 01bd 0381 37bd d92c 8ebd a382 aabc
00000170: 011e 683d c9cc 483c 2416 5bbd 18b8 63bd
00000180: 049f 2ebd c554 a93b c06e 993d a4e6 5c3d
00000190: 2b34 2f3c acd2 ad3c 7e62 91bc b31f 6e3d
000001a0: d4c7 38bd 86a7 8e3d 1722 dd3d c544 563d
000001b0: b220 fb3c c005 ce3d 4425 05bd 2e6d df3d
000001c0: c7b5 4fbd 9846 f2bc 692e 6abd 47c2 d43c
000001d0: ade6 1c3d d47c cc3b 54fd e23b df3a 883d
000001e0: ef78 833d 288d 7c3d 5548 363d b886 a33d
000001f0: 1716 aebc ec94 263d e8c3 32bd 71eb 343d
00000200: fc56 013d 73a6 9cbd 3fe9 573c 350c f93c
00000210: 5df8 de3b 71e0 b1bd d9d7 10be 03b6 37bd
00000220: a097 2f3d 3957 04be ca85 cd3c 2c55 a03d
00000230: bde5 613d f5ad bc3d f384 eabd 8f8b 353c
00000240: 0c94 3b3d 823b 18be 696d abbd 2f35 923c
00000250: 6a13 1cbd c6b3 083d f04b 92bc 9cfe f6bd
00000260: 072b 703d 6689 5dbe be3b b13d a19c 13bd
00000270: 46b6 70bd c38e cb3a e45f 4b3b c46b c73d
00000280: 7e55 03be befc 0c3d dce8 33be 5371 9cbd
00000290: 9157 87bd 839f 84bd f55c b53d e7b2 103d
000002a0: aa64 70bd f399 053e 4781 8bbc d759 c1bd
000002b0: 4de9 aebd facc c23c fb87 54bd ea6b ab3c
000002c0: 82d4 79bc fc5d b23a 3673 603d 7e00 e13c
000002d0: 8abe 3b3b 0f6f a7bd 173e 98bc e8a9 29be
000002e0: 6732 a53c 9cc8 9abd a0df e53c 880e 9b3b
000002f0: 6665 0a3e bb13 eabc 99fd b4bd 4aa8 623d
00000300: ea33 abbd e14e 71bd 6db9 35bd fc6b 883d
00000310: 142b e53c d138 02be 312a 6ebd 2860 aabd
00000320: ca84 95bc 1122 213d e5b7 94bd 05bc acbd
00000330: a805 7c3a 7dea c8bd 6928 d53d fed5 1dbd
00000340: 3fda 75bd e94c 96bd 6d84 20bd a5d5 d7bd
00000350: 29bd d2bd 54f9 6a3d 0ebc 983d e3d9 8b3e
00000360: 2b45 5c3c 8db0 83bc 96a8 023d 015c 3ebc
00000370: c30f 3bbd aa8d a8bb ded7 a23b a050 c4bd
00000380: 38fb 383c 44df 69bd eb23 10bd bf2d bfbd
00000390: d6d4 c7bd f928 53bc b4cc 003c 222e 1dbd
000003a0: 9f20 36bc 97f2 b83c 0351 da3d c557 a1bd
000003b0: 5dcf 19bd a715 733f fe35 aabd 5a25 1c3e
000003c0: 0250 dcbb 1d7d a03d a4bc 5f3c edde 3c3d
000003d0: 0032 84bc 19ae 703d 3985 a73d 3cce 523d
000003e0: ab30 b53d ffaf 07be 8575 d4bd 286a 0abe
000003f0: 61c2 f2bd 016c 943d a2c0 b1bd bb75 2dbe

_rnn.weight_ih_l0_reverse f4 [384, 1]
0.018068826 0.09797599 -0.068269804 -0.07204176 0.030558774 -0.08933265 0.065330535 0.02103138
0.042515468 0.08848315 0.01664543 0.045108072 0.016181681 0.10751406 0.06440016 -0.14692475
-0.025428118 0.2542382 -0.015591534 -0.08484098 0.0556901 -0.062861 -0.011052668 0.078672156
-0.073462725 -0.06017153 -0.040107742 0.032967165 -0.2404794 -0.09710342 0.08831323 0.036942232
-0.04398459 -0.049000405 0.006144945 -0.092670135 -0.026808154 -0.04976413 0.13804899 -0.015545423
-0.077245824 0.2760031 -0.03390181 -0.09627542 0.19009207 -0.028686617 0.053358804 0.079752184
0.038978197 0.101339035 -0.0036181514 -0.1303761 -0.05247896 0.060594726 0.0110614225 0.117846504
-0.10034435 -0.035328142 0.0045286547 -0.015962603 0.0920637 0.045525648 0.0014423953 -0.12201947
-0.10446772 -0.009143608 -0.10268449 0.045774516 -0.032807935 -0.026078505 0.08940555 0.041215662
-0.09712828 0.067164876 -0.16836336 -0.088970356 0.05076435 0.017962923 0.06078961 -0.03968447
0.101622365 -0.043607987 -0.20353104 -0.02294484 0.048424546 -0.041523598 0.017263671 -0.051434603
-0.010492739 0.018083123 0.10860969 0.0040725633 0.11960915 0.018895082 0.054137696 -0.03125007
0.0011486976 0.02680255 0.06150797 0.07069961 0.059379373 0.03900372 0.0065642404 -0.05243696
-0.06985793 0.029144222 -0.014676271 0.004625576 -0.059438344 -0.010104177 -0.06575886 -0.028507473
-0.12968786 0.110699534 -0.026744341 0.04605889 0.07650226 0.121238776 0.07750962 -0.05610978
0.01776869 -0.07330236 -0.09230206 0.05978917 0.08138243 0.13640918 -0.030199952 0.01827358
-0.053378027 -0.10856904 0.0899696 0.13282362 -0.053421147 0.062216494 -0.00860422 -0.1707074
-0.077510685 -0.20449665 0.07079015 0.02425931 -0.023493282 -0.17912292 -0.26321933 0.44240087
-0.033007205 -0.2510024 -0.015065635 0.362884 0.485434 -0.19639102 -0.16241893 -0.00018550003
0.036304787 0.09483352 0.020196943 0.10638624 -0.3718026 -0.039126173 -0.08813195 0.08175546
0.06256266 0.25198781 0.00013255038 0.12616411 0.043495625 -0.077784106 -0.15462072 0.084453344
-0.18029559 -0.41288036 -0.054096095 -0.047938004 0.27370778 -0.026231846 -0.18420355 -0.6662061
0.12470302 0.17889506 0.082953714 0.19137332 0.32904178 0.09984827 -0.06286949 -0.122332275
-0.008986372 0.024835592 0.1519395 -0.0022419333 -0.26490897 0.061229125 -0.13666315 -0.105952576
0.04048237 -0.048039306 -0.020599492 0.16928653 0.053862162 0.09789743 -0.26834267 0.033622295
0.06313623 0.050521802 0.0009885125 0.3297858 0.025502067 -0.015270632 -0.055950202 0.044540886
-0.093067944 0.13538897 -0.14781027 -0.18464443 -0.11757335 0.2669307 0.0875629 0.27043462
0.090539984 -0.17493494 -0.0130061535 0.8124586 -0.1661697 0.28882208 -0.13251388 -0.013879971
-0.16326968 0.4189435 0.11176466 0.06996923 0.009053913 -0.006181459 -0.24939652 0.18500674
-0.14009985 -0.01539171 -0.2223555 0.28119355 -0.051189646 0.12389819 -0.1746497 -0.11874613
0.21705537 0.14052126 0.3434949 0.052625015 0.0662249 -0.17395338 -0.079909556 0.015375035
-0.020402659 0.36393657 -0.39005905 -0.07099135 -0.20004894 0.5977846 0.010994919 0.29412943
00000000: 1305 943c a3a7 c83d 0ad1 8bbd a18a 93bd
00000010: 6556 fa3c 09f4 b6bd 04cc 853d 004a ac3c
00000020: b324 2e3d a736 b53d ff5b 883c 3ec3 383d
00000030: 728f 843c 5530 dc3d 3be4 833d 7173 16be
00000040: a14e d0bc 822b 823e a273 7fbc 1cc1 adbd
00000050: 4d1b 643d 45bd 80bd 4016 35bc de1e a13d
00000060: a073 96bd 6c76 76bd 0448 24bd 9408 073d
00000070: 3b40 76be 28de c6bd 91dd b43d bd50 173d
00000080: 2f29 34bd a6b4 48bd 895b c93b d7c9 bdbd
00000090: c69c dbbc 79d5 4bbd b75c 0d3e 3bb2 7ebc
000000a0: 0f33 9ebd 4750 8d3e a0dc 0abd 0c2c c5bd
000000b0: 7fa7 423e 3200 ebbc c38e 5a3d 1d55 a33d
000000c0: 9aa7 1f3d d78a cf3d 821e 6dbb 5081 05be
000000d0: 2ef4 56bd 2d32 783d f83a 353c 8259 f13d
000000e0: 5781 cdbd 3eb4 10bd 1c65 943b 01c4 82bc
000000f0: e58b bc3d 1a79 3a3d c10e bd3a 58e5 f9bd
00000100: 2cf3 d5bd 12cf 15bc 3f4c d2bd 0f7e 3b3d
00000110: 9d61 06bd 97a2 d5bc 421a b73d c1d1 283d
00000120: 31eb c6bd bd8d 893d 7267 2cbe 1736 b6bd
00000130: 47ee 4f3d fb26 933c 87fe 783d 2f8c 22bd
00000140: 631f d03d 4a9e 32bd 716a 50be d1f6 bbbc
00000150: d158 463d a614 2abd 8b6c 8d3c 17ad 52bd
00000160: bde9 2bbc 0f23 943c c26e de3d 2373 853b
00000170: a4f5 f43d dcc9 9a3c 7dbf 5d3d 1300 00bd
00000180: e58f 963a 0591 db3c c8ef 7b3d f5ca 903d
00000190: c937 733d 5dc2 1f3d d718 d73b 23c8 56bd
000001a0: ad11 8fbd ddbf ee3c be74 70bc 2592 973b
000001b0: 9f75 73bd fd8b 25bc 95ac 86bd 8188 e9bc
000001c0: e5cc 04be 70b6 e23d f316 dbbc 3fa8 3c3d
000001d0: 38ad 9c3d 094c f83d 5dbd 9e3d 5ed3 65bd
000001e0: a58f 913c 8c1f 96bd dd08 bdbd 7de5 743d
000001f0: d5ab a63d d9ae 0b3e e465 f7bc 7ab2 953c
00000200: eba2 5abd 7259 debd fb41 b83d ea02 083e
00000210: 22d0 5abd b9d6 7e3d b7f8 0cbc eccd 2ebe
00000220: ecbd 9ebd 9267 51be 6dfa 903d 76bb c63c
00000230: fc74 c0bc 006c 37be afc4 86be 5e82 e23e
00000240: 9032 07bd 6383 80be dad5 76bc efcb b93e
00000250: ce8a f83e ba1a 49be 2651 26be c982 42b9
00000260: 54b4 143d 1438 c23d 0f74 a53c 07e1 d93d
00000270: e95c bebe c442 20bd 867e b4bd 686f a73d
00000280: da20 803d 8c04 813e 39fd 0a39 2a31 013e
00000290: 7828 323d 464d 9fbd e554 1ebe e0f5 ac3d
000002a0: 689f 38be 0e65 d3be de93 5dbd a45a 44bd
000002b0: 6d23 8c3e 2be4 d6bc db9f 3cbe 7c8c 2abf
000002c0: 4c64 ff3d 4430 373e a3e3 a93d 5ef7 433e
000002d0: 2a78 a83e 407d cc3d b8c1 80bd 5889 fabd
000002e0: 933b 13bc 0374 cb3c 0796 1b3e 66ed 12bb
000002f0: 26a2 87be 64cb 7a3d 6df1 0bbe aafd d8bd
00000300: d7d0 253d ddc4 44bd 44c0 a8bc 7359 2d3e
00000310: 929e 5c3d 737e c83d 3664 89be 88b7 093d
00000320: 914d 813d f3ef 4e3d fa90 813a afd9 a83e
00000330: b6e9 d03c ac31 7abc 0a2c 65bd 8170 363d
00000340: 689a bebd 68a3 0a3e 935b 17be 6e13 3dbe
00000350: 4cca f0bd 24ab 883e 2d54 b33d 6876 8a3e
00000360: 076d b93d 2522 33be c317 55bc 49fd 4f3f
00000370: 6428 2abe 7de0 933e b8b1 07be d168 63bc
00000380: 2b30 27be c37f d63e dfe4 e43d 074c 8f3d
00000390: dd56 143c d68d cabb cd61 7fbe 6872 3d3e
000003a0: 5676 0fbe 832d 7cbc 29b1 63be 9af8 8f3e
000003b0: 3cac 51bd 56be fd3d 5fd7 32be 2c31 f3bd
000003c0: c343 5e3e cee4 0f3e 90de af3e 548d 573d
000003d0: eca0 873d d620 32be 9fa7 a3bd 92e7 7b3c
000003e0: 7a23 a7bc e555 ba3e d2b5 c7be ea63 91bd
000003f0: a1d9 4cbe 6908 193f 0824 343c 2298 963e

_rnn.weight_hh_l0_reverse f4 [384, 128]
0.04005086 -0.04314207 0.061784606 -0.055954833 0.012946427 0.037885476 0.01568761 0.0008261914
0.056226913 0.01477545 -0.016023844 0.05465985 -0.05410107 0.010221081 0.04667815 0.0830205
0.040926863 -0.005671716 0.050141845 0.00088557834 -0.052053493 -0.05770382 -0.04284166 -0.029810293
-0.059347562 -0.07355279 0.027637515 0.021174746 -0.065484464 -0.0079859225 0.014434758 -0.021690797
-0.010957532 -0.03592684 0.012293414 -0.08339643 0.00649615 0.0049282447 -0.023077644 -0.05023435
-0.024437752 -0.055093993 0.07428136 -0.049090393 -0.030734101 -0.048530497 -0.06150351 0.043829344
0.07318155 -0.0022448571 -0.07656392 0.06203732 0.04930581 0.012475707 0.0844826 0.029934352
0.01947287 -0.020527456 0.008460572 -0.08429943 0.028404877 0.022429118 -0.078535765 0.02795092
0.044855498 -0.0068397196 -0.030493826 0.0023737955 0.021665402 0.048516836 0.07245844 -0.013713749
-0.056727737 -0.026204247 -0.069031775 0.059291996 -0.059512466 -0.057201568 -0.062065087 0.03744552
0.087072805 -0.013385795 0.080048695 0.0768696 -0.04758834 -0.077206336 -0.052284364 -0.06264871
0.08570842 -0.054658365 0.040125836 0.026110193 -0.013195928 -0.06648189 -0.08365865 -0.07007543
0.027880989 0.07504118 -0.0260206 0.081500955 -0.030162178 0.0033975965 0.08663942 -0.017695503
0.009007666 0.04118375 -0.08459304 -0.060404293 0.035171513 0.04151661 0.044814926 -0.07899816
-0.0532844 -0.03302476 -0.08660086 0.08293901 -0.039254434 -0.089605786 -0.09041701 -0.03691167
-0.015085326 -0.04171003 -0.064603336 -0.058779597 -0.015291974 0.011611855 -0.08531395 -0.012998378
-0.038960136 0.044056054 -0.039881166 0.07820791 0.04224306 0.09213415 -0.027397322 0.01301636
0.06904632 -0.032857332 0.005346984 -0.082249984 -0.072701715 -0.027440753 0.037083395 0.06815176
0.0143424785 0.068704575 0.04534051 -0.057440955 0.048791822 0.022922104 0.00920694 0.036302842
-0.051374823 0.004994959 -0.049305182 -0.038479645 0.06339611 -0.004153922 0.04504955 -0.042433713
0.054881435 0.020418774 0.091408834 -0.017421948 0.033263527 0.04579438 0.06311065 -0.035391733
-0.03816515 0.041276537 -0.0029278216 0.018707369 0.052122865 -0.06199669 -0.087233976 -0.049482558
-0.08226457 -0.08002859 0.0695426 -0.021657724 -0.08083995 0.051702388 0.009234963 0.019961419
0.0646693 -0.06129352 0.07080441 -0.010924345 0.078092724 -0.03565305 0.055751715 -0.057155155
-0.03660189 0.057418603 -0.06950724 0.018530158 0.089165755 0.015637318 -0.021649528 -0.055190004
-0.05210607 -0.03651286 0.013527022 -0.060785092 0.054054383 0.040869694 -0.07377605 -0.0764139
-0.00105398 -0.0069077048 -0.090116054 -0.045443024 -0.039337553 0.011480519 -0.008312118 0.0051594703
0.056375008 -0.06524579 -0.029408852 -0.010029867 -0.003396483 -0.026519043 0.010030813 0.07370985
-0.03559319 0.038473926 -0.0028588364 0.0901866 0.071641125 0.029457534 0.02364699 -0.005220007
0.074228466 -0.027326219 -0.00058289926 -0.0490218 -0.012455853 0.08151025 0.059868835 0.004298001
0.014042638 -0.068947 0.031099413 0.044522326 -0.07118913 0.04509203 -0.057948705 0.07967912
0.011329917 -0.04923375 0.08469769 -0.0016986034 -0.0573998 -0.044993218 -0.037105285 -0.020029072
00000000: 5f0c 243d bdb5 30bd db11 7d3d e530 65bd
00000010: 401d 543c cd2d 1b3d 4d83 803c c494 583a
00000020: 314e 663d bb14 723c 7044 83bc 02e3 5f3d
00000030: 1599 5dbd 5276 273c 9631 3f3d a706 aa3d
00000040: eda2 273d cdd9 b9bb 8961 4d3d 2826 683a
00000050: 0b36 55bd d75a 6cbd bd7a 2fbd b734 f4bc
00000060: 6e16 73bd d8a2 96bd 1268 e23c a976 ad3c
00000070: b81c 86bd 63d7 02bc c37f 6c3c e6b0 b1bc
00000080: 3887 33bc 0628 13bd 516a 493c bfcb aabd
00000090: a8dd d43b 1d7d a13b 540d bdbc 89c2 4dbd
000000a0: ae31 c8bc 3daa 61bd d320 983d 0213 49bd
000000b0: 15c6 fbbc eac7 46bd 1beb 7bbd 6686 333d
000000c0: 35e0 953d 741e 13bb 8bcd 9cbd d81a 7e3d
000000d0: e4f4 493d e866 4c3c 3705 ad3d e338 f53c
000000e0: 9185 9f3c 3229 a8bc 369e 0a3c 2ea5 acbd
000000f0: 58b1 e83c 45bd b73c 5cd7 a0bd 54f9 e43c
00000100: 66ba 373d ba1f e0bb 30ce f9bc ae91 1b3b
00000110: a47b b13c 97b9 463d 1765 943d a2af 60bc
00000120: 585b 68bd 4aaa d6bc 8860 8dbd 2adc 723d
00000130: 58c3 73bd 314c 6abd f637 7ebd 7960 193d
00000140: 3a53 b23d 1850 5bbc 92f0 a33d cf6d 9d3d
00000150: feeb 42bd 5b1e 9ebd 2128 56bd f84d 80bd
00000160: e587 af3d 73e1 5fbd fd5a 243d 0be5 d53c
00000170: bc33 58bc a827 88bd 3a55 abbd b583 8fbd
00000180: ac66 e43c 31af 993d 2729 d5bc f9e9 a63d
00000190: ac16 f7bc 36aa 5e3b 0270 b13d 29f6 90bc
000001a0: e494 133c 4bb0 283d 1e3f adbd 7e6a 77bd
000001b0: 0110 103d 520d 2a3d db8f 373d cac9 a1bd
000001c0: be40 5abd f944 07bd cb5b b1bd eddb a93d
000001d0: 42c9 20bd 3d83 b7bd 8e2c b9bd b130 17bd
000001e0: 7128 77bc 23d8 2abd c14e 84bd e0c2 70bd
000001f0: 308b 7abc a63f 3e3c 15b9 aebd 26f7 54bc
00000200: aa94 1fbd 1f74 343d 6f5a 23bd 782b a03d
00000210: 0f07 2d3d d4b0 bc3d 5970 e0bc 9242 553c
00000220: 2868 8d3d 6995 06bd c135 af3b ae72 a8bd
00000230: a3e4 94bd 6ecb e0bc c2e4 173d 2693 8b3d
00000240: b7fc 6a3c fcb4 8c3d f8b6 393d 3547 6bbd
00000250: efd9 473d 23c7 bb3c b5d8 163c 4ab2 143d
00000260: 686e 52bd c1ac a33b 3bf4 49bd d59c 1dbd
00000270: d2d5 813d a01d 88bb e085 383d f9ce 2dbd
00000280: 5bcb 603d 4645 a73c 8e34 bb3d 79b8 8ebc
00000290: 563f 083d e392 3b3d 2840 813d ecf6 10bd
000002a0: 0f53 1cbd 9611 293d b2e0 3fbb 3240 993c
000002b0: c97e 553d 3ef0 7dbd baa7 b2bd 39ae 4abd
000002c0: 547a a8bd 08e6 a3bd 5a6c 8e3d 8a6b b1bc
000002d0: 6a8f a5bd e2c5 533d 3e4e 173c 2186 a33c
000002e0: 5771 843d ea0e 7bbd e701 913d 06fc 32bc
000002f0: 14ef 9f3d ef08 12bd e95b 643d 861b 6abd
00000300: ddeb 15bd c52f 6b3d d059 8ebd 8fcc 973c
00000310: 899c b63d d519 803c 5a5a b1bc ea0e 62bd
00000320: 2d6d 55bd 828e 15bd 71a0 5d3c caf9 78bd
00000330: 2168 5d3d fb66 273d e617 97bd e47e 9cbd
00000340: b325 8aba 075a e2bb c48e b8bd 7722 3abd
00000350: 6a20 21bd c918 3c3c 8d2f 08bc c610 a93b
00000360: 7be9 663d 969f 85bd d5ea f0bc 5054 24bc
00000370: 8797 5ebb 773e d9bc 4758 243c 31f5 963d
00000380: 2aca 11bd d696 1d3d 515b 3bbb c1b3 b83d
00000390: 95b8 923d ed50 f13c 55b7 c13c 980c abbb
000003a0: 1805 983d 3cdb dfbc b5cd 18ba 15cb 48bd
000003b0: a213 4cbc d9ee a63d 0639 753d 3fd6 8c3b
000003c0: 1813 663c 1634 8dbd 32c4 fe3c 0b5d 363d
000003d0: 9bcb 91bd 6cb2 383d 9f5b 6dbd ce2e a33d
000003e0: 1ea1 393c 54a9 49bd fc75 ad3d aca3 deba
000003f0: 0d1c 6bbd cf4a 38bd b6fb 17bd 0214 a4bc
