outputs/seed42_detector.pth (torch, 406667 bytes, 10 tensors)

_rnn.weight_ih_l0 f4 [384, 1]
0	0x3dc8f0a1	0.09811521
1	0x3ca7c6c6	0.020480525
2	0xbd9da270	-0.07696998
3	0xbd720ec4	-0.059096113
4	0x3c872ee2	0.016501848
5	0xbdab73f2	-0.08371724
6	0x3d713d5f	0.05889642
7	0x3c3b74e6	0.011441445
8	0xbd8726b5	-0.0659918
9	0x3d4d1890	0.050072253
10	0x3cafad61	0.021444978
11	0xbd3451e5	-0.044023413
12	0x3d099c21	0.03359616
13	0xbd9b5cad	-0.07586036
14	0xbcd9e123	-0.026596611
15	0xbc8c50d3	-0.017128384
16	0x3d42687a	0.047462918
17	0xbd13ff7a	-0.036132313
18	0x3d91a92b	0.07112344
19	0x3cb0dad3	0.021588719
20	0x3ca6ca54	0.02036015
21	0xbd044646	-0.03229358
22	0xbdbdb4b2	-0.092629805
23	0xbd514306	-0.05108931
24	0x3cc1d685	0.023661861
25	0xbdb4e2d3	-0.08832326
26	0x3b664a8a	0.0035139644
27	0xbd181381	-0.037127975
28	0xbdd12a99	-0.10213203
29	0x3da499f6	0.08037178
30	0x3de623ef	0.112373225
31	0xbd200679	-0.039068673
32	0xbd6d6d29	-0.05796543
33	0x3c7e55f2	0.015523421
34	0xbd959fc6	-0.07305865
35	0xbd7da554	-0.061925247
36	0xbd2bb25c	-0.041918144
37	0x3dd751f5	0.10513679
38	0x3d84ff1c	0.06493971
39	0xbd2354d0	-0.039875805
40	0x3c1282e5	0.0089423405
41	0xbaed6f38	-0.0018114811
42	0x3c577672	0.013150798
43	0x3d4f388e	0.050591044
44	0x3c1a3f30	0.009414479
45	0x3dc4fadd	0.09618161
46	0x3c2c44ea	0.010514477
47	0xbe0a4b1a	-0.13505211
48	0x3c841e26	0.016127657
49	0x3d22ddff	0.039762493
50	0xbce6ef23	-0.028190201
51	0x3db9a5af	0.09064805
52	0x3d1dfb9c	0.03857003
53	0x3c3d8734	0.0115678795
54	0x3dee8d15	0.11648003
55	0x3d581ec1	0.052763704
56	0xbc71f817	-0.014768622
57	0x3da0fed6	0.07861106
58	0x3cf7be52	0.030242119
59	0xbc543aab	-0.012953441
60	0xbb772814	-0.0037713097
61	0xbc0b3d7e	-0.008498548
62	0xbced145b	-0.02894037
63	0xbd47ecd8	-0.048809856
64	0x3cf367ad	0.029712522
65	0xbc218f33	-0.0098608015
66	0x3d6b3f38	0.057433337
67	0x3d436883	0.047707092
68	0xbdbbe0d3	-0.09173741
69	0xbc8cbcd7	-0.01717989
70	0xbd409bfd	-0.047023762
71	0x3c78b0b6	0.01517885
72	0x3d66314c	0.056199357
73	0x3caf4022	0.021392886
74	0xbc74c9d1	-0.014940695
75	0x3d587d55	0.0528539
76	0x3ccfbd3e	0.025358792
77	0x3d7d1317	0.061785784
78	0xbcd11282	-0.02552152
79	0xbc9404e9	-0.018068748
80	0x3d8c8256	0.06860797
81	0x3c0b41fb	0.008499618
82	0x3d80389e	0.06260799
83	0xbcf66584	-0.030077703
84	0xbbdccc0c	-0.0067381915
85	0x3d8ab9bf	0.067737095
86	0x3d06d817	0.032920923
87	0xbd8d2d38	-0.068933904
88	0xbd003158	-0.031297058
89	0xbd8ebc7e	-0.06969546
90	0x3b84007c	0.004028378
91	0x3d83f947	0.0644403
92	0x3d4b1af5	0.049586255
93	0xbd3237f0	-0.043510377
94	0xbd92503c	-0.0714421
95	0x3d6461f7	0.05575749
96	0x3da55140	0.08072138
97	0xbd36ac0b	-0.044597667
98	0xbd1764e4	-0.03696145
99	0xbd0e8eb7	-0.034804072
100	0xbd8a8a4e	-0.06764661
101	0xbe156fe8	-0.1459347
102	0xbd022929	-0.031777535
103	0xbd58698d	-0.052835036
104	0x3cb56d47	0.022146834
105	0xbaea4e80	-0.0017876178
106	0xbb97cc27	-0.004632491
107	0x3d2d0d80	0.042249203
108	0xbd7ca598	-0.06168136
109	0xbc10fb57	-0.008848987
110	0x3c933392	0.017968927
111	0x3d72fe9e	0.059324853
112	0x3becdc69	0.0072284234
113	0x3c87fa2e	0.016598787
114	0xbbecb46a	-0.0072236555
115	0x3dcffff7	0.10156243
116	0x3d030248	0.031984597
117	0xbd15ec3a	-0.036602236
118	0xbdc2e979	-0.095171876
119	0xbd979b33	-0.07402649
120	0x3cb2987e	0.02180123
121	0xbcadef34	-0.021232225
122	0xbd919f3e	-0.07110451
123	0x3c6f1bc1	0.014594019
124	0x3bd45f21	0.006481067
125	0x3cbe91d1	0.02326289
126	0x3e032d90	0.1281035
127	0x3bcf75b3	0.0063311695
128	0xbd6ead26	-0.058270596
129	0xbe016579	-0.12636365
130	0xbd2007da	-0.039069988
131	0x3e065a3a	0.13120356
132	0xbd56f727	-0.052481797
133	0x3d2139f1	0.039361898
134	0xbdc24bdf	-0.094871275
135	0x3c6545fa	0.0139937345
136	0x3d30f26d	0.043199945
137	0xbdbdd5b5	-0.09269277
138	0x3dc5ccf4	0.09658232
139	0xbe051863	-0.12997584
140	0x3c00f359	0.007870519
141	0xbde6ae42	-0.11263706
142	0x3e37def8	0.1795615
143	0xbd6fa496	-0.05850657
144	0xbdaccfaa	-0.08438046
145	0xbdc0031f	-0.09375595
146	0xbd666804	-0.05625154
147	0x3ceaa476	0.028642874
148	0xbcf86812	-0.030323062
149	0xbd07fdd8	-0.03320107
150	0xbdd5534d	-0.10416279
151	0x3c5015ee	0.012700541
152	0x3d1f952a	0.038960613
153	0xbcf0d191	-0.029396804
154	0xbdb8cd7c	-0.09023568
155	0xbd594139	-0.053040717
156	0xbd9fdbbd	-0.078055836
157	0x3d29cc6d	0.04145472
158	0xbdedab24	-0.11604908
159	0xbde7ee4e	-0.1132475
160	0xbc7fae0a	-0.015605459
161	0x3dd331d4	0.10312238
162	0xbaef1b2f	-0.0018242354
163	0xbc976fd0	-0.018485934
164	0xbe641c47	-0.22276412
165	0x3d0e9b76	0.034816228
166	0xbc682ac2	-0.0141703505
167	0x3b89f293	0.0042098253
168	0x3b92e207	0.004482511
169	0xbe559add	-0.20859857
170	0xbd8904a0	-0.06690335
171	0xbe0d3754	-0.13790637
172	0xbd24ec65	-0.040264506
173	0xbc49f9d3	-0.012327629
174	0xbdf1e9cb	-0.118121706
175	0xbd78ad9b	-0.060712438
176	0xbde182f0	-0.110113025
177	0xbc57a2ac	-0.013161343
178	0xbd687a5c	-0.056757316
179	0x3c437a72	0.011931049
180	0x3d8ea674	0.06965342
181	0x3d2367f3	0.039894056
182	0x3e3e715f	0.18597935
183	0xbdf4f838	-0.119614065
184	0xbdbf7577	-0.093485765
185	0x3e209de8	0.15685236
186	0xbd8419db	-0.06450244
187	0x3ddf2d98	0.10897368
188	0xbdd07c16	-0.101799175
189	0x3da1c2b0	0.07898462
190	0xbd467b4c	-0.04845743
191	0xbd3fab5b	-0.046794277
192	0xba98efe3	-0.0011668172
193	0x3e0a1903	0.13486104
194	0x3e99d182	0.30042654
195	0xbd0f47ca	-0.034980573
196	0xbd2d1e46	-0.0422652
197	0xbd9673ce	-0.07346307
198	0xbe8059e0	-0.2506857
199	0xbd97595d	-0.073900916
200	0x3ce77f11	0.028258832
201	0xbbad25f2	-0.0052840644
202	0xbb8e6401	-0.0043454175
203	0x3da39a79	0.07988448
204	0xbe96bf17	-0.29442665
205	0xbd180140	-0.037110567
206	0xbd9dae35	-0.07699243
207	0x3e101a9d	0.14072652
208	0x3de1cc3e	0.11025284
209	0x3e341ae7	0.17588387
210	0xbdacd156	-0.08438365
211	0xbd457032	-0.0482027
212	0xbd001dde	-0.031278484
213	0x3d95b4dd	0.073098876
214	0xbdb00ee9	-0.08596594
215	0xbe0f928a	-0.14020744
216	0xbdac218e	-0.084048375
217	0x3d952b6e	0.07283674
218	0xbe287b18	-0.16453207
219	0xbce7964a	-0.028269906
220	0xbd768949	-0.06018952
221	0xbcc89a0d	-0.02448752
222	0xbd5d78c2	-0.05407024
223	0xbc812299	-0.015763568
224	0xbce7c5b7	-0.02829252
225	0x3d5f6d62	0.054547675
226	0xbe5a9324	-0.21345192
227	0xbd00a31d	-0.031405557
228	0xbe3e8dd8	-0.18608797
229	0xbd9972d4	-0.07492605
230	0x3ca3f7dd	0.020015651
231	0x3d7ea6d8	0.062170833
232	0x3bd375c0	0.006453246
233	0xbe4b5886	-0.19857988
234	0x3d4f4689	0.050604377
235	0xbdaecc28	-0.085350335
236	0xbc37fc13	-0.011229533
237	0x3e932151	0.28736356
238	0x3c81bae7	0.015836192
239	0xbd4e6356	-0.050387703
240	0x3ca0efe6	0.019645642
241	0x3d1fb0ab	0.038986843
242	0x3cc0b55b	0.023523977
243	0xbd99f88f	-0.07518112
244	0xbc0901db	-0.008362259
245	0xbd433b19	-0.04766378
246	0x3dd69d23	0.1047919
247	0xbe6c18ec	-0.23056382
248	0x3dabaa7b	0.08382126
249	0xbe70e77d	-0.23525806
250	0xbdb2206c	-0.0869759
251	0xbde467d4	-0.11152616
252	0xbd387e8b	-0.045042556
253	0xbd9dfc08	-0.07714087
254	0xbd9b07e3	-0.07569864
255	0x3c13ab7b	0.009013052

_rnn.weight_hh_l0 f4 [384, 128]
0	0xbcfb87b5	-0.030704359
1	0x3d7a8660	0.061163306
2	0x3d592d54	0.053021744
3	0x3b431e63	0.002977275
4	0xbd3c78b2	-0.04601354
5	0x3c50d1af	0.012745305
6	0x3d276ec6	0.040877126
7	0x3bd81c17	0.0065951454
8	0x3c985a7e	0.018597838
9	0x3d60f2ff	0.05491924
10	0xbd82a0cf	-0.06378328
11	0xbc5060c5	-0.012718384
12	0xbd868e03	-0.06570055
13	0x3c1b00b1	0.009460614
14	0xbc7dc4f5	-0.015488853
15	0x3d0155d0	0.031575978
16	0xbd43f69a	-0.0478426
17	0xbc991e96	-0.018691342
18	0xbc62d549	-0.013844796
19	0x3dae584a	0.085129336
20	0x3d047494	0.03233774
21	0x3c6ebd7f	0.014571547
22	0xbd981129	-0.07425148
23	0xbb18ee32	-0.0023335335
24	0xbd37febf	-0.04492068
25	0xbd726149	-0.05917481
26	0xbd67c9d9	-0.05658898
27	0x3d9fe082	0.07806493
28	0x3d5f6322	0.0545379
29	0x3cff2789	0.031146782
30	0xb9bc42fa	-0.00035908056
31	0xbda96051	-0.08270324
32	0x3d0c0fbd	0.034194697
33	0x3d8800d4	0.06640783
34	0x3c47a02c	0.012184184
35	0x3d2a967a	0.041647412
36	0xbce069f1	-0.027394267
37	0x3d8eb3a4	0.069678575
38	0x3d08061d	0.033208955
39	0x3c9812f3	0.018563723
40	0x3c7dfba0	0.015501887
41	0xbd6fdc79	-0.05855987
42	0x3d908334	0.07056275
43	0x3c764921	0.015032084
44	0xbd1897d7	-0.03725418
45	0x3d83861b	0.06422063
46	0x3d3d6b48	0.04624489
47	0x3da3579b	0.07975694
48	0x3d62a4f2	0.055333085
49	0xbd0aad9b	-0.03385697
50	0xbd15d8f7	-0.036583867
51	0x3a40040e	0.0007324823
52	0x3c94a72f	0.018146126
53	0xbcf44f63	-0.02982301
54	0x3da5eb70	0.08101547
55	0xbd4e5e4e	-0.050382905
56	0xbcdf9fd8	-0.0272979
57	0x3d570826	0.052498005
58	0x3d867e04	0.06567004
59	0xbcc150eb	-0.023598155
60	0x3d4c69b3	0.04990549
61	0x3d8d5c06	0.06902318
62	0x3d548c0b	0.051891368
63	0x3d3f3d64	0.046689406
64	0xbcca99fa	-0.024731625
65	0x3c8aff86	0.016967546
66	0x3c110c8b	0.008853088
67	0xbda02e4c	-0.078213304
68	0xbd138f2c	-0.03602521
69	0x3d030d9d	0.031995405
70	0xbcbca89e	-0.023029622
71	0x3c27dfd1	0.010246233
72	0xbbc96446	-0.0061459867
73	0xbd0e8532	-0.034794994
74	0x3d3d8efe	0.046278946
75	0x3d632dc7	0.05546358
76	0x3ce06b1c	0.027394824
77	0x3c7227d6	0.014780005
78	0x3d1819cb	0.037133973
79	0xbd0a213c	-0.0337231
80	0x3d260b60	0.04053819
81	0xbbd9ce15	-0.0066468813
82	0x3db1a5b4	0.086741835
83	0x3d4bcae5	0.049754042
84	0xbda0b319	-0.0784666
85	0xbd992fc1	-0.074798115
86	0xbc8906ca	-0.01672687
87	0xbd5b81de	-0.053590648
88	0x3c9b9633	0.018992519
89	0x3cdd873c	0.027042024
90	0x3da798f2	0.08183469
91	0xbd2f0960	-0.04273355
92	0x3d96df07	0.07366758
93	0xbda41500	-0.08011818
94	0xbc9a532a	-0.018838484
95	0xbd1596cb	-0.03652076
96	0xbc2fa354	-0.010720093
97	0x3c808cab	0.015692076
98	0xbc6645fd	-0.014054772
99	0x3b0de7d6	0.0021653078
100	0xbda3a3ca	-0.07990225
101	0xbd4392e5	-0.04774751
102	0xbda9c5f8	-0.08289713
103	0x3c131bea	0.008978823
104	0xbd4d2eee	-0.050093584
105	0xbd39e198	-0.04538116
106	0xbd6b0b0a	-0.057383575
107	0x3daa61e2	0.08319451
108	0x3d102b76	0.035197698
109	0xbd3984f1	-0.0452928
110	0xbd1612cd	-0.036639024
111	0x3da959b8	0.082690656
112	0x3d6382a8	0.055544525
113	0x3dabeb93	0.083945416
114	0x3b6e90c4	0.0036402205
115	0x3d9640b0	0.07336557
116	0x3d94b15d	0.07260392
117	0x3cc1b1a7	0.023644282
118	0x3da887a8	0.082289994
119	0x3dadfbe9	0.08495314
120	0x3d4c7e1e	0.049924962
121	0xbd523626	-0.05132117
122	0xbda411cc	-0.08011207
123	0x3d2eb38e	0.042651705
124	0xbd61731a	-0.05504141
125	0x3d45edca	0.048322476
126	0x3cb0b058	0.021568462
127	0x3d750857	0.059822407
128	0x3cc2f3e9	0.023797946
129	0xbc5b52e0	-0.013386458
130	0xbc0ae971	-0.008478508
131	0xbd3b0a35	-0.04566403
132	0x3d9c39d5	0.07628218
133	0xbcd96e50	-0.026541859
134	0xbcc134fc	-0.023584835
135	0xbc1721d7	-0.009224377
136	0x3d2362e8	0.039889246
137	0x3d0766d3	0.033057045
138	0xbcf0d5ef	-0.029398886
139	0x3dac8f79	0.08425803
140	0xbd627b78	-0.05529353
141	0x3bf4ffcf	0.007476784
142	0xbd3b630d	-0.04574876
143	0xbda27aa6	-0.079335496
144	0xbd9a38ac	-0.075303406
145	0x3d510156	0.051026665
146	0xbd261a66	-0.04055252
147	0x3cc37b49	0.023862498
148	0xbd3aef91	-0.045638625
149	0x3d717650	0.058950722
150	0x3cbc49db	0.022984436
151	0xbd43f0e6	-0.04783716
152	0x3c9b89e7	0.018986655
153	0xbc346411	-0.011010186
154	0x3c9e543a	0.019327272
155	0x3d713100	0.05888462
156	0x3a739828	0.00092923874
157	0x3b642691	0.0034813026
158	0xbc7d6373	-0.015465605
159	0xbd0b02c5	-0.033938188
160	0x3bb45f58	0.00550453
161	0xbc9a9bd8	-0.01887314
162	0x3d02e490	0.031956255
163	0x3d73db7e	0.059535496
164	0x3d9ccdd4	0.07656446
165	0x3c1c79d5	0.009550531
166	0x3cb43b89	0.022001045
167	0x3d936cb7	0.0719847
168	0xbd53f70f	-0.051749285
169	0xbd0305f6	-0.031988107
170	0x3c2bfa20	0.010496646
171	0x3c2980ed	0.01034568
172	0x3d1004e7	0.035160925
173	0x3c042f63	0.0080679385
174	0xbbbf6b5c	-0.0058416557
175	0xbd8aff14	-0.067869335
176	0x3da6c595	0.081431545
177	0xbc9e20db	-0.019302776
178	0x3acc754f	0.0015598926
179	0x3d9cc8fa	0.07655521
180	0x3d9c6134	0.076357275
181	0xb93444c5	-0.00017191756
182	0x3d913ccc	0.07091674
183	0xbd4cb5ee	-0.04997819
184	0x3ce58366	0.028016757
185	0xbd25c5db	-0.040471893
186	0x3da28925	0.079363145
187	0x3d1aae09	0.03776363
188	0x3c55af8b	0.013042341
189	0x3c43b991	0.011946098
190	0x3da159bc	0.078784436
191	0x3da3e438	0.08002514
192	0x3c8e9398	0.017404363
193	0xbc2d4513	-0.010575551
194	0xbd888382	-0.06665708
195	0xbdabc01d	-0.08386252
196	0x3c9e8755	0.01935164
197	0xbd0cb758	-0.034354538
198	0x3c872f9e	0.016502198
199	0x3d069abc	0.03286241
200	0xbd2d1ff0	-0.042266786
201	0xbb243161	-0.0025053846
202	0x3d4996bb	0.049216013
203	0x3d5e5b92	0.054286547
204	0x3d3b5717	0.045737352
205	0xbccdfa83	-0.025143867
206	0x3d1758ad	0.036949802
207	0xbcce73d7	-0.025201721
208	0x3d7fb09c	0.062424287
209	0x3d6ab7fa	0.05730436
210	0x3d99110d	0.07473955
211	0xbd94e15a	-0.07269545
212	0x3c4d2e89	0.012523302
213	0x3d339979	0.043847535
214	0xbd3c9c48	-0.04604748
215	0xbd4a0cf3	-0.049328756
216	0xbd878914	-0.066179425
217	0x3d7c7641	0.061636213
218	0x3d6736f6	0.0564489
219	0xbd2f87b7	-0.042854037
220	0xbcf0e518	-0.029406115
221	0x3c23fde7	0.0100092655
222	0x3d93995b	0.072069846
223	0x3d203947	0.039117124
224	0x3d193836	0.037407123
225	0x3d38058f	0.044927176
226	0x3d721703	0.059103977
227	0x3d579cf7	0.052639928
228	0x3d8a4db0	0.06753099
229	0x3ca3659c	0.019945912
230	0x3d6f92f7	0.058489766
231	0xbd83f62d	-0.06443439
232	0x3b820d59	0.0039688763
233	0x3d7cfc28	0.061763912
234	0xbc69297e	-0.014231084
235	0x3ca0c6e8	0.019626096
236	0xbce1da34	-0.027569868
237	0x3c9ddbda	0.019269872
238	0x3c793aa9	0.01521174
239	0x3d30b848	0.043144494
240	0x3d988761	0.074476965
241	0x3d81b22c	0.06332812
242	0xbd629409	-0.05531696
243	0x3d478802	0.04871369
244	0x3d82658c	0.06367025
245	0xbd4416e0	-0.047873378
246	0x3ab961ce	0.0014143528
247	0xbda97fed	-0.08276353
248	0xbda1f96f	-0.07908904
249	0x3c1f661c	0.009728935
250	0x3c972bb8	0.018453464
251	0xbda1fa65	-0.07909087
252	0xbd6447bc	-0.055732474
253	0xbd865320	-0.065588236
254	0x3ac9fe53	0.0015410878
255	0x3cd545bf	0.026034234

_rnn.bias_ih_l0 f4 [384]
0	0xbd4c8892	-0.04993493
1	0x3c7614ac	0.015019577
2	0xbd8c5539	-0.068521924
3	0xbd7f571f	-0.062338945
4	0x3db3eeba	0.08785768
5	0x3cdc35f6	0.0268812
6	0xbcb57b52	-0.02215353
7	0x3d1506bf	0.036383387
8	0xbc30a25b	-0.010780896
9	0x3d7baf64	0.061446562
10	0xbd9ec9e5	-0.07753352
11	0x3c6affaf	0.014343186
12	0x3ca5f2a4	0.020257302
13	0xbd6346a6	-0.055487297
14	0xbd29ebf2	-0.04148478
15	0xbcce5429	-0.025186615
16	0x3d786f91	0.060653273
17	0xbd0bb17a	-0.0341048
18	0x3d1fe012	0.03903205
19	0x3d142359	0.036166523
20	0xbc9d2ff6	-0.019187909
21	0xbd3cac7e	-0.04606294
22	0x3d8f055e	0.069834456
23	0xbd69735b	-0.056994777
24	0xbd3ab068	-0.04557839
25	0x3cc27399	0.023736762
26	0xbd0b4fbd	-0.03401159
27	0x3d1081b7	0.035279956
28	0xbdab58bf	-0.08366536
29	0xbc82b28a	-0.015954275
30	0x3c901ee9	0.017592864
31	0x3bfdab19	0.0077413437
32	0x3a4f2e24	0.0007903299
33	0xbd46d81e	-0.04854595
34	0xbcf97292	-0.03045014
35	0x3cd4bcc8	0.025968924
36	0xbd8e86c0	-0.06959295
37	0xbbc2ddd8	-0.005946856
38	0xbc9fb162	-0.019493762
39	0xbd5229ad	-0.051309276
40	0x3d7aa859	0.061195705
41	0x3c9eba75	0.019376019
42	0x3b4c68b6	0.0031190342
43	0xbcc04eb5	-0.02347503
44	0x3d911d81	0.070857055
45	0xbcd6eacb	-0.026235005
46	0x3d911e8f	0.07085907
47	0x3d38f6cb	0.045157235
48	0x3d844b47	0.064596705
49	0x3d4178ce	0.04723435
50	0x3c238b0e	0.009981884
51	0x3d0747b4	0.033027366
52	0x3cd66e20	0.026175559
53	0x3d37f21a	0.04490862
54	0x3dad0326	0.08447866
55	0xbdcc7914	-0.09984031
56	0x3d8915f4	0.0669364
57	0xbd65ee85	-0.056135673
58	0xbd8b5d1a	-0.06804867
59	0x3d614ab6	0.05500289
60	0x3d06c6ac	0.032904312
61	0x3cbf51e1	0.023354473
62	0xbcce6c02	-0.025197987
63	0xbd93debd	-0.07220218
64	0x3ca3dcfb	0.020002833
65	0x3ce8d60e	0.028422382
66	0x3bf34925	0.007424491
67	0xbd5789bc	-0.052621588
68	0xbb9774f1	-0.004622095
69	0xbc6406f9	-0.013917678
70	0x3d941cb2	0.07232036
71	0xbcf8add7	-0.03035633
72	0x3c9adb63	0.01890344
73	0x3d85ee90	0.06539643
74	0x3d23d83c	0.04000114
75	0xbd98082f	-0.07423436
76	0x3b6c9e64	0.003610515
77	0xbdaf9a11	-0.08574308
78	0x3bab2877	0.0052233296
79	0xbc54665a	-0.012963856
80	0x3d9bb7c7	0.07603412
81	0x3d937dab	0.07201704
82	0xbd83f269	-0.064427204
83	0xbc104815	-0.008806248
84	0xbb1a3e28	-0.0023535583
85	0x3ca32a00	0.019917488
86	0x3cc29205	0.023751268
87	0xbca0df50	-0.019637734
88	0xbda9d995	-0.082934536
89	0xbd958384	-0.07300475
90	0xbc8a1836	-0.016857248
91	0xbd6f86b7	-0.058478083
92	0x3d77464c	0.060369775
93	0xbd8164b4	-0.06318036
94	0xbd9ff042	-0.078094974
95	0x3d12fea7	0.035887387
96	0xbc00e8c9	-0.007868
97	0xbca5a14f	-0.02021852
98	0x3d89c07d	0.06726167
99	0xbd8483e4	-0.06470469
100	0x3c384cb9	0.011248761
101	0xbd8d3c9a	-0.068963245
102	0x3d8a02c0	0.06738806
103	0x3d5c4043	0.053772222
104	0xbd326802	-0.04355622
105	0xbd020c49	-0.031749997
106	0x3d1a7fb1	0.037719432
107	0xbd356d8b	-0.04429392
108	0xbc71c7e1	-0.0147571275
109	0x3d78af9f	0.06071436
110	0x3c3778ec	0.011198264
111	0x3d8dee6e	0.069302425
112	0xbd80a019	-0.06280536
113	0xbd9d487c	-0.07679841
114	0x3d1314f2	0.035908647
115	0x3d54c7d6	0.05194839
116	0x3c830907	0.015995516
117	0x3d5c1e49	0.05373982
118	0x3d95720a	0.07297142
119	0x3d17c462	0.03705252
120	0x3d0f77d8	0.0350264
121	0x3da6f507	0.08152204
122	0xbd1d37a7	-0.038383152
123	0xbd944368	-0.07239419
124	0x3d0cfc69	0.034420405
125	0x3d07415b	0.033021312
126	0x3dc2c000	0.09509277
127	0x3cce2387	0.025163425
128	0xbd7aa79e	-0.06119501
129	0xbd3def0d	-0.046370555
130	0x3cb0e921	0.02159554
131	0xbd15dfbc	-0.036590323
132	0x3daea6b7	0.08527892
133	0x3c90ee9e	0.017691907
134	0xbd9d1a56	-0.07671039
135	0xbc254a40	-0.010088503
136	0xbca5b684	-0.020228632
137	0x3d9ae455	0.07563082
138	0x3d456357	0.04819044
139	0xbccfecbd	-0.02538144
140	0x3c67e8ae	0.014154596
141	0xbd36a10c	-0.04458718
142	0x3dae44fa	0.0850925
143	0xbcdd4d65	-0.027014444
144	0x3da22d16	0.07918756
145	0x3d6595aa	0.056050934
146	0x3c974e1a	0.018469859
147	0xbcd725f7	-0.02626322
148	0x3c4725dd	0.012155023
149	0xbd6102f8	-0.05493447
150	0xbcbe9b79	-0.023267495
151	0xbd52094c	-0.051278397
152	0xbc58689b	-0.013208534
153	0xbd280828	-0.041023403
154	0xbba3f347	-0.005003366
155	0xb9f21a29	-0.00046177328
156	0x3c8e9b5e	0.01740807
157	0x3d1ed8fd	0.038781155
158	0x3dd08424	0.10181454
159	0x3d325c7c	0.04354523
160	0x3d9b5005	0.07583622
161	0xbd21ea7e	-0.03953027
162	0x3d449f5a	0.048003532
163	0xbd9d31c6	-0.07675509
164	0x3d5f63de	0.0545386
165	0xbd592b4e	-0.053019814
166	0x3d022cfb	0.031781178
167	0x3da5e9a8	0.08101207
168	0xbd7d1381	-0.06178618
169	0x3d9b610d	0.0758687
170	0xbd5b1093	-0.053482603
171	0x3d029504	0.031880394
172	0x3dab9192	0.08377375
173	0xbc8b4b45	-0.017003665
174	0x3daacd1a	0.08339901
175	0x3b831878	0.0040007196
176	0x3bd47964	0.0064841975
177	0xbc8cf268	-0.017205432
178	0xbd64933c	-0.055804476
179	0x3d1e2d94	0.038617685
180	0x3cd68174	0.026184775
181	0xbcc80850	-0.024418026
182	0xbce3c5cb	-0.027804276
183	0xbb6349b6	-0.0034681386
184	0xbc0ad4c5	-0.00847358
185	0xbd6be3df	-0.05759036
186	0x3d305139	0.04304621
187	0xbd6d61e8	-0.0579547
188	0xbd8b6c9c	-0.06807825
189	0xbc7810f1	-0.015140758
190	0xbd385ab5	-0.04500838
191	0x3d7e2ca2	0.062054284
192	0xbda11d04	-0.078668624
193	0x3d43c298	0.047793
194	0x3d83f3ca	0.064429834
195	0xbd6b6480	-0.05746889
196	0x3db17105	0.08664135
197	0x3d43ee04	0.04783441
198	0x3d8baa1c	0.06819555
199	0x3da27a2b	0.07933458
200	0xbd70a80b	-0.05875401
201	0xbc843636	-0.016139131
202	0x3d358e92	0.04432542
203	0x3c4f186a	0.012640098
204	0x3d6f482a	0.05841843
205	0x3d841260	0.06448817
206	0xbd9f9863	-0.07792737
207	0x3d6756a7	0.056479122
208	0x3d7d23b4	0.061801627
209	0x3dbbb707	0.09165769
210	0xbcf526a1	-0.029925646
211	0x3cc31414	0.023813285
212	0xbd0a6c60	-0.03379476
213	0xbd1452ea	-0.036211886
214	0xbcf603fa	-0.030031193
215	0x3d9cabbb	0.076499425
216	0x3cd74c75	0.026281575
217	0x3d764153	0.06012089
218	0xbc7d1594	-0.015447039
219	0x3d3789db	0.044809204
220	0xbcf25bbf	-0.029584764
221	0xbd8a08de	-0.067399725
222	0xbcc262ce	-0.023728754
223	0x3da950b7	0.08267348
224	0xbd46c7b1	-0.048530284
225	0xbcff6af9	-0.031178938
226	0x3d62bc87	0.055355575
227	0x3c863280	0.016381502
228	0x3c61a7c9	0.013772913
229	0x3d3942e2	0.0452298
230	0x3d35861c	0.04431735
231	0x3d0f99ab	0.03505866
232	0x3c95bdd2	0.01827899
233	0x3bd2a535	0.0064283856
234	0x3ba4c9e1	0.0050289487
235	0x3d83034d	0.06397114
236	0xbcb2e2af	-0.021836607
237	0x3d6363d1	0.055515114
238	0xbb21ab06	-0.0024668588
239	0x3da90207	0.0825234
240	0x3b6f90d6	0.0036554835
241	0x3d93fdb0	0.072261214
242	0x3d2b64b3	0.04184408
243	0xbd1fc7b6	-0.03900882
244	0x3d719f3a	0.05898974
245	0x3c3573f4	0.011075009
246	0xbcdce8e8	-0.026966527
247	0xbcc8c0fc	-0.024506085
248	0x3d433a02	0.047662742
249	0xbcf3a961	-0.029743852
250	0xbd86fc44	-0.065910846
251	0xb8476009	-4.7534737e-05
252	0xbd146c32	-0.036235996
253	0xbd351976	-0.044213735
254	0x3c870d72	0.016485903
255	0x3cfccb35	0.030858615

_rnn.bias_hh_l0 f4 [384]
0	0x3c4ddc7f	0.012564777
1	0xbd9c79be	-0.07640408
2	0x3c8960cb	0.016769787
3	0xbce2eaac	-0.02769979
4	0xbd85c750	-0.065321565
5	0xbd6ae976	-0.057351552
6	0xbc4c8c33	-0.012484598
7	0xbd3c6310	-0.04599291
8	0xbd23f6db	-0.04003034
9	0x3d27d17e	0.04097127
10	0x3cc8ae74	0.024497248
11	0x3d51f758	0.051261276
12	0x3cad3a6c	0.021146022
13	0xbcda57d2	-0.026653204
14	0xbd8ba203	-0.06818011
15	0x3c2bd945	0.010488813
16	0xbd157f4d	-0.036498357
17	0x3c84b68f	0.016200332
18	0x3da3ac1c	0.07991812
19	0x3c4728aa	0.012155691
20	0xbd88710e	-0.066621885
21	0xbd9cd35e	-0.076575026
22	0x3d30059e	0.042974107
23	0xbd3eac0f	-0.046550807
24	0xbc1c817b	-0.009552355
25	0xbc88d8e3	-0.016704982
26	0x3da1c51c	0.07898924
27	0x3d77bd0a	0.060483016
28	0x3d5c11e1	0.05372799
29	0x3abd99ce	0.0014465393
30	0x3d1e1767	0.038596537
31	0xbc9f5fe1	-0.019454898
32	0x3c80dc16	0.015729945
33	0xbd83ef2d	-0.064421035
34	0xbc2f4b9a	-0.010699177
35	0xbbef9d52	-0.007312455
36	0x3da6f97b	0.081530534
37	0x3d9e644c	0.07733974
38	0x3d857c58	0.06517857
39	0x3d1bde99	0.038054083
40	0xbb52adef	-0.003214713
41	0x39df0e4f	0.00042544535
42	0xbcc2cc65	-0.023779104
43	0x3da30412	0.07959761
44	0xbcd0e2f5	-0.025498847
45	0x3da7a53b	0.08185812
46	0xbd34d0c5	-0.04414441
47	0xba034cd1	-0.00050087
48	0x3d7b9e9d	0.061430562
49	0x3c9a7484	0.018854387
50	0x3d3187ad	0.04334228
51	0x3cd3c8b6	0.025852542
52	0xbd9c7c14	-0.076408535
53	0xbcee9cbd	-0.029127473
54	0x3cdd7bc3	0.027036553
55	0xbdc9125c	-0.09817955
56	0xbd85a4b3	-0.065255545
57	0xbd1300e0	-0.035889506
58	0x3daae298	0.083440006
59	0xbd424103	-0.04742528
60	0xbd182140	-0.037141085
61	0xbd8726db	-0.06599208
62	0xbd2aecbf	-0.041729685
63	0x3daf01ec	0.085452884
64	0xbd031a73	-0.032007646
65	0x3ce625fe	0.028094288
66	0x3d705831	0.058677856
67	0xbd978f7f	-0.074004166
68	0xbd59df9d	-0.05319177
69	0x3ad22b93	0.0016034715
70	0x3ca6f772	0.020381663
71	0xbd6ccc9a	-0.05781231
72	0xbd8c5174	-0.068514735
73	0x3d683836	0.056694232
74	0x3d5c670a	0.053809203
75	0xbd4239b0	-0.047418296
76	0xbd6044e7	-0.05475321
77	0xbcf3c81a	-0.029758502
78	0x3d2c9354	0.04213269
79	0xbd9bb753	-0.07603326
80	0x3c325ac1	0.010885895
81	0x3daa4ec0	0.083158016
82	0xbca6b280	-0.020348787
83	0xbdb5e029	-0.08880646
84	0xbd9f0c0c	-0.0776597
85	0x3d9f4c8d	0.07778273
86	0x3cbfdde8	0.023421243
87	0x3d920f5e	0.07131837
88	0x3c9bf847	0.019039286
89	0xbd089fba	-0.033355452
90	0x3d64eb69	0.055888567
91	0x3d830196	0.06396787
92	0xbd8c979b	-0.06864854
93	0x3d39e952	0.045388527
94	0x3d230ad9	0.039805267
95	0xbcd91797	-0.026500506
96	0xbd524b8d	-0.051341582
97	0x3d392941	0.04520536
98	0xba391697	-0.0007060556
99	0xbd5e3bd8	-0.05425629
100	0x3d96db2c	0.073660225
101	0xba93f27a	-0.0011287474
102	0x3cecd26c	0.02890893
103	0x3d1faf66	0.038985632
104	0x3d81d2d2	0.06339039
105	0xbca145cc	-0.019686602
106	0xbcbbe330	-0.02293548
107	0x3d8ae98b	0.06782826
108	0x3c4e0e8c	0.01257671
109	0x3d90f562	0.07078053
110	0xbc3484a7	-0.011017955
111	0xbd8d0c7b	-0.06887146
112	0xbd9badbe	-0.07601498
113	0xbd908989	-0.07057483
114	0x3c7e0503	0.015504125
115	0x3d01a2e7	0.031649496
116	0xbc1a97bd	-0.009435591
117	0x3d9f3d7d	0.077754
118	0xbc27dab3	-0.010245013
119	0x3dc449a3	0.095843576
120	0xbd328149	-0.043580327
121	0xbc20375a	-0.009778822
122	0x3c9285a8	0.017885998
123	0xbce8e511	-0.02842954
124	0x3b295a92	0.0025841338
125	0xbd57d1af	-0.052690204
126	0xbd82c908	-0.06386
127	0xbd121f40	-0.035674334
128	0xbca7f5e5	-0.020502994
129	0x3d2c3580	0.04204321
130	0x3d9eead7	0.07759636
131	0x3ce2a18b	0.02766492
132	0x3d9d8753	0.07691827
133	0xbd785543	-0.060628187
134	0x3cc531da	0.024071623
135	0x3db6046a	0.08887561
136	0xbced6232	-0.028977487
137	0xbbbec876	-0.0058222366
138	0x3dbf8c94	0.09352985
139	0x3c168833	0.009187746
140	0x39a48aac	0.00031383836
141	0x3d6c294d	0.057656575
142	0xbd07d59c	-0.0331627
143	0x3d835b05	0.06413845
144	0x3c82de24	0.015975066
145	0x3dba1f6a	0.09088023
146	0x3d3a1885	0.04543354
147	0x3b9aa7cb	0.0047197095
148	0xbd6dc14b	-0.058045667
149	0x3db4321a	0.087986186
150	0xbd35bb88	-0.044368297
151	0x3c3e4e9a	0.01161542
152	0xbd3dc3d0	-0.04632932
153	0xbd91a939	-0.07112355
154	0xbaef9724	-0.0018279296
155	0xbd1638ac	-0.03667514
156	0x3d7ab219	0.061205003
157	0xbd89f273	-0.06735697
158	0x3d637e67	0.05554047
159	0x3d6d8469	0.057987604
160	0xbd787ffd	-0.060668934
161	0x3d62890e	0.055306487
162	0x3cb58d34	0.022162057
163	0xbd3014db	-0.04298864
164	0x3da9ba3d	0.08287475
165	0xbd811dce	-0.06304513
166	0xbb1b64a7	-0.0023711117
167	0xbd56d9a6	-0.05245366
168	0xbd948721	-0.07252336
169	0xbc9dc029	-0.019256668
170	0xbd0cd19d	-0.03437959
171	0x3d840613	0.06446471
172	0x3d00a10c	0.031403586
173	0xbd8c8c44	-0.06862691
174	0x3d284962	0.04108561
175	0xbb72b369	-0.0037033206
176	0xbd04b98e	-0.03240352
177	0xbcb2cd5f	-0.021826444
178	0x3c3623d1	0.011116938
179	0x3dc9b810	0.0984956
180	0xbd8633dd	-0.06552861
181	0x3cabb367	0.02095957
182	0xbd08ed42	-0.03342939
183	0xbd93bcea	-0.07213767
184	0x3d8f1b47	0.069876246
185	0xbccb9675	-0.024852017
186	0x3ae50f9f	0.0017475969
187	0xbd3c5877	-0.045982804
188	0x3c806c4f	0.015676646
189	0x3d7468b0	0.05967015
190	0xbd2a6c85	-0.0416074
191	0x3c55019c	0.013000872
192	0x3d2e2f7f	0.042525765
193	0x3cb3f026	0.021965098
194	0x3e1bcffc	0.15216058
195	0x3cf44e9f	0.029822646
196	0x39f1c5a9	0.0004611437
197	0x3cc3338f	0.023828296
198	0x3d8ee0cf	0.069764726
199	0xbd27cce0	-0.04096687
200	0x3d182692	0.03714616
201	0x3c4ba298	0.012428902
202	0x3d928911	0.071550496
203	0xbd97d790	-0.07414162
204	0x3dfc24bc	0.12311694
205	0xbcc1391c	-0.023586802
206	0x3d8ea9b7	0.06965964
207	0x3d1b8f1b	0.037978273
208	0x3cfab714	0.030604877
209	0x3d8e960b	0.06962212
210	0x3cdcddf8	0.026961312
211	0xbd9be27b	-0.07611557
212	0x3d1c9a2b	0.038232964
213	0x3dcbeb2b	0.09956964
214	0x3d0c6151	0.034272496
215	0xbd771482	-0.060322292
216	0xbc9b0d3d	-0.018927211
217	0x3ac0814e	0.0014686973
218	0x3ba8772d	0.00514116
219	0x3d9373fe	0.07199858
220	0x3bdd56a4	0.006754713
221	0xbb237d81	-0.0024946632
222	0x3d9f3d71	0.07775391
223	0x3bf0d487	0.007349554
224	0x3d7a7e97	0.06115588
225	0x3ca91508	0.020639911
226	0x3d4332f3	0.04765601
227	0xbd95704e	-0.07296811
228	0xbd3da780	-0.04630232
229	0x3da6bf7c	0.081419915
230	0x3d61a3e3	0.055087935
231	0xbd730a40	-0.059335947
232	0xbc9e97c8	-0.019359484
233	0x3b0cdda5	0.0021494415
234	0xbd89a2a9	-0.06720478
235	0x3d865972	0.06560029
236	0xbd728a23	-0.05921377
237	0x3d8e1fb0	0.06939638
238	0xbd1bc91d	-0.038033593
239	0xbd9c7fcc	-0.07641563
240	0xbd24f4b5	-0.040272433
241	0xbd6c31f3	-0.057664823
242	0x3daad81c	0.08342001
243	0x3d1186a5	0.035528798
244	0xbd5da478	-0.054111928
245	0x3d0fe88a	0.035133876
246	0x3d686184	0.056733623
247	0xbc0ab33a	-0.0084655825
248	0x3c98bc06	0.018644344
249	0x3dac7b3c	0.084219426
250	0x3d9ce310	0.07660496
251	0xbd97c625	-0.0741084
252	0xbca3276c	-0.019916259
253	0x3d2a6c2d	0.04160707
254	0x3d970c71	0.0737542
255	0x3d31ebc2	0.043437727

_rnn.weight_ih_l0_reverse f4 [384, 1]
0	0xbc484765	-0.012224053
1	0x3c072a48	0.008249827
2	0xbe170494	-0.1474784
3	0x3dd4efe9	0.10397322
4	0xbb466d53	-0.0030277565
5	0xbd9f511f	-0.077791445
6	0x3b2ee0e7	0.0026684345
7	0x3d9b0e13	0.07571044
8	0x3c9775f8	0.01848887
9	0xbdbdda9b	-0.09270211
10	0x3db18c45	0.086693324
11	0x3c5aa62e	0.013345284
12	0xbe2dff6b	-0.16991965
13	0xbd56ebb9	-0.052470896
14	0x3d341972	0.04396958
15	0xbcc447c8	-0.02396001
16	0x3dc4ee64	0.09615782
17	0xbed204b6	-0.4101922
18	0x3e676c91	0.22600009
19	0x3d7e85b8	0.062139243
20	0x3d1d0cea	0.038342394
21	0x3bbe6a9c	0.0058110487
22	0x3d7d4b7e	0.061839573
23	0x3c98949e	0.018625554
24	0x3d3b4431	0.04571933
25	0xbdf114ef	-0.11771571
26	0x3d90d7c3	0.07072403
27	0x3bd7177a	0.006564078
28	0xbd38b935	-0.045098502
29	0xbd32fd8c	-0.043698832
30	0xbd564fe2	-0.052322276
31	0xbd8934c7	-0.066995196
32	0xbd8ee6ac	-0.06977591
33	0x3db4eb10	0.08833897
34	0x3d2f22dc	0.042757854
35	0x3c9d1097	0.01917295
36	0xbdd90f7b	-0.10598656
37	0xbe835bf3	-0.2565609
38	0x3dad26cb	0.08454665
39	0x3d5143b9	0.051089976
40	0x3d7bceb4	0.061476424
41	0xbddc3386	-0.10752015
42	0xbcc62640	-0.02418816
43	0xbdfe8e65	-0.12429503
44	0x3e587139	0.21136941
45	0xbddcfb01	-0.10790063
46	0x3cf4af84	0.029868849
47	0xbe05c6b7	-0.13064085
48	0xbe661bfc	-0.22471613
49	0xbd01ded4	-0.031706646
50	0x3e0b8914	0.1362651
51	0x3def012a	0.11670144
52	0xbd9fe49d	-0.078072764
53	0x3d8c710f	0.06857502
54	0xbc858439	-0.0162984
55	0x3e8be462	0.2732268
56	0x3e1221e8	0.14270747
57	0x3dd3690f	0.10322773
58	0xbe2af0af	-0.16693376
59	0xbda563d4	-0.08075681
60	0x3d7dd332	0.06196899
61	0xbd555af5	-0.052088697
62	0xbda21153	-0.079134606
63	0xbdd036ef	-0.10166728
64	0xbe061165	-0.13092573
65	0x3e0aca83	0.13553815
66	0xbdbd7027	-0.09249907
67	0x3d4c7e8b	0.04992537
68	0xb9c3240d	-0.00037220158
69	0x3ddda809	0.10823066
70	0x3d2e17c7	0.042503145
71	0x3c198caf	0.0093719205
72	0xbc79a713	-0.0152375875
73	0xbd8f2087	-0.06988626
74	0xbd4bab06	-0.049723648
75	0x3e070abf	0.13187693
76	0x3c2c5dc3	0.010520401
77	0xbe0cbb45	-0.13743313
78	0xbe3249d1	-0.17410971
79	0xbea010be	-0.31262773
80	0xbe373bd4	-0.17893916
81	0x3d1d6285	0.038424034
82	0xbc82572e	-0.015910711
83	0x3d94c277	0.07263654
84	0x3da3c359	0.07996244
85	0xbddf9195	-0.109164394
86	0xbd8d781c	-0.06907675
87	0xbca6c0d8	-0.020355627
88	0xbdfec92e	-0.12440716
89	0xbcb8941d	-0.022531563
90	0xbe01369d	-0.1261849
91	0xbc0e3536	-0.008679679
92	0xbdae6da9	-0.0851701
93	0x3d9bb3c7	0.07602649
94	0x3d72b14f	0.059251126
95	0xbd3d88ae	-0.046272926
96	0xbac72c02	-0.001519561
97	0x3d3649af	0.044503864
98	0xbe401bfd	-0.18760677
99	0x3df5e3c5	0.12006334
100	0xbb18c7c5	-0.0023312431
101	0x3ea6b8bd	0.3256282
102	0x3ccf0fbc	0.025276057
103	0x3d82c4de	0.06385206
104	0xbd10862f	-0.035284217
105	0x3c6906ac	0.014222782
106	0x3d8880c6	0.066651866
107	0x3b83f788	0.0040273108
108	0x3d45260b	0.048131984
109	0xbe80eb49	-0.25179508
110	0x3e33d470	0.17561507
111	0x3a2ee996	0.000667238
112	0x3dc87c46	0.09789328
113	0x3d6e509e	0.05818235
114	0xbccc3d14	-0.024931468
115	0xbd7c265a	-0.061560012
116	0xbe1a6bce	-0.15080187
117	0xbea36656	-0.31914014
118	0x3de06046	0.10955863
119	0xbc0864f7	-0.008324853
120	0xbe370d3f	-0.17876147
121	0xbce1f1b7	-0.027581079
122	0x3ce6a397	0.028154178
123	0xbd842d79	-0.06453986
124	0xbe6e0311	-0.23243357
125	0x3da8a1d8	0.08233994
126	0xbd8afd41	-0.067865856
127	0x3dc01df6	0.093807146
128	0xbd9217be	-0.07133435
129	0xbd81b412	-0.06333174
130	0xbd5e0769	-0.054206286
131	0x3d9c3d75	0.076289095
132	0xb9d65175	-0.0004087795
133	0x3dcd441d	0.10022757
134	0xbc8c875d	-0.01715439
135	0xbd19d1cb	-0.03755359
136	0x3e366fcf	0.17816089
137	0x3e5563ae	0.20838806
138	0xbd45e6cf	-0.04831582
139	0x3d8be312	0.068304196
140	0x3df77687	0.12083154
141	0xbd250f54	-0.04029782
142	0x3de5a51a	0.11213131
143	0xbd896e7f	-0.067105286
144	0xbe37631c	-0.17908901
145	0xbe1a792e	-0.15085289
146	0xbbe3b2bc	-0.006948797
147	0x3da7eeb8	0.08199829
148	0x3d85c78a	0.065322
149	0xbddc786c	-0.10765156
150	0x3ccce16b	0.025009831
151	0x3b5e0273	0.0033875972
152	0xbe1f5ab1	-0.1556194
153	0x3de2a7fa	0.11067195
154	0x3da5153b	0.0806069
155	0x3e7043de	0.2346339
156	0x3e68ee33	0.22747116
157	0xbd61cb51	-0.05512554
158	0x3e4d845f	0.20070027
159	0x3d8bbf88	0.06823641
160	0x3cf9c723	0.030490464
161	0x3e3e8197	0.18604122
162	0xbe0bce55	-0.13652928
163	0x3ddbe8e7	0.10737782
164	0x3dbd4351	0.09241355
165	0xbe2a9eb0	-0.16662097
166	0xbdcbd9bc	-0.09953639
167	0x3e0376c3	0.12838273
168	0xbdee9f17	-0.11651438
169	0x3e83ce9c	0.25743568
170	0x3d33e620	0.043920636
171	0x3bd19835	0.0063963183
172	0xbda1a465	-0.07892684
173	0xbd2b4e62	-0.0418228
174	0x3e83988a	0.25702316
175	0x3ea3e40a	0.32009917
176	0xbe619675	-0.22030051
177	0x3de1c07c	0.110230416
178	0x3db815e7	0.089885525
179	0x3d2b50db	0.041825157
180	0x3e33fc40	0.17576694
181	0xbcc3cd99	-0.023901748
182	0xbdb43c31	-0.08800543
183	0x3f1d81a3	0.61525935
184	0xbe00bfe3	-0.12573199
185	0x3e000584	0.12502104
186	0xbd30ecef	-0.043194707
187	0xbe29abbd	-0.16569419
188	0xbd338fbc	-0.043838248
189	0xbe46e5bf	-0.19423579
190	0xbda0fc16	-0.078605816
191	0xbdfb4e27	-0.12270766
192	0x3e808a16	0.2510535
193	0x3e3c86a9	0.18410744
194	0x3dc42a30	0.09578359
195	0x3ced93ae	0.029001083
196	0x3f0eb189	0.5573965
197	0x3e4480db	0.1918978
198	0xbd1f7096	-0.03892573
199	0xbb6fa2c5	-0.0036565524
200	0xbda0f8df	-0.078599684
201	0x3e8d3230	0.27577353
202	0x3e578718	0.21047628
203	0x3e82b473	0.25528297
204	0xbe28ec69	-0.16496433
205	0x3ca8dcf6	0.020613175
206	0x3e0ef0ae	0.13959
207	0xbcbe335e	-0.023217853
208	0x3ece4ebf	0.40294454
209	0x3e2a0c28	0.166062
210	0x3ec2fdd9	0.38084295
211	0xbd4f60d0	-0.050629437
212	0x3e4c65b1	0.19960667
213	0x3d84d512	0.064859524
214	0x3e4edd88	0.20201695
215	0x3e32968a	0.17440239
216	0x3e029396	0.12751612
217	0x3e89a6c2	0.2688504
218	0x3e53d2a0	0.20685816
219	0xbdb3b1e6	-0.08774166
220	0xbcb935da	-0.022608686
221	0x3eb3992b	0.35077795
222	0x3d36b9d8	0.04461083
223	0x3e7740cd	0.24145813
224	0x3d971024	0.073761255
225	0x3cbcd443	0.023050433
226	0x3ebc921b	0.3683022
227	0xbe008506	-0.12550744
228	0xbd04a01b	-0.03237925
229	0x3e16c34e	0.1472294
230	0x3dc7f38f	0.09763252
231	0x3c82ea12	0.015980754
232	0x3d856c7f	0.065148346
233	0x3e14cbf6	0.1453093
234	0xbe037af7	-0.12839876
235	0xbd030fb4	-0.031997398
236	0x3d9d70c2	0.076875225
237	0x3e1dc9b9	0.15408982
238	0x3ebda44d	0.37039414
239	0xbb9a3dbe	-0.0047070673
240	0x3e34923f	0.17633913
241	0x3da5a20d	0.08087549
242	0xbc9ba083	-0.018997436
243	0xbbfbf5eb	-0.007689228
244	0x3dfed34f	0.12442648
245	0xbe6fd10a	-0.23419586
246	0x3a81c3a3	0.0009900223
247	0x3e39c494	0.18141395
248	0xbe1c98e8	-0.15292704
249	0x3da8cc5e	0.08242105
250	0x3e247da4	0.16063553
251	0x3dec7ed5	0.11547629
252	0xbba01eb3	-0.004886472
253	0x3e86403b	0.2622088
254	0xbdf23b8e	-0.118277654
255	0x3b518958	0.0031972732

_rnn.weight_hh_l0_reverse f4 [384, 128]
0	0xbd0dc5ad	-0.034612346
1	0xbd842def	-0.06454074
2	0xbdbf98c9	-0.09355313
3	0xbd237e77	-0.03991553
4	0xbd62d1d6	-0.055375896
5	0x3c4a582f	0.012350126
6	0x3d84dc29	0.06487305
7	0x3dc1518c	0.09439382
8	0xbda8859b	-0.08228608
9	0x3c8ee4fb	0.01744317
10	0xbd31ba80	-0.04339075
11	0xbd36188c	-0.044457003
12	0x3cfbff35	0.03076134
13	0xbd606a53	-0.0547889
14	0x3da2efcd	0.079558946
15	0xbd5e3494	-0.05424936
16	0x3d0c2c56	0.03422197
17	0xbde9d8e3	-0.11418321
18	0x3daa22eb	0.08307441
19	0x3c88df73	0.016708111
20	0x3dab9550	0.083780885
21	0xbce15218	-0.027504966
22	0xbd2ccd6f	-0.042188104
23	0x3d08168d	0.03322463
24	0x3ddd8e6f	0.10818183
25	0x3befc702	0.0073174248
26	0xbd0bf0f0	-0.034165323
27	0x3da4325a	0.08017416
28	0x3d21cf62	0.039504416
29	0x3d8752ce	0.066075906
30	0xbb1470cc	-0.002265024
31	0x3d59d14f	0.053178128
32	0xbd0fc499	-0.0350996
33	0xbd691e7f	-0.05691385
34	0x3dbe0ea3	0.092801355
35	0x3cf103ca	0.029420752
36	0xbc85e388	-0.016343847
37	0xbd4279c6	-0.047479413
38	0x39a861fa	0.00032116455
39	0xbd492449	-0.04910687
40	0xbdd47f0d	-0.103757955
41	0x3ce30f63	0.027717298
42	0xbbc8b88c	-0.0061255153
43	0x3c63d38a	0.013905415
44	0xbdcf4c40	-0.101219654
45	0x3d86d708	0.06583983
46	0x3d316c47	0.043316152
47	0x3c761ceb	0.015021543
48	0x3ddf5863	0.1090553
49	0xbd1bf841	-0.03807855
50	0xbb064c24	-0.002049216
51	0x3d63ffb9	0.055663798
52	0xbd86ca75	-0.06581584
53	0x3bd63c9b	0.0065379865
54	0xbd4ddb77	-0.050258126
55	0xbd953f0f	-0.07287418
56	0xbdb0f673	-0.086407565
57	0x3d91b93e	0.0711541
58	0xbd539432	-0.051655002
59	0x3cfe03c0	0.031007648
60	0xbdbdbc53	-0.092644356
61	0xbd8a1a8e	-0.06743346
62	0x3df4ae17	0.119472675
63	0x3d1e9dac	0.038724586
64	0x3d4794b3	0.048725795
65	0x3d8b39a1	0.06798101
66	0xbc076c1e	-0.008265523
67	0x3d00f905	0.031487484
68	0xbced4918	-0.028965518
69	0x3d2909aa	0.041268982
70	0xbc859fa6	-0.016311478
71	0x3d62915a	0.0553144
72	0x3d95c90a	0.07313736
73	0x3c0cdd8b	0.008597742
74	0x3d9b45b3	0.075816534
75	0x3c53a51c	0.012917783
76	0xbd207908	-0.039177924
77	0xbd69ea75	-0.05710836
78	0x3d453c5d	0.04815327
79	0x3dd300cf	0.103028886
80	0xbcd0058c	-0.02539327
81	0x3d992736	0.07478182
82	0xbd557ddd	-0.052121986
83	0xbb45def8	-0.0030192714
84	0x3d90b1ad	0.07065139
85	0xbcdeaef6	-0.027183037
86	0xbdc0102f	-0.09378087
87	0xbcc5007a	-0.024048079
88	0x3cda8102	0.026672844
89	0xbd05486f	-0.03253978
90	0x3de35a07	0.11101156
91	0xbb9b0c9a	-0.004731727
92	0x3d4304b4	0.047611907
93	0xbd3a1909	-0.04543403
94	0x3db57472	0.08860101
95	0x3ceb394c	0.028713845
96	0x3da5d158	0.0809657
97	0x3bf2bdb0	0.0074078664
98	0xbbc7b461	-0.006094501
99	0x3db3b4c4	0.08774713
100	0xbd994881	-0.07484532
101	0xbc25576a	-0.010091642
102	0xbd96dd43	-0.07366421
103	0xbdab8d66	-0.08376579
104	0xbd66ea85	-0.056376
105	0xbdb6c852	-0.08924927
106	0xbdb64ce9	-0.08901388
107	0x3d2c3ef6	0.04205223
108	0x3db57e58	0.08861989
109	0xbd000ffa	-0.031265236
110	0x3c3bc268	0.011459924
111	0xbd975e40	-0.07391024
112	0xbdc3cc62	-0.09560467
113	0x3d94bfa9	0.07263119
114	0x3be18ed1	0.00688348
115	0x3d8f49c8	0.069964945
116	0xbca35019	-0.019935654
117	0xbbadfc56	-0.005309622
118	0xbd4bdf4b	-0.049773496
119	0x3d98e66e	0.07465826
120	0xbaebcbf7	-0.0017989863
121	0xbd4053dd	-0.04695498
122	0xbcaaf40b	-0.020868322
123	0x3d5e333a	0.054248072
124	0xbc9c2f54	-0.019065537
125	0x3d1c9791	0.038230482
126	0x3d598573	0.053105783
127	0x3cdf36bd	0.027247781
128	0x3c03ea28	0.008051433
129	0xbcf2eb30	-0.029653162
130	0x3cbfd514	0.023417033
131	0x3d954e5c	0.072903365
132	0xbda8fa99	-0.08250923
133	0xbdac773b	-0.08421179
134	0x3d46c508	0.048527747
135	0x3c7f22f3	0.015572297
136	0xbd736fe2	-0.05943287
137	0xbd772efd	-0.060347546
138	0x3d4aeb41	0.04954076
139	0xbc9c44a6	-0.019075703
140	0xbd979061	-0.07400585
141	0xbcc05d04	-0.023481853
142	0xbd718fd5	-0.05897506
143	0xba6484d1	-0.0008717301
144	0x3d6fe58c	0.058568522
145	0xbd495120	-0.049149632
146	0x3d1abb1a	0.03777609
147	0xbc20b996	-0.009809872
148	0x3ce59e05	0.028029451
149	0xb9bbcdc2	-0.0003582072
150	0x3d0a7ba0	0.033809304
151	0xbcd0ecdb	-0.025503566
152	0xbd3b8556	-0.045781456
153	0x3d988815	0.074478306
154	0xbd046255	-0.03232034
155	0xbcc30e15	-0.023810426
156	0x3c99c07a	0.018768538
157	0x3da58b4c	0.080832094
158	0xbd5ef7e4	-0.054435626
159	0x3d4f6884	0.050636783
160	0xbd4538ab	-0.048149746
161	0xbccddcf5	-0.025129775
162	0xbca027df	-0.019550262
163	0xbd0547c2	-0.032539137
164	0xbd854226	-0.065067574
165	0x3d7683b2	0.06018419
166	0xbda7a2c3	-0.08185341
167	0xbcfa38fd	-0.030544752
168	0xbdad5ae4	-0.08464602
169	0x3d6c7857	0.057731953
170	0x3cfa1b0a	0.030530471
171	0x3c80db50	0.015729576
172	0x3da2fcab	0.07958349
173	0xbc756172	-0.014976846
174	0x3d50cc13	0.05097587
175	0x3d70bde5	0.058774848
176	0xbd44993d	-0.047997702
177	0xbda985f1	-0.082775004
178	0xbc90ed50	-0.017691284
179	0x3d48271a	0.048865415
180	0x3d5a38b3	0.05327673
181	0xbd66e885	-0.05637409
182	0x3ca6ae35	0.02034674
183	0xbd0a8a0e	-0.033823065
184	0x3d52828b	0.051394027
185	0xbd1c5c08	-0.038173705
186	0xbcc1ff8e	-0.023681428
187	0x3d4639ac	0.048394844
188	0xbd30acbf	-0.043133494
189	0x3d3fcf6f	0.046828683
190	0x3c3ed769	0.0116480375
191	0xbd616d08	-0.05503562
192	0xbc46c3ad	-0.012131614
193	0x3d69bcef	0.057064947
194	0xbc732633	-0.01484065
195	0xbba9ef68	-0.00518601
196	0xbc58a356	-0.013222536
197	0xbc3d91f3	-0.011570442
198	0xbc93e4ff	-0.01805353
199	0x3c8389d9	0.016056942
200	0xbd57f019	-0.05271921
201	0xbceead74	-0.029135443
202	0x3d9dba20	0.07701516
203	0x3d810450	0.06299651
204	0x3d94c594	0.072642475
205	0xbd0fde31	-0.035124008
206	0x3d98240d	0.07428751
207	0xbd8ca954	-0.06868234
208	0x3da0c988	0.07850939
209	0x3db25798	0.087081134
210	0x3d8b83e4	0.068122655
211	0xbdaab48e	-0.08335219
212	0x3d91e3b1	0.07123507
213	0xbd5ade92	-0.053434916
214	0xbbb00d7d	-0.0053727017
215	0xbdb0df81	-0.0863638
216	0xbd1608a3	-0.03662933
217	0x3cf3f2fd	0.029778952
218	0xbcf8d800	-0.030376434
219	0x3d744e63	0.059645068
220	0xbcd5b0f5	-0.026085356
221	0xbc76a5c1	-0.015054167
222	0x3cc10999	0.023564147
223	0x3c229406	0.009922987
224	0xbd9deb10	-0.0771085
225	0x3ce0b006	0.027427685
226	0xbd9222b5	-0.07135526
227	0x3d8ffe76	0.070309564
228	0x3d8bc48f	0.068246
229	0xbd897082	-0.06710912
230	0x3d9bbf3d	0.07604835
231	0x39f05151	0.00045836953
232	0x3d9ae0df	0.07562422
233	0xbbfe8ad5	-0.007768015
234	0xbd46de38	-0.048551768
235	0x3d2df29e	0.042467706
236	0x3d3972d9	0.045275543
237	0x3d1768ed	0.0369653
238	0x3dabd074	0.08389369
239	0x3a0b9ee7	0.00053261075
240	0xbd5b3c32	-0.053524204
241	0x3c8e1b69	0.017347055
242	0x3daa4719	0.08314342
243	0x3d196abc	0.037455305
244	0x3ce0e590	0.027453214
245	0xbbe3547a	-0.0069375606
246	0x3d3fb8c5	0.04680707
247	0x3d25633c	0.04037784
248	0x3d9c81c7	0.076419406
249	0x3c591412	0.013249414
250	0x3b4f7ca5	0.0031659987
251	0x3bc443ad	0.005989513
252	0x3d808ba8	0.06276637
253	0xbd26eff4	-0.04075618
254	0x3d7b46e4	0.061346903
255	0x3da17f18	0.07885569

_rnn.bias_ih_l0_reverse f4 [384]
0	0x3c8a1fcd	0.016860867
1	0xbc3b6b95	-0.011439224
2	0xbd21298b	-0.03934626
3	0x3cf7ea11	0.030262979
4	0xbb43462c	-0.0029796464
5	0x3c521989	0.012823471
6	0xbcd29102	-0.02570391
7	0xbddc25fd	-0.10749433
8	0xbd1f8c8b	-0.03895239
9	0xbb2d19ad	-0.002641301
10	0xbd5df29a	-0.05418644
11	0x3d743ec0	0.059630156
12	0x3cc7a804	0.024372108
13	0xbd179a96	-0.03701266
14	0x3d665c2e	0.056240253
15	0x3d6f9d78	0.058499783
16	0x3de2fc78	0.11083311
17	0x3d6c9dc2	0.057767637
18	0xbd256d88	-0.04038766
19	0x3d5c3467	0.053760912
20	0x3d838f6d	0.06423841
21	0xbd42e8bd	-0.047585238
22	0x3d66c527	0.056340363
23	0xbd806026	-0.06268339
24	0x3ccbd39c	0.024881177
25	0x3c3268b2	0.010889219
26	0xbcfb313e	-0.030663129
27	0x3d946392	0.07245554
28	0xbc76d32a	-0.015064994
29	0xbd0b545f	-0.03401601
30	0xbd750fb3	-0.059829425
31	0x3c06c13a	0.00822478
32	0x3d233ca0	0.03985274
33	0xbc381f0b	-0.01123787
34	0xbd906e50	-0.070522904
35	0x3c5cf73c	0.01348668
36	0x3d72cabf	0.059275385
37	0x3d789e8b	0.060698073
38	0x3d843032	0.06454505
39	0xbdadea08	-0.084919035
40	0x3bee72bb	0.0072768605
41	0xbd9b58b2	-0.07585277
42	0xbd7ddb6a	-0.061976828
43	0x3d98425d	0.07434533
44	0x3da0a019	0.07843036
45	0x3cb3cdc4	0.021948703
46	0xbb0e2c77	-0.0021693984
47	0x3d4d16ab	0.050070446
48	0xbd3c5ad8	-0.045985073
49	0xbd57023d	-0.05249237
50	0x3d365385	0.044513244
51	0x3d189ff3	0.037261914
52	0xbdcf1dd7	-0.101131134
53	0xbc947dd5	-0.018126408
54	0xbc93987c	-0.018017046
55	0x3d387f84	0.045043483
56	0xbc5a9dfb	-0.01334333
57	0xbda6a4fe	-0.081369385
58	0xbcb2cf58	-0.021827385
59	0x3c4d4091	0.012527601
60	0x3aef9c63	0.001828086
61	0x3dfb9704	0.12284663
62	0xbd867cea	-0.06566794
63	0x3b4cf1b3	0.0031271994
64	0xbd9cbabc	-0.07652804
65	0xbd44ca85	-0.0480447
66	0x3dd876d8	0.10569543
67	0x3d8ab876	0.067734644
68	0x3e31a755	0.17348988
69	0xbdb451d0	-0.08804667
70	0x3d6259be	0.055261366
71	0x3d83d809	0.0643769
72	0xbdaf3a6f	-0.08556067
73	0x3c8a38b0	0.016872734
74	0xbddb6de7	-0.107143216
75	0x3b06e0b4	0.002058071
76	0x3d0a6de0	0.03379619
77	0x3d8fa1f6	0.070133135
78	0x3c672ff7	0.014110557
79	0x38b72591	8.733117e-05
80	0x3d496206	0.049165748
81	0xbd0f4644	-0.03497912
82	0x3dd7b3e2	0.10532357
83	0xbd5e8fb8	-0.05433628
84	0x3d8910bf	0.06692647
85	0x3d654923	0.05597795
86	0xbd89f98e	-0.06737052
87	0x3d13683f	0.03598809
88	0x3c22aa98	0.009928368
89	0x3d3763bd	0.044772852
90	0x3c50a7fc	0.012735363
91	0x3d612a8a	0.05497221
92	0x3d98b176	0.07455723
93	0xbd4cefd3	-0.0500334
94	0x3d602adb	0.05472837
95	0x3a9bfa4e	0.0011900158
96	0x3c1e7490	0.009671345
97	0xbd2a41a0	-0.04156649
98	0xbcb1ed55	-0.021719614
99	0xbd8ee2e8	-0.06976873
100	0x3c6642cb	0.014054011
101	0xbca7b42b	-0.020471653
102	0x3c8920f4	0.016739346
103	0x3d230832	0.039802738
104	0x3cfaed27	0.030630661
105	0x3d77c5f3	0.060491513
106	0xbb5017db	-0.00317525
107	0x3cd7d054	0.026344456
108	0x3d1fe4ea	0.03903667
109	0x3e10225a	0.14075604
110	0x3da9925b	0.08279868
111	0x3b8e14f3	0.0043359934
112	0x3d7dcd45	0.06196334
113	0xbd4bd108	-0.049759895
114	0x3d583aa6	0.052790307
115	0x3d9fd1d3	0.07803693
116	0x3da2264d	0.079174615
117	0x3d627a73	0.055292558
118	0x3dd16c93	0.10225787
119	0x3d599fb0	0.053130805
120	0xbcbd116d	-0.023079598
121	0xbdbb7683	-0.09153464
122	0xbb583f11	-0.0032996575
123	0x3bff7416	0.007795821
124	0x3d8e7805	0.06956486
125	0xbdd97a7d	-0.10619066
126	0x3d8294ce	0.063760385
127	0x3ce907f2	0.028446171
128	0xbd57b0c8	-0.052658826
129	0xbc966392	-0.018358026
130	0xbc612411	-0.013741509
131	0x3de11211	0.10989774
132	0x3c034778	0.008012645
133	0xbc84b10f	-0.01619771
134	0xbcbfda00	-0.02341938
135	0x3d9f0d6c	0.07766232
136	0x3ca2bfd1	0.019866856
137	0xbe7b8057	-0.24560677
138	0x3d6ff34a	0.058581628
139	0x3d43435a	0.047671653
140	0xbdc26923	-0.094927095
141	0x3d062924	0.03275408
142	0xbde5687a	-0.11201568
143	0x3d7fb51d	0.062428582
144	0x3f17faa8	0.59366846
145	0xbdd85ad2	-0.105641976
146	0x3cadaf1f	0.021201668
147	0xbcb4d60d	-0.022074724
148	0xbda7a9d4	-0.08186689
149	0xbb88e092	-0.0041771615
150	0xbc94abef	-0.01814839
151	0xbbde0eb5	-0.0067766556
152	0xbe0d030d	-0.13770695
153	0xbd8e8aaa	-0.06960042
154	0xbd634de6	-0.05549421
155	0xbb3e4924	-0.0029035294
156	0xbb721feb	-0.0036945294
157	0xbd2c743b	-0.042103034
158	0xbdee2986	-0.11629014
159	0x3c9312ae	0.017953243
160	0xbd89e52c	-0.06733164
161	0xbdc8fe6a	-0.09814151
162	0xbddfa951	-0.109209664
163	0x3cc2a682	0.023761038
164	0xbe3f92a0	-0.18708277
165	0x3cff9aa5	0.03120167
166	0x3deba2b3	0.11505642
167	0x3d87751b	0.06614133
168	0xbd594562	-0.053044684
169	0xbc4eda7b	-0.012625332
170	0x3d8ec499	0.06971092
171	0xbcb095da	-0.02155583
172	0xbd28a4db	-0.041172843
173	0x3daac5b1	0.08338488
174	0x3bd646d8	0.006539207
175	0xbd5e33c5	-0.05424859
176	0x3e48f0e4	0.19623142
177	0x3d564902	0.05231572
178	0xbcc04a0a	-0.023472805
179	0x3da98ccf	0.0827881
180	0xbc01a850	-0.007913664
181	0xbd6a42f8	-0.057192773
182	0x3d6861b4	0.056733802
183	0x3c9b64d8	0.018968984
184	0xbc36cf7b	-0.011157866
185	0xbb8f3cb2	-0.004371249
186	0xbd1c56a6	-0.038168572
187	0xbd5a358c	-0.053273723
188	0x3d96d38d	0.07364569
189	0xbc82e5c4	-0.015978701
190	0xbe1c89c8	-0.15286934
191	0xbd864e07	-0.06557851
192	0xbbc232f6	-0.005926485
193	0xbe03a60e	-0.12856314
194	0xbe3e591c	-0.1858868
195	0xbac89ee8	-0.0015306147
196	0xbe0228f6	-0.12710938
197	0xbe02eaa1	-0.12784816
198	0x3d7f5f27	0.062346604
199	0x3d0cdf22	0.034392484
200	0xbd75e6b1	-0.060034458
201	0xbd6eba10	-0.05828291
202	0x3ca53a37	0.02016936
203	0xbe2504b1	-0.16115071
204	0x3d9c85ce	0.07642709
205	0xbce37d95	-0.027769843
206	0xbe0bc760	-0.13650274
207	0x3ccff653	0.025386011
208	0xbe1d34ea	-0.15352216
209	0xbd1d268e	-0.038366847
210	0xbe531f1b	-0.20617335
211	0x3d174b15	0.03693684
212	0xbe3bd0a2	-0.18341306
213	0xbd0b1066	-0.033951186
214	0xbd7bd660	-0.06148374
215	0x3dd320c7	0.10308986
216	0x3e058a37	0.13041006
217	0xba275606	-0.0006383363
218	0xbd161c39	-0.03664801
219	0xbd0e6033	-0.03475971
220	0xbcbbca0e	-0.022923496
221	0xbdeb2081	-0.11480809
222	0xbda99687	-0.08280664
223	0xbc8e2682	-0.017352346
224	0x3d99141e	0.0747454
225	0xbd8913e2	-0.066932455
226	0xbdf44d5a	-0.11928816
227	0xbd31cc68	-0.043407828
228	0x3bf9f8bd	0.007628529
229	0xbcfe776a	-0.0310628
230	0xbcf2626a	-0.029587943
231	0xbd83cbdb	-0.06435367
232	0xbd9c7eb4	-0.07641354
233	0x3b8f1a75	0.0043671676
234	0xbdfad9ad	-0.122485496
235	0x3c119290	0.008885041
236	0xbb8e5626	-0.004343766
237	0xbe4cd097	-0.20001446
238	0xbc5bd23d	-0.013416824
239	0x3d992c72	0.074791804
240	0x3c7cc69e	0.015428213
241	0xbb97314d	-0.0046140314
242	0x3db67cc2	0.089105144
243	0xbd45c4db	-0.04828344
244	0xbe004e42	-0.12529853
245	0xbd92bed0	-0.07165301
246	0xbdaa0a2b	-0.08302721
247	0x3dd9632c	0.10614619
248	0x3d95ff65	0.07324103
249	0x3d195846	0.0374377
250	0xbc80d41c	-0.015726142
251	0x3d5a8c35	0.053356368
252	0x39be2c4f	0.00036272636
253	0xbce3d53e	-0.027811643
254	0x3c9d4849	0.019199507
255	0x3dfd5476	0.12369625
