outputs/seed42_classifier.pth (torch, 77465 bytes, 12 tensors)

_cnn.0.weight f4 [128, 1, 5]
00000000: c2bb e2bd 7256 15be d32b 0b3d 3fcb 913c
00000010: 4028 9b3d 5580 013f d49e 41bf e554 30bf
00000020: 89e0 13bf 6718 bdbe 92c1 6dbe c9bd fb3e
00000030: 67f3 37bf 0a3c 67be 94e5 82bf 1298 0d3f
00000040: ce0d 78be ca48 08bf 59b4 09bf 558c 413f
00000050: a35a 04bf c54a c4be 6787 603d f88a 063e
00000060: ded4 ad3e 5606 eebc e941 55be ec79 2d3e
00000070: ae83 8cbe 9604 aabe 568e 6a3f df95 1dbf
00000080: 8012 1abf 6138 2a3f 4b4a 533f 94c6 253f
00000090: 39d2 69be d615 98be b446 883d 1dd5 87bd
000000a0: 6900 68bd 40e1 5f3e 6664 8f3e 9fdb 243e
000000b0: 45fb 513e e1ac 193e 8087 ef3e edb4 8e3e
000000c0: be1a e93e 3eeb e0bc 444a 073f 13c4 453f
000000d0: a69b 7cbe b6eb fc3e 185a 36bf 2c1f ac3e
000000e0: 5ae2 f73e 44c9 dbbe ee91 953e 9c9f 5e3e
000000f0: 4ce3 4cbc 5179 31bf e729 e0be e5bf 63bf
00000100: dea9 33bf b513 aabd 0485 913f beb3 94bf
00000110: e408 2bbf 3ee9 07be 8165 29bf c59b 0fbf
00000120: e057 853e 299d 55bf 4a82 bcbe 09a8 d23e
00000130: c21d 02be 15a2 253e d27c 163f 588c 4a3e
00000140: 4ff3 a9be d373 f23e 8516 243c d21a 413e
00000150: 98f4 a4bd 7b73 46bf 0bf2 c4be 152f 493f
00000160: ca19 0bbf a22e 083f 4dde 55be 9b11 7dbf
00000170: 35c4 adbd 4764 34bf 768c fe3e 5aee dc3e
00000180: 1956 bdbc 992c b33d 3058 833e ba79 85be
00000190: 0788 953b fcfc 0f3f fe93 10bf 0260 0e3e
000001a0: 0d7e 563f b428 86be 80da c7ba 81d5 4dbf
000001b0: 87f5 09bf 0613 d2be 9033 2f3e 55ac bf3d
000001c0: 53d8 c63e a12d 013f 291e a03e 8d0e 65be
000001d0: 0f8a ad3e 12f4 1d3f dbde 9bbd 82cd d33e
000001e0: 20e3 2d3e d068 5b3f a1ff 3abd 39a2 efbc
000001f0: a87e 57bd a773 e13e f1bb 6d3f e457 613e
00000200: 9799 343f bbeb 6ebf 9972 713e 9d7b 49bd
00000210: bb69 d9bb 0250 2b3c 840c 803e 16af 373f
00000220: c9db 52bc dbdf 67be 7f49 ffbe 0b3b 36bf
00000230: 43b9 5abf c175 ccbe 47fc 133f 1fda 42bf
00000240: a9aa e4be 376a 703d 43cd f1bd fcca 693f
00000250: fee9 6bbf 756c 2cbf 724e 10be 6a4e 653f
00000260: 5381 90be ee94 003f a317 303f 1272 a43a
00000270: 3cac 9bbe a3e2 9c3e bc65 86bd 3eac aa3e
00000280: 8e4c 94bd f962 343e 5f20 cd3d 9918 d93d
00000290: c47b ae3d 966b 4e3d dea6 1b3e f51a 183f
000002a0: 8726 27be 41f9 96be 1276 3c3f d465 bdbd
000002b0: 42a6 f83e f086 433e 8208 123f b818 2fbf
000002c0: 8f6a b0be 3cc1 053f c8db 093f 7cc7 b5bc
000002d0: 2a87 403f bf10 b1be d9e9 06be f707 283e
000002e0: 3f46 2e3f dae0 633f 6c9e 5dbf 4b78 dabe
000002f0: 14e8 863e 3b29 263f 5e0b 91bd 3260 73bb
00000300: 04f3 fe3d 3f43 0cbe 42b0 aebe 81f9 183c
00000310: 64cd fd3e 943f 143f 442d e83e 1482 063f
00000320: ca4b 123f 9cc5 36bf 42b8 d7be 29f5 893e
00000330: 233a c4be 9d3e 3bbe fe8c 793e 8366 b9be
00000340: 9102 4ebe ae0e a63e 5f30 c83e b4fb 4a3f
00000350: b392 31bf 2c0c fdbe 93ec a5be 75d8 383d
00000360: 58b7 003f f3f1 26bf d380 a0bd fd7a 11bf
00000370: c183 c2be f021 df3e 593d d3bd 3e51 a13e
00000380: 06b7 84bc 3811 e6be e611 0cbf da14 223f
00000390: 42fd 7abf 3058 aebe a882 53bf e273 3dbf
000003a0: 1267 28bf af87 00be bdf1 72be 5144 78bd
000003b0: 5e93 ba3e 872b 3a3e 3a17 9fbe 19da 62be
000003c0: eab2 c83e d9f6 42be f56a 6dbe 2ac4 9bbe
000003d0: 2995 533e bc58 bcbd 14a1 073f 3969 203f
000003e0: 6a69 f23e f375 1d3f aebb 25be 0bc9 8dbd
000003f0: d235 8abf 7a28 213f dc8f 5e3f 7664 a5be
-0.11070968 -0.14583758 0.03397734 0.01779711 0.075760365 0.50586444 -0.7563298 -0.6887954
-0.5776449 -0.3693268 -0.23218372 0.49168232 -0.7185578 -0.22581497 -1.0226312 0.55310166
-0.24224016 -0.5323607 -0.53790814 0.75604755 -0.517008 -0.38338295 0.05481663 0.1313895
0.33951467 -0.029055756 -0.20825924 0.16941041 -0.27444214 -0.33206624 0.9162344 -0.6155681
-0.6018448 0.6649228 0.8253524 0.6475613 -0.228341 -0.2970416 0.066541106 -0.06632445
-0.056641016 0.2186327 0.28006285 0.16099404 0.20506008 0.15007354 0.46783066 0.2787241
0.45528215 -0.027455922 0.52847695 0.7725231 -0.2466875 0.49398583 -0.7123122 0.33617532
0.4841488 -0.4292699 0.29212898 0.21740574 -0.012505364 -0.6932574 -0.4378197 -0.8896468
-0.7018107 -0.0830454 1.1368718 -1.1617353 -0.6681044 -0.13272569 -0.6617051 -0.5609706
0.26043606 -0.8344293 -0.36818153 0.41143826 -0.12706664 0.1617511 0.5878421 0.197801
-0.33193442 0.47353992 0.010015135 0.18857887 -0.08054465 -0.7751996 -0.38465914 0.78587466
-0.54336226 0.53196156 -0.20885582 -0.9885499 -0.08484689 -0.7046551 0.49716538 0.43150598
-0.023112344 0.08748741 0.2565322 -0.26069432 0.004563335 0.562454 -0.5647582 0.13903812
0.8378609 -0.2620293 -0.0015247613 -0.80403906 -0.5389027 -0.4103014 0.17109513 0.093590416
0.38836917 0.5046025 0.3127301 -0.22368832 0.33894393 0.61700547 -0.07610866 0.41367728
0.16981173 0.85706806 -0.045653943 -0.029252158 -0.052611023 0.44033548 0.928649 0.22006184
0.7054686 -0.93328446 0.23578872 -0.049190152 -0.0066349185 0.010456087 0.2500955 0.71751535
-0.012869784 -0.22643988 -0.4986076 -0.7118384 -0.85438937 -0.3993359 0.5780682 -0.76114076
-0.44661453 0.058695044 -0.11806729 0.91325355 -0.9215392 -0.6735299 -0.14092425 0.89572775
-0.28223667 0.5022725 0.68786067 0.0012546203 -0.30404842 0.3064166 -0.06562373 0.33334535
-0.07241164 0.1761588 0.1001594 0.10600395 0.085197 0.05039557 0.15200374 0.59416133
-0.16323291 -0.2948704 0.7361766 -0.09247938 0.48564345 0.19094443 0.5704423 -0.6839709
-0.34456298 0.5224798 0.53850985 -0.022189848 0.75206244 -0.3458309 -0.13175143 0.16409288
0.6807594 0.8901497 -0.8656986 -0.426699 0.26348937 0.6490666 -0.07082246 -0.0037136194
0.12448695 -0.13697527 -0.3411885 0.00933683 0.49570763 0.5790951 0.45347035 0.52542233
0.57146895 -0.7139528 -0.42132765 0.26944855 -0.38325605 -0.18285604 0.2437019 -0.36211023
-0.20118167 0.32433075 0.39099404 0.7929032 -0.6936447 -0.4942335 -0.32407054 0.045128305
0.5027976 -0.65212935 -0.07837071 -0.5682829 -0.37991145 0.4358058 -0.103144355 0.31507295
-0.016200554 -0.44935012 -0.5471481 0.63313067 -0.9804269 -0.34051657 -0.8262124 -0.7400495
-0.6578227 -0.12551759 -0.23725028 -0.060612027 0.36440557 0.18180667 -0.31072408 -0.2215351
0.39199 -0.19039477 -0.23185332 -0.304231 0.20662369 -0.09196612 0.5298016 0.6266056
0.4734605 0.615081 -0.16184875 -0.069231115 -1.0797675 0.6295239 0.8693826 -0.32303208

_cnn.0.bias f4 [128]
00000000: e568 673c b63c b93d f0cf a83d c632 543c
00000010: 3503 1f3e 046a f7bd 6372 2abd 2c4c 6fbe
00000020: 7639 9d3e 9faf 14bd 3ca0 6dbb a3b4 08be
00000030: c780 203e 9238 1a3d a633 d33d b3ad 3d3e
00000040: ab64 ecbd 8ec7 8c3c 7a59 683d 218b c03d
00000050: c6f8 3bbd ba67 e63d d96e e53d 8963 02be
00000060: 845d 393c a660 7cbd 7562 e0bd 6c84 853c
00000070: 99f6 bc3d e4f1 863c 7ef2 98bd 84e3 c13e
00000080: ec90 6d3e 8d6a f6bd 2085 343e eecd 343c
00000090: 6a86 52be 6375 7f3d 3314 22be 4b38 1bbe
000000a0: 81ad 2a3d 7664 d03e 5cd4 4cbc 7765 44bd
000000b0: 8ea0 2dbe cc56 c73d 0e15 fc3d a8cd eabd
000000c0: 8392 3fbe a1a0 c23e b6a2 023c 3abd a63c
000000d0: 232d 20bd e498 60bc 8d58 713d a14e 263d
000000e0: 31c2 37bd f7c6 53be 3cb2 283d 9861 2dbd
000000f0: 27df bc3d 85ab 783c 6334 7abe b162 ea3d
00000100: 8ef8 25be 46bc 0dbe c5d3 78bd 0667 37be
00000110: 1982 36be e619 3e3e 0168 58bd e6cd 2fbd
00000120: 04d3 74bd c07c 0dbe 7f39 963d 68dc efbd
00000130: fc91 323d 91f2 3bbd b2b0 36be 4448 713d
00000140: 9918 bebd f8f8 4d3e 76e8 c5bd 5f5b 10bd
00000150: 469d 243d bd5d 1bbe 26f3 9cbd 41d4 9abd
00000160: 1189 bbbd a4d1 05bd 9e43 103e c66f a3bd
00000170: 4afd 073d 6f10 c13c b282 083e 97f9 d4bc
00000180: 4a3e 99b9 2eb0 e53e 05ce c73c b92a 2f3d
00000190: 66af ab3c c199 60be d1d0 8a3c 6dbf 5fbe
000001a0: ca41 473e 965f 8abd dc25 32bd 0a2c 12bd
000001b0: cad3 a5be c832 eebc 62df 8ebe 7d1a b23e
000001c0: f995 f1bd 8275 203c 6ece 2cbd 7147 cd3e
000001d0: eba5 773d 1065 22bd 9099 05be 9219 943e
000001e0: 53d1 09bd 9558 24be cf9c 843c 9e14 363c
000001f0: 583e 9ebe 5a1c 85bc ba7f 343e 4fe6 113d
0.01412413 0.09044783 0.08242786 0.012951558 0.15528567 -0.12080768 -0.041612994 -0.23368901
0.30707902 -0.036300298 -0.0036258837 -0.13350157 0.15674125 0.037651606 0.103125855 0.18523292
-0.115426384 0.017184999 0.056725956 0.09401537 -0.045891546 0.11250253 0.11202783 -0.12733282
0.0113138 -0.06161561 -0.10956279 0.016298495 0.09226722 0.016472764 -0.07468127 0.37868893
0.23199815 -0.12032042 0.17628908 0.011035426 -0.20559087 0.062367808 -0.15828018 -0.15158193
0.041669372 0.40701646 -0.012501802 -0.047948327 -0.16955778 0.09733352 0.12308703 -0.11465007
-0.18708234 0.38013175 0.007973364 0.020353902 -0.039105546 -0.013708327 0.05892234 0.04060233
-0.04486293 -0.20681368 0.041185603 -0.0423294 0.092222504 0.015177612 -0.24434046 0.11444605
-0.16208097 -0.13841352 -0.060748834 -0.17910394 -0.17823066 0.18564567 -0.05283356 -0.04292097
-0.059771553 -0.1381712 0.07335185 -0.11711961 0.043596253 -0.045885626 -0.17840841 0.05890681
-0.092820354 0.20114505 -0.09663479 -0.03524339 0.04018905 -0.15172477 -0.076635644 -0.075600155
-0.09157003 -0.032670632 0.14088294 -0.079803035 0.03320054 0.023567406 0.13331106 -0.02599792
-0.00029228843 0.44860977 0.02439023 0.042765353 0.02095766 -0.21933652 0.016945275 -0.21850367
0.1945869 -0.06756513 -0.043493137 -0.03568653 -0.32388145 -0.029076949 -0.27904803 0.34785834
-0.11796183 0.009793641 -0.042189054 0.40093568 0.060460966 -0.039647162 -0.1304686 0.2892576
-0.033646893 -0.16049416 0.016188053 0.011113314 -0.3090694 -0.01624887 0.17626849 0.03562003

_classifier.1._gate.1.weight f4 [32, 256]
00000000: b287 6f3c c9e9 1cbe 1f18 abbc 4467 1d3d
00000010: 0252 943d 47be b2bc 448f 003e 53c4 e1bd
00000020: 88f5 07bc a540 c33c 7f6e 183e f7a9 69bd
00000030: a2ca 50bb e41c 383d 599e ffbd e385 4d3d
00000040: 9e9b 91bd ae31 173e fce2 953d 1d02 873c
00000050: c211 e5bd f3dc 3fbc a698 75bc cdbd a4bc
00000060: 410e 123d 6872 0c3c 61e7 963d fd2d 1fbb
00000070: 09cc 1a3d 6a48 5abc 0cf1 c03d a7c4 ee3d
00000080: 7e31 0fbd d1c0 653d 38bc 77bd f5ab 5fbc
00000090: 38ef 9bbb 0d35 2bbc aa52 8abc c783 a43d
000000a0: cc8a 31bd b750 bcbc 3288 0dbc 3a44 7dbd
000000b0: 0f15 83bd f61a 67bd f152 59bd 9b42 5cbd
000000c0: 71df 573d 3e18 b43d 9d4e 2e3d 36f3 353d
000000d0: 4b28 87bc 4744 3bbb 0553 5abc fb6e 573c
000000e0: 37ed 74bc 1536 e0bc 1b1a 85bd 7f21 993d
000000f0: a0c2 7438 da92 8ebd 42e9 c03d e112 3dbc
00000100: 886d 283c 94f2 053d e162 593d 863f 59bd
00000110: 66e4 c43d 42f3 4bbc eb6d a43d c9f9 c0bc
00000120: 1e77 38bd a999 9a3d 974e 413d 0924 78bd
00000130: 13f9 833d 2046 943d 1a86 8dbd 350f 9fbd
00000140: 85b4 a63d c5e6 193d 5655 a6bb f23b db3d
00000150: 3fe0 bbbc 0ba5 853d f47a 053d 168f 9dbd
00000160: 4d2c 85bd faab a8bc 29a7 4cbc ce6c 5e3d
00000170: 4b35 8b3d 87ab 95bd 869b a7bd 7194 f33d
00000180: 09d4 b73d 5d67 c1bd b95d 733c e471 d2bc
00000190: 5e05 9c3c 6a98 a03c 1f1b e03d b0ce 3fbc
000001a0: 4450 0e3d c496 3a3d 88a7 cdbc 1adc 7fbb
000001b0: 39de e1bc 8638 f53d 03e1 04bd 03bd 04bc
000001c0: f524 ed3c db70 90bd b8a6 c13d 1ae9 81bd
000001d0: c3d5 3ebd 8550 713d c439 f43d 51ad d4bc
000001e0: d07a df3c 1fcc 3bbd c4dc c63d 3d78 2f3e
000001f0: 48f7 023e 707a 4cbd f87b 793c fff2 57bd
00000200: fbfd 793d 444d adbe ea21 80be da68 cfbd
00000210: d47e 1dbd 9ea2 063c 7873 06bf c6a5 e7bd
00000220: 9def 873d 37c4 31bd e477 53be 7adb ed3c
00000230: aaee 6d3d d165 0fbf a1f4 70bd 6aa9 1abd
00000240: 3877 d23d fd35 9cbe 50bf 01bf 4405 49bd
00000250: 4ef5 45be fb75 71be 309d 76bc 7110 65bd
00000260: b980 19bd d048 58be dd74 8dbd 12ec c2be
00000270: 193c 93be 8a2f 65be 525d 92be e75b b5bc
00000280: cfe4 f1bc d615 f83d 50cb bbbd fe8a 23be
00000290: a40a d3bd 7516 c4bd 991b 21be c43a 03bd
000002a0: dcc0 32be 75b7 d93c 36ad 41be cfc1 10be
000002b0: 1adb 3f3c be01 82be 1a7b 6abe b8a2 e8bc
000002c0: dac7 b4bc 29f0 18bb cf78 55bf 253b a8be
000002d0: 129b 65be 5fdc 04be d751 1cbe ca0a 45be
000002e0: d97d c4bc 3572 2bbd 8f3b 92be d301 413d
000002f0: ddf1 4abe cbde 41be 649b 0ebd 8aaf aebd
00000300: c650 753d 292d 2d3c a648 26be 9701 3abd
00000310: 1de6 7f3d 09b2 303d 18f0 cfbd 8531 843d
00000320: c4c0 85bd 2bb6 323d 8177 b7bd 1421 37be
00000330: 6175 93bd a85e 14bd 5a91 123e 710c eb3c
00000340: 124e bfbe b721 5f3d 63bb 92bd d529 bdbd
00000350: d856 35bd 0e84 d93d f5fa 773c 0ff7 ddbd
00000360: 5f69 07bb 7bca 85be 5348 01bc 34a2 583d
00000370: 428e 60bc 3a9f 3ebf b71e 10be b683 8dbd
00000380: 17d0 3bbd 8635 fe3b a11e 6fbe 662c 37be
00000390: b85c 6fbd 6d66 42bd e5e6 d03c d8d0 8c3c
000003a0: 87e7 87bc 8a83 4bbd a5c5 81be 3522 cfbd
000003b0: 59e4 173d 168f 8abd 87aa a23c 0a86 003d
000003c0: 1d42 ad3d 766b c9be 596b aebe fef9 89bd
000003d0: 8e49 8fbe 0dd9 ba3d 157f eb3c 6cf5 8b3c
000003e0: f765 68bd 6cc9 c33c f058 cdbe e3ed 67be
000003f0: 007b bcbd 6fe3 6d3b 3a0b 97bd 3795 ebbd
0.014619755 -0.15323557 -0.020885525 0.03842856 0.07242204 -0.021819247 0.12554651 -0.11023774
-0.008298285 0.023834536 0.14885901 -0.057046857 -0.003185906 0.044949427 -0.12481374 0.050176512
-0.0710976 0.14765045 0.073186845 0.0164805 -0.11185028 -0.011710393 -0.0149900075 -0.020110035
0.035658125 0.008572198 0.07368351 -0.0024288886 0.03779224 -0.013322929 0.09420976 0.11658602
-0.03495931 0.056092087 -0.060482234 -0.013651838 -0.0047587417 -0.01044966 -0.01688512 0.08032947
-0.043345258 -0.022987707 -0.0086384285 -0.061832644 -0.06400501 -0.056422196 -0.053057615 -0.053774457
0.052703325 0.08793686 0.04255544 0.044421397 -0.016498705 -0.0028574632 -0.013325457 0.013149018
-0.014949135 -0.027369538 -0.0649912 0.07477092 5.8355392e-05 -0.069616035 0.094194904 -0.011540146
0.010280021 0.032702044 0.053072814 -0.053039096 0.09613876 -0.012448134 0.08028778 -0.023556607
-0.045035474 0.075488396 0.04719409 -0.06058124 0.064439915 0.07239938 -0.069103435 -0.077665724
0.081399 0.037573595 -0.005076091 0.10704793 -0.022934077 0.0652562 0.03258796 -0.07693307
-0.0650259 -0.020589817 -0.012491026 0.054302983 0.06797274 -0.07308107 -0.081839606 0.11893547
0.08975989 -0.09443543 0.014853888 -0.025689073 0.019045528 0.019603927 0.10942673 -0.011706993
0.034744516 0.045553938 -0.0251043 -0.0039041103 -0.027571784 0.119736716 -0.03244115 -0.0081017045
0.028948287 -0.070527755 0.09455627 -0.06343289 -0.046590578 0.05891468 0.119250804 -0.02596155
0.027280241 -0.045848962 0.097100765 0.17135711 0.12789643 -0.049921453 0.01522731 -0.052721974
0.06103323 -0.33848011 -0.25025874 -0.10127421 -0.03845103 0.008217482 -0.5251994 -0.11310916
0.066374995 -0.043400016 -0.20651203 0.029035319 0.058088936 -0.56014735 -0.058827046 -0.037759222
0.102766454 -0.3050994 -0.50682545 -0.049077287 -0.19331858 -0.23580162 -0.015052125 -0.055923883
-0.037476275 -0.21121526 -0.069070555 -0.38070732 -0.28756788 -0.22381416 -0.28586823 -0.022138549
-0.02952805 0.1211354 -0.09169638 -0.1597099 -0.10304764 -0.09574596 -0.15733184 -0.032038465
-0.17456383 0.026576737 -0.18913731 -0.14136432 0.011709953 -0.25391954 -0.22898522 -0.028397903
-0.022067953 -0.0023336506 -0.83387464 -0.32857624 -0.22422436 -0.1297469 -0.15265594 -0.19242397
-0.02398579 -0.041856963 -0.28561065 0.04712088 -0.19818826 -0.18932645 -0.03481616 -0.08529575
0.059891485 0.010569849 -0.1623865 -0.045411672 0.062475313 0.043138538 -0.10153216 0.064547576
-0.06530908 0.04363076 -0.089583404 -0.17883712 -0.072001226 -0.036223084 0.1431326 0.028692456
-0.3736425 0.054475512 -0.071646474 -0.092364945 -0.044272274 0.106208906 0.015135516 -0.10838138
-0.0020662171 -0.26131043 -0.007890779 0.052889064 -0.013705792 -0.7446171 -0.14074217 -0.069098875
-0.045852747 0.0077578453 -0.23351528 -0.1788803 -0.058438033 -0.047460962 0.025500724 0.017189428
-0.016589893 -0.049685992 -0.25346103 -0.10113946 0.037083004 -0.06765573 0.019856704 0.03137783
0.08459876 -0.393398 -0.34066275 -0.06737135 -0.27985805 0.091234304 0.02874712 0.0170848
-0.056737866 0.023899756 -0.40106916 -0.2264934 -0.09203148 0.003629889 -0.07375188 -0.1150307

_classifier.1._gate.1.bias f4 [32]
00000000: 0350 7fbc 9612 3b3d f79c 1fbc c52b 46bd
00000010: a0c1 3fbd f344 b23c 67a2 5cbc a982 cbbc
00000020: 7409 dbba de88 c3bc 25ef 68bd d53a 5b3d
00000030: 9253 03bd a33c 4bbd 4401 3b3d b1ed b33c
00000040: 7fb3 30bc 83b0 75bb a838 3dbd cf81 943d
00000050: 003a 55bd d475 0ebd b445 d83b 249f 103c
00000060: 50b4 1dbc e41b 6cbd 4e77 e5bb 54b9 eebc
00000070: 88c0 eb3c 7dca 87bd e2b4 b23d cc17 5dbd
-0.015583041 0.04567202 -0.009742013 -0.048381586 -0.046815515 0.021761393 -0.013466454 -0.024842577
-0.0016711191 -0.023868974 -0.05686869 0.053522903 -0.03206212 -0.049618375 0.045655504 0.021963926
-0.010784983 -0.0037489242 -0.04619661 0.072513215 -0.052057266 -0.03478034 0.006600106 0.008827005
-0.009625509 -0.057643786 -0.0070027476 -0.029141106 0.02877833 -0.066304184 0.08725907 -0.053977773

_classifier.1._gate.2.weight f4 [32]
00000000: 5958 953f 95d8 9d3f 151e aa3f 20e0 a03f
00000010: 22bf 883f ee4e a23f 181b a23f 0f73 bd3f
00000020: 101c 9a3f 7603 a93f 4713 a93f 3349 923f
00000030: 6f19 653f 57f1 a73f b871 af3f aeba ac3f
00000040: d37e aa3f eafe a23f 74a9 823f 3436 a23f
00000050: 319c 5c3f ecc3 b23f 80ff 8f3f f92d d43f
00000060: 507f a63f c4d9 873f c3d5 9a3f fd40 b13f
00000070: 6aba a33f 5f06 823f b22d c93f f66b a33f
1.1667587 1.233172 1.329043 1.2568398 1.0683329 1.2680337 1.2664518 1.4800738
1.2039814 1.3204181 1.3209008 1.1428589 0.89491934 1.3120526 1.3706579 1.349447
1.3319954 1.2734044 1.0207963 1.2672791 0.8617583 1.3966041 1.1249847 1.657653
1.3007603 1.0613332 1.2096485 1.3847958 1.2791264 1.0158194 1.571707 1.2767322

_classifier.1._gate.2.bias f4 [32]
00000000: 6542 2e3d 3478 fb3c 1c6f 543e 8d29 023e
00000010: d0db fc38 0c88 f83d cfff 9d3d 69b8 273e
00000020: 6cd7 74bb 8d48 593d efd0 0f3e 0e36 883d
00000030: a7eb 1dbe 8b6c bb3d ea84 333e 0985 ad3d
00000040: 937e e73d 5d87 ba3d d704 31be 2c59 553e
00000050: 3018 69be e2ac 323e c2b1 b83e f95c 333f
00000060: f2ce 9e3d 71e6 6dbd 16ca 133d 1c80 8c3d
00000070: e942 0a3d 95a0 89bd b3fb 223f 6115 833d
0.042543788 0.030696966 0.2074551 0.12711163 0.0001205724 0.12135324 0.07714807 0.1637894
-0.0037359847 0.053047705 0.14044546 0.06650935 -0.15421925 0.09151562 0.17531171 0.0847264
0.11303439 0.0910785 -0.17287003 0.20834798 -0.22763133 0.17448762 0.36073118 0.7006374
0.077543154 -0.058081094 0.036081396 0.068603724 0.033755217 -0.06720082 0.6366531 0.06400562

_classifier.1._gate.2.running_mean f4 [32]
00000000: 15bc 95be d9c3 bebc 6244 2ebe 3436 5fbe
00000010: 6f28 44bd db27 7cbd 87c8 06be 6926 c9be
00000020: 006c 67be c2f4 2cbd 24c4 14bf 0009 22bd
00000030: 8eb5 6bbe 5e9f cfbe 1004 9dbe c3fc 52be
00000040: fbf8 c2be 3ae8 debd 8703 8ebe ac5a 6dbe
00000050: c2fb fd3c 8e58 e4be 36b0 f13d 3ba5 673e
00000060: 38a5 b3be 8266 10bf fae1 e6be c29b 4bbe
00000070: cd28 1bbe 1040 f2bd 0009 d33e a977 7fbd
-0.29245058 -0.023286747 -0.17018273 -0.2179802 -0.047890123 -0.061561447 -0.13162433 -0.39287117
-0.22599792 -0.042225607 -0.58111787 -0.039559364 -0.23018476 -0.40551275 -0.30667162 -0.20604233
-0.38080582 -0.108841375 -0.27737066 -0.2317912 0.031003837 -0.44598812 0.11801188 0.22621624
-0.3508699 -0.56406415 -0.4509428 -0.19883636 -0.15152283 -0.11828625 0.41217804 -0.062369976

_classifier.1._gate.2.running_var f4 [32]
00000000: e0ec ad3c 1a5c c73c 0f72 d03c 0f3a bb3c
00000010: 11b7 993c b38a b83c 5f60 ca3c aa48 f43c
00000020: dc97 a73c 13ca bd3c b658 b03c dca7 9b3c
00000030: f9d5 753c ae7a b83c 8f62 d03c a830 cc3c
00000040: 31a5 cc3c 1200 b53c 48b1 be3c f77a c33c
00000050: 2417 853c ba48 ca3c 8be6 d63c 4e4d 0c3d
00000060: 300d a53c 8a4d a33c 5c1f a33c 3e03 d53c
00000070: 2bf8 c63c 5a1e 873c 9626 113d df3f cd3c
0.021231115 0.02433591 0.025445012 0.022854833 0.01876405 0.022527074 0.024704156 0.029819805
0.020458154 0.023167646 0.021526676 0.01900094 0.015004628 0.022519436 0.025437621 0.024925545
0.024981113 0.02209476 0.023277894 0.023862345 0.016246386 0.024692882 0.026232978 0.03425341
0.02014789 0.019934434 0.019912414 0.026002523 0.024288258 0.016493965 0.03543719 0.02505487

_classifier.1._gate.4.weight f4 [256, 32]
00000000: 87f0 383e 6b76 913e 0897 8f3e e94c c53d
00000010: 915e 3fbd cfe4 9b3d 225e d33d bfed cd3e
00000020: c6cc 553e 93eb 623e a064 e33d dbda 653e
00000030: c791 1d3e 741a e03d 49b5 893e 7dd1 6a3e
00000040: 8665 8d3e 4e97 133e 561b c53d a1cd dd3c
00000050: b2cb 3a3d fafb 583e 5798 40be 2dec ccbe
00000060: 9f0e dd3d d7bf e43c 886d 38bd 0b31 973d
00000070: 1a8e ab3d 85f4 1a3e b792 e8be 4483 733d
00000080: 5a3d 5dbd 80d8 9dbd df4f b4bc 4fb3 f73d
00000090: 9413 cfbd a5d1 233e 8789 eebd d524 2bbc
000000a0: a08d 513e d648 f13d 7029 7ebc e38e 73bd
000000b0: 117c 063c abff 953d a5c8 ae3d ecb8 7f3c
000000c0: cd0a 1e3e cb4a 90bd 66d0 88bd 9ef1 a7bb
000000d0: afbd 9b3d 89a5 20be fe40 8c3c 4f1e f23e
000000e0: d2ab 0cbe a862 3a3a b649 b23c 8e71 f03d
000000f0: 2f49 1fbe 09ee b9bd 3653 eb3e 9d5f 473e
00000100: 5130 a0be 9d2a 99be be3f 8ebe af68 87be
00000110: 2cac 723d bb38 0cbd 2172 40bd 94e9 01be
00000120: c5b7 15be 69b0 84be 12b8 c4bd 9e83 8c3c
00000130: 8f3e 86be a1fa 94be 55fe 6cbe 7c1b 0ebe
00000140: 6c85 97bc 5f04 633b 6ce0 81be 480a 86be
00000150: ef9b f5bd 7144 bebd e565 8e3e 8e86 213f
00000160: f19f 58be 2ca5 27be f774 e4bd 8ac4 85be
00000170: dd4f e3bd 645b cb3d 7f18 9b3e 1e52 cfbc
00000180: aae5 1c3e 824f 9d3e 79b7 483e 83f2 f33d
00000190: e2bb 0dbc 6461 133e 0030 d03d a69b 5a3e
000001a0: cd7a 443e c309 af3e 9c86 8a3d ca72 7f3e
000001b0: 8a11 7d3d ad41 b63e 25a3 fa3d fa29 7e3d
000001c0: c3fe fc3d ae0a 963d 2548 d1bc 76a3 273e
000001d0: 7fbf 123d 2c92 c03e 4535 69be 5656 c2be
000001e0: 2419 593e 0f2a 89bd efd1 15bc 21a4 153e
000001f0: 37da 9b3d 907d 583e 8587 dfbe df43 aa3d
00000200: ef3d 81be 1ded 8dbe d92d 7abe f670 00be
00000210: ba37 62be bee6 203d 567c 2cbe 1109 9cbe
00000220: 3818 c1bd 83a9 86be 4473 60bb bdfc afbd
00000230: 8d41 8b3d ce27 bfbd cd80 63be a69a 52be
00000240: a99b 8fbe 8cd1 96be c27c 25bc a4bc 71be
00000250: 3b94 d3bd f3f6 2bbe 6bff 533e 6cb8 b83e
00000260: b746 61bd a553 c5bd 9d83 1bbe 037f 52be
00000270: 6cd3 3fbe 17b1 b7bd e41c 893e 40a7 acbd
00000280: 03a1 3d3d ea19 5c3e 7d3e 9b3e 88fc 893e
00000290: 4391 693e 6d6d 013e 9087 8c3e ecdc b23e
000002a0: 34ca cd3d de7b 123e 506e 523e 2f47 ab3c
000002b0: 22e7 01be 84d2 5d3e 2e17 e23d 4914 003e
000002c0: 186d bb3e c0ba a93e 208f 653e 512c 033e
000002d0: 5dff 383b 1262 793e 0b0c 9fbe 14d8 34bf
000002e0: d8c1 463d 89aa ba3c 32b1 a33e 6914 9c3e
000002f0: ed95 c33d 0b8e 473e be5d 32bf 4731 b63e
00000300: e743 023e 464a 543e 7776 ea3e fccf 1e3e
00000310: c835 0a3e e27a a43d deb7 8e3e d4a8 c53e
00000320: dd22 7e3e 0a31 723e 2b04 9d3e ca53 7a3d
00000330: e3f6 9b3d f27e 45bc 4dad 2e3e 850b 9e3e
00000340: a01a ab3e abf2 ce3e 81fc 163d 6017 c03e
00000350: a5ac cb3d 162e 693e f0a3 71be 05aa d5be
00000360: d5b3 4e3e acd3 093d 09b1 723e 88f8 993e
00000370: 98df 0ebd 962e 323e c9c4 a8be b32a c13d
00000380: 8224 e4bc e3b6 83be f738 babd afaa 9fbe
00000390: 9ea8 febb eeaf a1bc 7c82 8bbe 88f9 87be
000003a0: 02ff 45bd dda8 37be 6e41 6dbe 3045 7ebe
000003b0: 25ae dbbc b940 19bd eaf4 a6be 4ca4 3fbe
000003c0: b20a 40be 42b6 b7bd c114 a5bd 5b05 50be
000003d0: 3d01 58be e117 4abe bd62 a03e 0876 f03e
000003e0: 8ea8 21be 8aba 75be 626b 8bbe 1638 1dbe
000003f0: b300 92be 046a 2fbe a2ca 1a3f 8ce9 babc
0.18060504 0.28410658 0.28044915 0.0963381 -0.046721045 0.07612001 0.10320689 0.40220448
0.20878896 0.22160177 0.11103177 0.22446768 0.15387641 0.109425455 0.26896122 0.22931476
0.2761652 0.14413187 0.096243545 0.02707559 0.045604415 0.21189871 -0.18808113 -0.40023938
0.107938044 0.027923508 -0.045026332 0.07382401 0.08376713 0.1513234 -0.45424435 0.059451357
-0.054013588 -0.0770731 -0.022010742 0.12094747 -0.10111156 0.15997942 -0.11647325 -0.010445793
0.20464182 0.117814705 -0.015512809 -0.05946244 0.008208291 0.073241554 0.08534364 0.015608054
0.15433808 -0.070455156 -0.06680374 -0.0051252386 0.07604539 -0.15688147 0.017120834 0.4728875
-0.13737419 0.0007110038 0.021763664 0.11740409 -0.15555261 -0.09078605 0.45961922 0.19470067
-0.31286862 -0.29915324 -0.27783006 -0.26447055 0.059246227 -0.03423379 -0.04698384 -0.12686759
-0.14620884 -0.2591584 -0.09605421 0.017152604 -0.26219603 -0.29097465 -0.23143895 -0.13877672
-0.018496238 0.0034640057 -0.25366533 -0.2617972 -0.119926326 -0.09290398 0.27812114 0.6309594
-0.21154763 -0.16371602 -0.11155122 -0.2612651 -0.11099217 0.09929541 0.30292127 -0.025307711
0.15321985 0.30724722 0.1960124 0.1191149 -0.008650752 0.1439262 0.10165405 0.21348438
0.1918747 0.34187135 0.06763956 0.24946132 0.061784305 0.35596982 0.122381486 0.06205175
0.123532794 0.07326256 -0.025547097 0.16370949 0.035827156 0.3761152 -0.22774227 -0.37956494
0.21200997 -0.06697475 -0.00914429 0.14613391 0.076099806 0.21141648 -0.4365808 0.08313727
-0.25242564 -0.27719966 -0.24431552 -0.12543091 -0.2209157 0.039282553 -0.16844305 -0.30475667
-0.094284475 -0.26301202 -0.0034248391 -0.08593128 0.06799612 -0.09333764 -0.22217102 -0.20566806
-0.28048447 -0.29456747 -0.010100545 -0.23607117 -0.10331007 -0.16793422 0.20702903 0.36078203
-0.05499908 -0.096350946 -0.15186925 -0.20556264 -0.18732995 -0.08969324 0.26779854 -0.08430338
0.04629613 0.2149426 0.30321112 0.2695048 0.22809319 0.12639399 0.27447176 0.34934175
0.10048333 0.14305064 0.20549893 0.020907966 -0.12685826 0.21662337 0.110395774 0.12507738
0.3660667 0.3315029 0.22417879 0.12809874 0.002822838 0.24353817 -0.31063876 -0.7064221
0.048524708 0.022786396 0.31971127 0.30484322 0.095500804 0.19487779 -0.6967429 0.3558447
0.12721215 0.20731458 0.45793507 0.15509027 0.13497078 0.080312505 0.27874655 0.38605368
0.24817987 0.2365152 0.30667242 0.061115064 0.07615449 -0.012054192 0.17058297 0.30868164
0.3341875 0.40419516 0.0368619 0.37517834 0.09945039 0.22771487 -0.23597693 -0.41731277
0.20185788 0.03364913 0.23700346 0.30072427 -0.034881204 0.17400584 -0.32962635 0.09431972
-0.02784944 -0.2572547 -0.090928964 -0.3118491 -0.0077715656 -0.01973721 -0.2724799 -0.26557565
-0.048338898 -0.1793551 -0.2316949 -0.2483108 -0.026816437 -0.03741524 -0.3260873 -0.18715018
-0.1875408 -0.0897031 -0.08060599 -0.20314543 -0.21094222 -0.19735672 0.3132533 0.4696505
-0.15786955 -0.2399694 -0.27230364 -0.15353426 -0.28516158 -0.17130286 0.60465443 -0.022816442

_classifier.1._gate.4.bias f4 [256]
00000000: 058a 26be 978c 973e 4934 cb3e 1165 a7be
00000010: 7a9b 3b3e 8354 acbe 1c43 8bbe e3fc f73d
00000020: 63ce bbbe 8cf3 acbe c9d4 58be 8ed1 6fbe
00000030: c3e0 323e a40b 963e 3356 7b3e 9473 00bf
00000040: d864 debe f4c4 3dbc 819f 133e 02ca ee3e
00000050: bf32 49be 70ba b13d 101b c2be 0669 e53d
00000060: 5d08 82be d72c 50be 8689 e5be 3b14 963e
00000070: ea0e a43d e6ca 99bc 4fa6 23be 31fa 9bbe
00000080: edbf c2be bde6 c73e 58ed debe 1bc1 afbd
00000090: 1828 923e 4b29 f5be 5c6d 4dbe 6314 37be
000000a0: 851b 91be 9359 763e d65e f3bd bccc 97be
000000b0: c304 c1be bbd3 0d3e c3c1 b73e 5dde 573e
000000c0: 42d4 c3be 02c9 dfbe ebd6 06be 2738 48be
000000d0: e816 54be 9b52 02be 9187 153e 458c 06bc
000000e0: 2d10 6a3e 2cf6 91be c3a3 16be 72d3 96be
000000f0: 43f7 623c 2e90 903d 1216 e9be cc4e edbe
00000100: 01ef a7be c83e b93d 3ebb c4be 0d52 503e
00000110: 8286 e0be 118b b2be 20ba dcbe ae95 4dbe
00000120: 8b51 55be 00ce d8be 3e61 3dbd 88ae 00bf
00000130: 9f8c 9cbe 656d 51be 71ff b0be 678e a4be
00000140: de4a 19be c071 23be a50a 7cbe 166e 82be
00000150: c0f3 d9bd 887c a3be 22fa adbe 4f2c 00be
00000160: 1e08 c1be 3aa9 06bd f7a0 72be 4a7e 5ebe
00000170: 06ca 31be a097 c83d 3c8a 2b3f f98b 25be
00000180: 841d 753e 1a52 a5be c25a 90bd 7911 4fbd
00000190: ea0b 8bbe 5620 aabe 111c a1be c382 563e
000001a0: f9ff 4b3e 0f63 9bbe 67af 7a3c 30f0 603c
000001b0: 7081 583e 68ce 44be a7cd babe 6385 21bf
000001c0: 6d07 cb3e ce01 df3c e343 6d3d 48e8 06bf
000001d0: 977f 0cbe 1479 ed3d 36e6 ebbe 2ee7 a1be
000001e0: f9af c8be 2c81 01bf 3b1b b73c 4f03 25bd
000001f0: 199f cbbe 1473 e1bd 9177 c8be e408 56be
00000200: bf40 27be 89dd c13e e779 2f3f 75ea aebe
00000210: 9995 70be 0e7a 8ebd a999 383f 4025 a7be
00000220: bf4d c9be b060 b2be d680 843e 5b48 91be
00000230: 068b 52be 0dc2 303f d55c 53be 6c1d a6be
00000240: a242 66be f15c 253e ab5c 133f c256 70bd
00000250: 55c2 abbe 7f91 023f 29c5 a9be ce84 8d3d
00000260: 02b3 e6be 77ff c93e eea8 b4be 5b48 233f
00000270: 71dd 7a3e 82b8 523e bad4 be3e 8e90 86be
00000280: e964 f7be a37c adbe 7658 133f 2e61 30bc
00000290: 6055 08be bbc9 c33e bd4e bbbe a905 04bd
000002a0: b616 053e 6581 ec3e 3df0 8e3e 2c49 b9be
000002b0: 4871 20be 1f0e c23e 2dd7 163f dfad 163e
000002c0: 17e2 36be 4f33 ee3e eb07 bb3e b98a 92bd
000002d0: d4dd cbbb beeb 60be c572 aabe f343 803d
000002e0: 67d9 8fbe 7d32 4a3e 60ee 64bd 14d4 3c3e
000002f0: 476f 193e 89a9 ad3d f7ae 8b3e 4c1a 9bbe
00000300: baab 89be ad96 c3be be58 f0be ff7c 01be
00000310: a19d 873c a349 02bf f349 8fbe 3546 9ebd
00000320: 1e64 8abc c3db 73be f48b f1ba 9c99 a13d
00000330: 9b22 e3be 6890 543d b5b6 c1bd 234f fdbe
00000340: 3dd4 393f c4c8 85be bb3e 143e 2fff b0be
00000350: 743b d8be 9fd7 92be 78c4 9abe f378 12be
00000360: fcf9 8abe fd1d 83bc caa9 b53e f50b bcbe
00000370: f853 c6be 8a02 293f 32c2 2b3f 04ad 5ebe
00000380: 89a2 c3be 2598 bb3e 57f9 77bd 7397 cdbe
00000390: fbd2 0abe 854c 5bbe f0f2 19be 5d88 77bd
000003a0: a452 bbbe 7b76 7d3c b99b 843e 9250 0b3e
000003b0: 6352 5e3e 291f 513e f14e 8bbe 7528 d4be
000003c0: 892c 0bbd dad8 473e 83dc 933e 4b0e 0abf
000003d0: abd6 873e a24c 88be 18d5 c1bd 1f48 d8be
000003e0: 83db 9dbd 0254 cebe 97fc 403e 23cb 4a3e
000003f0: 0dd9 3d3e 4c77 d5be b614 bdbe 35b8 d9be
-0.16263588 0.2959945 0.39688328 -0.32694295 0.18321028 -0.33658227 -0.27199638 0.12108781
-0.36680898 -0.33779562 -0.21174921 -0.23419783 0.17468552 0.29305756 0.24544601 -0.5017636
-0.43436313 -0.011582602 0.14416315 0.46638495 -0.19648264 0.08678138 -0.37911272 0.11201672
-0.25397006 -0.20329605 -0.44831485 0.2931231 0.08010657 -0.018773507 -0.1598141 -0.30464318
-0.38037053 0.39043227 -0.43540454 -0.08581754 0.28546214 -0.47883067 -0.20061249 -0.1787887
-0.28341308 0.24057607 -0.11883323 -0.29648387 -0.37698945 0.138503 0.35890016 0.21080919
-0.38247877 -0.43708044 -0.13167922 -0.1955267 -0.20711863 -0.12726824 0.14602496 -0.008212154
0.22857733 -0.28508127 -0.14710908 -0.29458195 0.013852897 0.0705875 -0.4552465 -0.4634918
-0.32799533 0.09045178 -0.38424104 0.203438 -0.4385262 -0.34871724 -0.43110752 -0.2007663
-0.20831887 -0.42344666 -0.046235316 -0.50266314 -0.30576035 -0.20451887 -0.34569886 -0.32139894
-0.14969966 -0.15961361 -0.24613436 -0.25474614 -0.10642195 -0.31930947 -0.339799 -0.12516902
-0.37701505 -0.03287623 -0.23694216 -0.21727863 -0.17362222 0.09794545 0.67007804 -0.16166677
0.2393704 -0.322892 -0.07048561 -0.050553773 -0.27157527 -0.33227795 -0.31466725 0.20948319
0.19921865 -0.30349013 0.015300608 0.01372914 0.21143126 -0.19219363 -0.36485025 -0.63094157
0.39654103 0.02722254 0.05792607 -0.52698183 -0.13720547 0.115953594 -0.46074075 -0.3162169
-0.39196756 -0.50587726 0.022351852 -0.04028636 -0.3976982 -0.110082775 -0.39153722 -0.20901829
-0.16333292 0.3786433 0.68545383 -0.34163252 -0.23494567 -0.06956874 0.72109467 -0.32645607
-0.39317128 -0.34839392 0.25879544 -0.28375515 -0.20560846 0.690461 -0.20640881 -0.32444322
-0.22486356 0.16148736 0.57563275 -0.05867649 -0.335467 0.5100326 -0.33158234 0.06910096
-0.45058447 0.39452717 -0.35285133 0.6378228 0.24498536 0.20578197 0.37271672 -0.2628216
-0.48319176 -0.33884153 0.57556856 -0.010765357 -0.13313818 0.38239846 -0.3658351 -0.03223196
0.12996945 0.4619247 0.27917662 -0.36188638 -0.15668213 0.379014 0.5892208 0.14714764
-0.17859684 0.4652352 0.36529478 -0.071553655 -0.0062215123 -0.21964929 -0.33290687 0.0626296
-0.28095552 0.19745822 -0.055891395 0.18440276 0.14983855 0.08479602 0.27281925 -0.302935
-0.2688883 -0.38200894 -0.46942705 -0.12645338 0.016554656 -0.5089361 -0.27986106 -0.07728235
-0.016893443 -0.23814301 -0.001842855 0.07890627 -0.4436234 0.05189553 -0.09458677 -0.4947444
0.72589475 -0.26129735 0.14477055 -0.3456969 -0.4223286 -0.2868013 -0.3022802 -0.14303951
-0.27143848 -0.01600551 0.354811 -0.36727872 -0.38735938 0.660195 0.67093194 -0.21745688
-0.38209942 0.36639515 -0.060540523 -0.4015461 -0.13557045 -0.21415909 -0.1503408 -0.06043278
-0.36586487 0.0154701425 0.25900057 0.13604954 0.21711116 0.20422043 -0.27208665 -0.41437116
-0.03397802 0.19516316 0.28879175 -0.5392806 0.26530966 -0.26620966 -0.094644725 -0.42242524
-0.07707884 -0.40298468 0.18846355 0.19804053 0.1853983 -0.4169258 -0.36929864 -0.4252335

_classifier.2.weight f4 [2, 256]
00000000: 34c3 f0bd d564 41be dbb6 9cbe 9cb5 253d
00000010: a40e 6ebe d2c0 5ebe c230 983e 1ce0 a13e
00000020: 965d 7a3e 10e8 0f3e 647d 66bd 37bb 08be
00000030: 6ec3 3cbe 7967 87be 2f0d 41be a33b 8a3e
00000040: b2da 37be eeab 6abc 2f8e a9be 4526 9bbe
00000050: 10cd 233e 0d20 f6bd a312 9c3e a4eb 833e
00000060: a49d 663e 63c8 063e 27a6 87be 9e3c 85be
00000070: 81b2 dbbd 8de2 b6bc 41c3 633d 0e1f 943e
00000080: 95ec 9c3e 7e6d 6d3e 99ee b83e a67a 3fbd
00000090: e321 7b3e 956c 793e c5a9 39be 1162 70bd
000000a0: a834 04be e3ae a8be d75a debd d774 61be
000000b0: 6815 1dbe 8a2f d9bd 419c 80be 0e11 8f3e
000000c0: aba1 87be 076a f63e 2b45 bb3b a2e3 b93d
000000d0: 19c7 dd3d 8dd5 c5bd a52b 49be cd24 13bd
000000e0: 7bb1 763e ad1c 29be c348 a83d bd7e 83be
000000f0: a75e a3bd c4cd df3c 72ec 8ebe 1c65 393e
00000100: cff3 02be 096b 533e 1dfc 823e 2bf3 863e
00000110: 479d 5ebe 9c93 f93d a73f 463e c7d5 7abe
00000120: f6b1 81bd ba30 12be 0e59 2abd e0e5 93be
00000130: ca12 833e 0b77 ecbd c050 35be 3660 813e
00000140: a3fa d53d 744b 3a3e 82a5 dcbd 1dfa 78be
00000150: 8068 7e3e f5fb 41be af12 8dbe 2d2f debc
00000160: b32b 7cbe e454 623d 1dca 3c3e 30db 66be
00000170: 31b8 c33d cf88 f4bd 17ad 05bf 44a9 f73c
00000180: 5900 6b3e 9165 363e fe04 853d 6172 4f3d
00000190: d9d1 b0bd 59bb 55be ac81 f2bd 671d a73e
000001a0: 12d6 6cbe fd84 8abd 51c9 433d a20d 013e
000001b0: 756f bb3e ed0c b03d 337f 76be 1735 623e
000001c0: ba54 8b3e 3aa0 aebc 70cf 163c 2371 913e
000001d0: 2cb3 14bd 9515 8c3e 8b7b 45be 3b18 523e
000001e0: 7927 27be 30f0 64be 74c8 b83c 369d 78bd
000001f0: 5b4f 89be 13b5 b93d 0808 3a3e f9c5 433e
00000200: 446d 8cbc 8151 8cbe 3ea6 12bf 009d 2e3d
00000210: 262a 0b3e 7abe 0abe fc6b 10bf 37e9 b6bd
00000220: 6dc7 9b3e 8e9d 1a3e 0a1a 06be d61c c1bd
00000230: 5a40 3e3d 0f06 18bf 2ca8 863d 331f 883e
00000240: a79c afbd 41c1 0dbe 7a16 ecbe 8001 e43d
00000250: 3c8b 933d 9e04 95be 62b8 a13e 36d9 4d3e
00000260: 1918 603e 2dff a0be 009d 19be 4501 01bf
00000270: c7ba 8abe 5070 19be aab4 5abe 48d5 873e
00000280: 8931 7d3e f889 a0bd aba6 dfbe 0ca1 7cbe
00000290: 0992 81bd a65f c3be 46ea d5bd a66c 213e
000002a0: 4355 a5be 338a bebe e642 2dbe 3d36 1dbe
000002b0: a4ac 9ebd 9f81 97be 4eca f3be f215 233e
000002c0: d66a 45be 8ea7 05bf e8cd bbbe 3beb d7bd
000002d0: 7d83 b6bd 0b50 22be 8e3c 363e 6e64 05be
000002e0: e142 07be d620 773e 7eba d53c 58f0 5e3e
000002f0: bbbc 18be 9e9c 27be 531d dd3e 059e 163e
00000300: 6c04 03be d352 c8bd c400 c23d e70f 0dbe
00000310: 4012 5abc 95fe f13d 8faa 093e 6fa8 15be
00000320: ecd1 013e bff1 23be 71dc f6bd 0881 4d3e
00000330: 6492 7e3e 6693 113e c905 e3bd 5315 743e
00000340: 0a67 cbbe e454 803e e349 403e 4ee6 12be
00000350: 14aa 623e 6d33 4abe c72a 28be 9547 60bd
00000360: cadd 40be 48d4 b1bd 2c48 27be 7d96 97bd
00000370: 4523 8c3d cd32 1fbf e11d 20bf 776e 93bd
00000380: f87d 22be d832 cfbe ac0c 0cbd 80ca 6d3d
00000390: db50 19be 73fd bdbd e8d7 80bd 97b1 ffbd
000003a0: dc3b 193e b44a 8b3d ebfb 2fbe e593 6a3d
000003b0: 6460 6c3e 64af 4cbe 12b3 1abe 99db 8c3e
000003c0: 6ee9 80bd 0f92 cbbe 79ac 6ebe fd4e 303e
000003d0: 9657 fcbe 0327 53be a845 06be 885e 493e
000003e0: 818f 10be a780 febd 9c44 a9be c7fe 0dbe
000003f0: 86a7 733e 51fe 163e 2279 4f3e 7e56 b53d
-0.11755982 -0.1888612 -0.30608258 0.0404564 -0.23247772 -0.21753243 0.297247 0.31616294
0.24449763 0.14053369 -0.056271926 -0.13352667 -0.18433926 -0.2644613 -0.18852685 0.26998624
-0.1795452 -0.014323218 -0.3311629 -0.30302635 0.15996194 -0.12017832 0.3048297 0.25765717
0.22521073 0.13162379 -0.26493952 -0.2602281 -0.10727406 -0.022324825 0.05560613 0.28929943
0.30649248 0.23186299 0.36119536 -0.046747826 0.24524646 0.24357827 -0.18131168 -0.058687273
-0.12910712 -0.32945928 -0.1085717 -0.22017227 -0.15340197 -0.106047705 -0.25119212 0.279427
-0.2649053 0.48127767 0.0057150326 0.09076621 0.108289905 -0.09659872 -0.19645555 -0.035923768
0.24091141 -0.16514845 0.08217003 -0.2568263 -0.07977038 0.027319796 -0.27914768 0.18104976
-0.12788318 0.206463 0.25582972 0.26357397 -0.21739684 0.121863574 0.19360219 -0.24495612
-0.063327715 -0.142764 -0.041588835 -0.28886318 0.25600272 -0.11546143 -0.17706585 0.25268716
0.10448196 0.18192846 -0.107737556 -0.2431416 0.24844551 -0.1894377 -0.27553317 -0.027122105
-0.24626045 0.05525674 0.18436475 -0.22544551 0.09556616 -0.11940157 -0.5221724 0.03023208
0.22949351 0.17812182 0.06495093 0.05064619 -0.08633775 -0.20872249 -0.11841139 0.3263962
-0.23128536 -0.06763647 0.047799412 0.12602857 0.36608472 0.085962154 -0.2407196 0.22090565
0.2721308 -0.021316636 0.00920473 0.2840663 -0.036303684 0.27360216 -0.19285409 0.20517056
-0.16323651 -0.2235725 0.022556521 -0.060696803 -0.26818356 0.0906774 0.18167126 0.1911849
-0.017141946 -0.27405933 -0.57284915 0.042630196 0.13590297 -0.13549224 -0.5641477 -0.08931201
0.30425587 0.15099165 -0.1309587 -0.09429328 0.04644809 -0.59384245 0.06575045 0.26586303
-0.08574801 -0.13843252 -0.46110898 0.111330986 0.07204291 -0.29105085 0.31585985 0.2010239
0.21884193 -0.31444684 -0.15001297 -0.5039256 -0.27095625 -0.1498425 -0.2135798 0.26529908
0.24725927 -0.078388155 -0.43681845 -0.2467081 -0.06326682 -0.3815891 -0.10445075 0.15764102
-0.32291612 -0.37214813 -0.16920051 -0.15352722 -0.07747772 -0.2959108 -0.47615284 0.1592634
-0.19279036 -0.52208793 -0.36680532 -0.105429135 -0.08911798 -0.15850846 0.17796537 -0.13026592
-0.13209106 0.2413362 0.026089903 0.21771371 -0.14915745 -0.16368338 0.43186435 0.14708717
-0.12794656 -0.097814225 0.09472802 -0.13775598 -0.013310015 0.11816136 0.13443969 -0.14615034
0.12677735 -0.16010188 -0.120537646 0.20068753 0.24860531 0.14216384 -0.11085088 0.2383626
-0.3972705 0.25064766 0.18778186 -0.14345667 0.22135192 -0.1974618 -0.16422568 -0.054755766
-0.18834606 -0.086830676 -0.16336125 -0.0740175 0.06842665 -0.6218689 -0.6254559 -0.07198804
-0.15868366 -0.40468478 -0.034191772 0.058054447 -0.1497225 -0.09276857 -0.06291181 -0.124850444
0.14964241 0.06801358 -0.17185943 0.05726995 0.23083645 -0.19988781 -0.15107372 0.2751129
-0.06294523 -0.3975987 -0.2330798 0.17217632 -0.49285573 -0.2062035 -0.13112509 0.19664967
-0.14117242 -0.12426882 -0.33060157 -0.13866721 0.23794374 0.14745452 0.20261052 0.08854388

_classifier.2.bias f4 [2]
00000000: 7a10 e5bd 02f9 fd3d
-0.11184783 0.1240101
