outputs/seed42_detector.pth (torch, 407116 bytes, 10 tensors)

_rnn.weight_ih_l0 f4 [384, 1]
0.04454947 0.05535449 -0.039052237 0.065982714 -0.53455144 -0.4591114 -0.07095908 0.032129414
0.1058592 -0.06288556 0.06145555 -0.038993333 0.042362794 0.03529135 0.06936003 -0.028289001
-0.2039768 0.027838552 -0.07322116 0.012812172 -0.044786148 0.0033971374 -0.1598258 -0.023574306
-0.12792379 0.19257857 -0.020625137 -0.06243316 -0.027215607 -0.06533974 0.028536888 -0.051577475
0.25686178 0.008034277 -0.02517989 0.034787126 -0.1764011 0.073258094 -0.0871641 -0.03223309
0.021644877 -0.03378938 0.039436698 0.06181753 0.008240737 -0.04140839 0.03136632 -0.06642992
0.05111017 -0.10869745 -0.07178826 -0.096880764 -0.039826386 0.06666753 -0.23873694 -0.05566292
0.023796286 -0.23677067 0.044990778 -0.10491908 0.042120747 -0.5071043 -0.05701335 -0.058046885
0.013859866 -0.012999374 -0.0073750983 -0.3119931 -0.0056407955 -0.07770403 0.03528583 -0.010592366
0.2776859 -0.14139025 -0.1868653 -0.06989435 -0.11676793 0.03340096 0.034115404 0.054808836
-0.054192517 -0.25331828 0.044768818 -0.04563402 0.049508486 -0.08803804 0.15009283 -0.66130376
-0.16113208 0.02390898 -0.07022634 -0.110914946 -0.3052701 0.06616533 -0.0540833 -0.05954578
0.1268804 -0.1472085 -0.024341658 -0.10384934 -0.052331332 -0.05202863 -0.022112796 -0.045442
0.02739666 -0.06361403 -0.18400328 -0.10201858 -0.07656402 -0.041816633 0.11111778 -0.07692284
0.092288986 -0.0874833 -0.05274216 -0.019144375 0.06619224 -0.05981382 -0.04985056 -0.06436111
-0.036433082 -0.026104974 0.005392376 -0.091422014 -0.09229992 -0.09005601 -0.11895365 -0.080521934
0.1008316 -0.014011452 0.1670819 0.032843884 0.4117285 0.5520522 -0.0062402757 -0.023306737
-0.1282138 -0.089493215 0.019043474 0.02679601 0.06780249 -0.10539192 0.038640343 -0.040422887
0.3431282 0.02055585 0.10001514 0.0855663 0.09493879 -0.041981075 0.2675629 0.18540752
0.065541685 -0.21195515 0.08644693 -0.060810897 0.10570019 0.06484698 0.22507992 -0.019752221
-0.076009415 0.024996601 -0.0009068604 -0.076796174 0.37045926 0.098045096 0.024751576 0.1992254
0.027483707 -0.050407983 -0.05308419 -0.016096126 0.10936454 -0.022630066 -0.08326499 0.13851777
-0.022090625 0.1340158 0.056837734 0.02240382 0.0462599 0.05624969 0.3526998 0.04049007
0.15669899 0.37560415 0.054529816 0.0079241535 -0.025673065 0.45672876 0.043927167 -0.01930304
0.08210992 0.103462614 0.14118901 0.27742296 0.10528882 0.012515291 0.14488071 0.23107971
-0.21281266 0.046337474 0.23284201 0.024099676 0.10698942 -0.053591624 -0.045695137 -0.036185145
-0.043310113 0.25444034 0.046947744 0.033133753 -0.10119013 0.031727314 0.029117499 0.66858464
0.22245608 0.018268963 0.30056962 0.12420512 0.36572894 0.0437339 -0.021271693 -0.004330641
-0.14080174 0.26457044 0.06971195 0.054789495 -0.05657558 -0.027216954 -0.06576648 0.08721616
0.010332083 0.1433247 0.17451927 0.0747349 0.0048566204 -0.041327365 -0.07068205 0.058540978
0.04332611 -0.027605744 -0.0039547277 -0.026815098 0.050441865 -0.084645316 0.0046787476 0.02535673
0.031093054 0.13378042 -0.025424572 0.06741946 0.10608357 -0.026750615 0.06585778 -0.086418994
00000000: 8179 363d 64bb 623d 3df5 1fbd f221 873d
00000010: 5dd8 08bf a610 ebbe fe52 91bd 229a 033d
00000020: b5cc d83d 25ca 80bd d1b8 7b3d 79b7 1fbd
00000030: 9c84 2d3d aa8d 103d a20c 8e3d 56be e7bc
00000040: 4bdf 50be ad0d e43c faf4 95bd 25ea 513c
00000050: ae71 37bd 82a2 5e3b 60a9 23be e71e c1bc
00000060: 74fe 02be 5133 453e 0cf6 a8bc eab9 7fbd
00000070: 44f3 debc d7d0 85bd 31c6 e93c e742 53bd
00000080: 6383 833e 33a2 033c 0f46 cebc f27c 0e3d
00000090: 7da2 34be 5708 963d 1783 b2bd d806 04bd
000000a0: 9950 b13c bc66 0abd 6088 213d 6134 7d3d
000000b0: 2804 073c d89b 29bd f879 003d 690c 88bd
000000c0: e658 513d c59c debd b905 93bd 6c69 c6bd
000000d0: fe20 23bd fc88 883d 7577 74be cdfe 63bd
000000e0: 6ef0 c23c 0374 72be 4048 383d d1df d6bd
000000f0: ce86 2c3d 96d1 01bf d586 69bd 92c2 6dbd
00000100: 7e14 633c 54fb 54bc cfaa f1bb 8fbd 9fbe
00000110: 6cd6 b8bb 4a23 9fbd e087 103d 9a8b 2dbc
00000120: d92c 8e3e 9bc8 10be 9e59 3fbe c524 8fbd
00000130: 0624 efbd 72cf 083d 98bc 0b3d 3b7f 603d
00000140: f9f8 5dbd efb2 81be 825f 373d bdea 3abd
00000150: 69c9 4a3d 4a4d b4bd efb1 193e 344b 29bf
00000160: cfff 24be c4dc c33c d4d2 8fbd 6027 e3bd
00000170: 5d4c 9cbe b081 873d 7386 5dbd 47e6 73bd
00000180: f0ec 013e d3bd 16be 2868 c7bc f6ae d4bd
00000190: 6159 56bd f91b 55bd e525 b5bc 6421 3abd
000001a0: f66e e03c 1348 82bd 5b6b 3cbe 1eef d0bd
000001b0: 99cd 9cbd eb47 2bbd b891 e33d b989 9dbd
000001c0: 0202 bd3d 722a b3bd 2a08 58bd aad4 9cbc
000001d0: cc8f 873d 56ff 74bd 1a30 4cbd c2cf 83bd
000001e0: db3a 15bd 19da d5bc 87b2 b03b 773b bbbd
000001f0: be07 bdbd 496f b8bd f99d f3bd afe8 a4bd
00000200: cc80 ce3d 4a90 65bc 8517 2b3e 4f87 063d
00000210: 14ce d23e 4b53 0d3f 3a7b ccbb c5ed bebc
00000220: 7a4a 03be 3848 b7bd 0f01 9c3c 4e83 db3c
00000230: 08dc 8a3d b8d7 d7bd 5645 1e3d 7892 25bd
00000240: 80ae af3e be64 a83c bdd4 cc3d 623d af3d
00000250: 456f c23d 59f4 2bbd 01fe 883e 78db 3d3e
00000260: b83a 863d c50a 59be 170b b13d d914 79bd
00000270: 5779 d83d 7ece 843d 5a7b 663e 69cf a1bc
00000280: d3aa 9bbd acc5 cc3c 5fba 6dba 5047 9dbd
00000290: d6ac bd3e decb c83d d1c3 ca3c be01 4c3e
000002a0: 8325 e13c 9a78 4ebd cf6e 59bd 06dc 83bc
000002b0: 84fa df3d b062 b9bc d686 aabd 9ad7 0d3e
000002c0: 66f7 b4bc 703b 093e afce 683d 3788 b73c
000002d0: 057b 3d3d 1366 663d 1195 b43e ead8 253d
000002e0: b375 203e 304f c03e a85a 5f3d 4fd4 013c
000002f0: 5250 d2bc 5ad8 e93e f9ec 333d 6921 9ebc
00000300: 3f29 a83d 35e4 d33d da93 103e 620a 8e3e
00000310: aaa1 d73d ef0c 4d3c 9c5b 143e 29a0 6c3e
00000320: 90eb 59be 5dcc 3d3d 236e 6e3e af6c c53c
00000330: 451d db3d e482 5bbd d32a 3bbd e036 14bd
00000340: f265 31bd 0146 823e 474c 403d 42b7 073d
00000350: c53c cfbd 80f4 013d d287 ee3c 5d28 2b3f
00000360: 87cb 633e cba8 953c 43e4 993e 415f fe3d
00000370: d340 bb3e 5122 333d f941 aebc 0de8 8dbb
00000380: 552e 10be c775 873e 24c5 8e3d f36a 603d
00000390: ccbb 67bd 17f6 debc 94b0 86bd 639e b23d
000003a0: e647 293c b6c3 123e 2eb5 323e 9c0e 993d
000003b0: 4924 9f3b e246 29bd c0c1 90bd aac8 6f3d
000003c0: b876 313d 7125 e2bc a996 81bb 56ab dbbc
000003d0: 219c 4e3d 865a adbd 2e50 993b ebb8 cf3c
000003e0: dcb6 fe3c bcfd 083e 3147 d0bc 3713 8a3d
000003f0: 5842 d93d 1b24 dbbc 72e0 863d 71fc b0bd

_rnn.weight_hh_l0 f4 [384, 128]
0.003624509 0.079340845 -0.081748106 -0.030663459 0.04051665 -0.006835762 -0.014744729 -0.04052474
0.064837776 0.04227146 0.022815445 -0.055615958 -0.07709668 0.00756206 0.027218807 -0.033475112
-0.034602866 0.058415055 0.0027954096 0.0013275088 -0.021284267 -0.08427772 -0.09157153 -0.034284674
-0.037376445 0.029155618 -0.02530526 -0.036837276 0.09282329 0.03473757 0.070881136 -0.04630641
-0.03660114 0.03026516 -0.059491027 -0.06078543 0.0066501377 -0.024725823 -0.07542 0.058987446
0.07339075 0.019234465 -0.018724458 -0.0859748 -0.038283218 0.020728001 0.047450323 -0.0027899432
-0.029664408 0.041105364 -0.0714993 0.048663136 -0.031120114 0.0039887833 -0.029523315 0.0026328429
-0.01892415 0.05145071 0.0017699472 0.06124298 0.08261968 -0.057566814 -0.055739503 0.06644124
0.06408845 -0.06331353 -0.015230774 -0.099348925 -0.065657735 0.012812113 0.03101466 0.027957944
-0.021664986 0.08785478 0.0031902816 -0.049304407 0.002953787 0.018896831 0.027321374 -0.055813167
0.039365154 -0.055553164 -0.074196555 -0.050715063 0.07912543 0.08227191 0.08557925 0.06559251
0.075947054 -0.0060956534 -0.059235755 0.051381953 -0.034878947 -0.057546597 -0.031558793 0.022020916
0.047344867 -0.043621592 -0.05079909 0.01589858 -0.051150363 -0.06341196 0.043030765 -0.018563578
0.08049651 0.09099413 0.035940725 0.035987556 0.019831546 0.005033459 -0.0034879681 0.009957399
0.034032494 0.08580753 -0.02440867 -0.041625377 -0.015858397 -0.04372394 0.020708026 0.063035965
0.0750744 0.034756582 -0.067132734 -0.039128866 -0.028632887 -0.019590456 -0.0008188816 -0.08478362
0.026672123 -0.06485399 -0.055964142 -0.07444871 0.07429526 -0.08030468 0.06540242 -0.0025847396
-0.008428872 0.05355936 -0.009343061 0.05506683 0.06330419 -0.07583356 0.03358781 0.017926635
0.015240375 0.010397787 0.02026831 -0.041910507 -0.00891095 0.08420262 0.055932745 -0.0003953459
-0.079939574 0.0038100414 -0.0601645 0.07290301 -0.050646674 -0.0061150733 -0.016671726 0.014504197
0.08117544 0.007989973 0.04848026 0.069835864 0.07543471 -0.02906987 -0.019706538 0.04404136
-0.023446012 0.04410225 -0.018390233 -0.05957755 0.03565747 0.014037395 0.039796256 0.092843436
0.061086614 0.08099187 0.0057444 -0.07784736 -0.060835183 -0.055114616 -0.08182449 -0.04474262
-0.07950145 -0.085096195 -0.05344413 -0.08883097 -0.054213326 0.032920036 0.07457614 -0.024615504
-0.02461359 0.047852527 -0.04444534 -0.045849025 0.054667417 -0.07593513 0.011856512 0.082803115
0.015087494 0.025388815 -0.054295115 -0.0017579593 0.007467088 0.023085078 0.032299537 0.07919788
-0.066267975 -0.0022409633 -0.043660216 -0.07015829 -0.008544494 -0.078557335 0.061440915 0.0121203745
-0.044186775 0.047838904 -0.088388965 -0.032485574 -0.014296716 -0.07374852 -0.05492978 -0.01373325
0.06578739 0.08199368 0.058032934 -0.052593775 -0.05949628 0.077924676 0.03279646 0.0007865367
0.011893248 -0.068113394 -0.026970282 0.085046634 -0.024110114 -0.0054282965 -0.07499707 -0.045708872
0.00030450156 -0.05509834 -0.013627036 0.034871235 -0.086846545 0.027902262 -0.05676358 -0.041631173
0.034932196 0.068889424 -0.026710214 -0.03578495 -0.081849426 -0.044773277 -0.08007794 -0.022280307
00000000: 2c89 6d3b 747d a23d 8d6b a7bd ef31 fbbc
00000010: c9f4 253d 87fe dfbb e093 71bc 45fd 25bd
00000020: abc9 843d d724 2d3d 75e7 ba3c 8fcd 63bd
00000030: dde4 9dbd 28cb f73b faf9 de3c 331d 09bd
00000040: bcbb 0dbd a044 6f3d 3133 373b ceff ad3a
00000050: 585c aebc cc99 acbd db89 bbbd 166e 0cbd
00000060: 0b18 19bd c3d7 ee3c fa4c cfbc afe2 16bd
00000070: 231a be3d fb48 0e3d 212a 913d caab 3dbd
00000080: 14eb 15bd a4ee f73c ddac 73bd 25fa 78bd
00000090: 66e9 d93b cf8d cabc cd75 9abd d29c 713d
000000a0: e44d 963d 9991 9d3c 0964 99bc 8e13 b0bd
000000b0: ddce 1cbd c5cd a93c 455b 423d 7bd7 36bb
000000c0: c602 f3bc 195e 283d 3a6e 92bd ff52 473d
000000d0: 9cef febc 57b4 823b e1da f1bc c68b 2c3b
000000e0: d206 9bbc fbbd 523d 93fd e73a ebd9 7a3d
000000f0: 8234 a93d 2ecb 6bbd 1b4f 64bd 5812 883d
00000100: ce40 833d 86aa 81bd 7f8a 79bc 7377 cbbd
00000110: 9077 86bd e6e9 513c 7512 fe3c 0f08 e53c
00000120: c57a b1bc 35ed b33d 0b14 513b 6bf3 49bd
00000130: 5394 413b 87cd 9a3c 13d1 df3c 599c 64bd
00000140: 5b3d 213d b78b 63bd 5df4 97bd 99ba 4fbd
00000150: 830c a23d 2d7e a83d 2c44 af3d 5e55 863d
00000160: 218a 9b3d 0cbe c7bb 31a1 72bd e275 523d
00000170: 3add 0ebd fbb5 6bbd cb43 01bd 3565 b43c
00000180: b1ec 413d 8eac 32bd b512 50bd bd3d 823c
00000190: 0b83 51bd 21de 81bd 0741 303d a512 98bc
000001a0: 5bdb a43d 215b ba3d 9536 133d b067 133d
000001b0: c475 a23c b7ef a43b 6596 64bb 5c24 233c
000001c0: a865 0b3d dcbb af3d b1f4 c7bc 5f7f 2abd
000001d0: 78e9 81bc e017 33bd e1a3 a93c 0019 813d
000001e0: 9bc0 993d eb5c 0e3d e37c 89bd 9745 20bd
000001f0: 848f eabc 2a7c a0bc 37aa 56ba 09a3 adbd
00000200: 7f7f da3c 2bd2 84bd a83a 65bd 9178 98bd
00000210: 1d28 983d c876 a4bd b4f1 853d bc64 29bb
00000220: 4019 0abc 0f61 5b3d a313 19bc c28d 613d
00000230: a1a5 813d a04e 9bbd 5f93 093d e1da 923c
00000240: c4b2 793c 7b5b 2a3c ba09 a63c 5aaa 2bbd
00000250: 3cff 11bc 6c72 ac3d bc19 653d 6e46 cfb9
00000260: 5cb7 a3bd e3b1 793b 0d6f 76bd 2c4e 953d
00000270: e372 4fbd f460 c8bb 2593 88bc 03a3 6d3c
00000280: 4f3f a63d 60e8 023c 3d93 463d 1b06 8f3d
00000290: 837d 9a3d f023 eebc 9b6f a1bc b764 343d
000002a0: da11 c0bc 90a4 343d 1da7 96bc 9707 74bd
000002b0: 910d 123d 1afd 653c 6601 233d b324 be3d
000002c0: f535 7a3d 11df a53d 853b bc3b 706e 9fbd
000002d0: 502e 79bd ddbf 61bd 9993 a7bd 0a44 37bd
000002e0: a8d1 a2bd ea46 aebd 3be8 5abd 03ed b5bd
000002f0: cb0e 5ebd 29d7 063d 60bb 983d 74a6 c9bc
00000300: 71a2 c9bc 0301 443d 510c 36bd 30cc 3bbd
00000310: f1ea 5f3d e183 9bbd d141 423c ae94 a93d
00000320: 8931 773c 34fc cf3c 8e64 5ebd 536b e6ba
00000330: 79ae f43b eb1c bd3c 854c 043d 8032 a23d
00000340: 81b7 87bd 20dd 12bb 0ed5 32bd 26af 8fbd
00000350: 35fe 0bbc abe2 a0bd 78a9 7b3d 8994 463c
00000360: 31fd 34bd baf2 433d 4605 b5bd 980f 05bd
00000370: c63c 6abc 7709 97bd 0dfe 60bd 6d01 61bc
00000380: 8abb 863d 4dec a73d f1b3 6d3d 926c 57bd
00000390: 5fb2 73bd f996 9f3d 9555 063d 962f 4e3a
000003a0: e6db 423c 097f 8bbd c8f0 dcbc ee2c ae3d
000003b0: 9382 c5bc dadf b1bb 1098 99bd 3a39 3bbd
000003c0: 82a5 9f39 ccae 61bd ee43 5fbc 24d5 0e3d
000003d0: 9adc b1bd 4993 e43c ed80 68bd 7385 2abd
000003e0: 1015 0f3d e615 8d3d 61cf dabc 3d93 12bd
000003f0: aca0 a7bd 2f64 37bd e7ff a3bd 3185 b6bc

_rnn.bias_ih_l0 f4 [384]
-0.03839589 0.077827975 -0.0987468 0.0060916375 -0.06619109 -0.07477049 0.07704749 0.010756232
-0.028431375 -0.0020544517 0.03827555 0.022357104 -0.024579043 -0.0027980509 0.06484255 -0.037594642
-0.039692063 0.028632242 0.058890916 -0.08089225 -0.038673826 0.07611489 0.029886052 -0.08932917
-0.035430606 -0.005049387 0.04938528 0.06579775 -0.023197947 -0.021248827 -0.0966374 0.042055503
0.15608151 -0.058082275 0.039348282 0.040280994 -0.052099172 -0.033139497 0.0112043 -0.04339746
-0.08104593 -0.036907844 0.051986773 0.019501008 -0.021771083 0.0069861766 0.12326238 0.044622608
-0.035803333 0.061236594 -0.0009928702 0.0264744 0.0056227134 0.0522107 -0.03128538 0.003557866
0.045588348 0.17706764 0.06608731 0.09798269 0.010876739 0.086797014 -0.0042246585 0.051940523
-0.078989275 -0.004341539 -0.07201538 0.074373655 0.08164679 -0.07503678 0.05639944 0.062704034
0.0605681 0.045766987 -0.007386874 -0.032033395 0.08250767 0.07457457 -0.025829408 0.03030449
0.075239375 0.022704143 0.064685665 0.05303574 -0.017982397 -0.038075265 -0.0070958138 -0.04485361
-0.039095677 -0.08498502 0.055289563 0.036063172 -0.009095038 -0.0420613 0.00918881 -0.061935354
-0.010709226 -0.06824909 0.07453668 -0.007591416 0.055717412 0.015027791 -0.0075163255 0.096523
0.04094073 0.014537597 -0.038891036 -0.05066558 -0.07338529 0.003019838 -0.039189436 -0.06914228
-0.0037396525 -0.0048767673 0.041622844 -0.0851555 -0.024116093 0.14002311 0.013848528 -0.03863944
-0.066411234 -0.04984733 0.08559652 -0.05439598 -0.0725529 -0.055783596 -0.0049755154 0.09013354
0.04174264 0.029992793 -0.016540777 -0.10601625 -0.3911314 -0.3630861 0.020728163 0.0006911896
-0.060788643 0.020859169 -0.09459882 -0.07440887 -0.0114997085 -0.003276828 -0.022492157 -0.09845264
-0.11389544 0.032386817 0.061446015 -0.050719857 0.014830848 0.032985535 -0.1784172 -0.030801317
-0.13721958 -0.1353379 -0.02772787 0.07241735 -0.11057221 -0.118940175 -0.0033454332 -0.08593872
-0.06425823 -0.040409688 -0.084193096 -0.098856285 -0.10696704 -0.11925372 -0.062116142 -0.1255588
0.056818325 -0.14586154 0.0002829025 0.048510514 0.032635108 0.06828103 -0.096971005 -0.0034040087
-0.052081816 -0.11431301 -0.078238286 -0.043496914 -0.011087615 0.06222904 -0.2012878 -0.05597367
-0.1656672 -0.1342015 -0.1139011 -0.07147558 -0.043220494 -0.300065 -0.18296179 -0.08895047
-0.11560425 -0.10228624 -0.18192388 -0.25566015 -0.079814844 -0.05585869 -0.07762612 -0.07569864
-0.11966275 -0.046691168 -0.11641541 0.082665935 -0.08312673 0.066443145 -0.04286953 -0.017822318
-0.03066052 -0.08405256 0.05365644 0.006185271 -0.030933993 -0.12309289 -0.24695465 -0.29410258
-0.15524203 -0.1417191 -0.13266875 -0.07028582 -0.15432748 -0.0065345797 0.010587301 0.004480106
-0.0681562 -0.026027463 -0.024618099 0.07117327 -0.053512614 -0.093498476 -0.059600957 -0.13416053
-0.06868137 -0.10942825 -0.1059974 -0.09969948 0.060694054 -0.039816264 -0.090569414 -0.20890257
-0.034430727 0.033202026 -0.006245567 -0.1325084 -0.12946707 -0.0017075684 -0.045451727 -0.06841339
0.021148263 -0.12335587 -0.07415169 -0.17663375 -0.110823736 -0.0022412417 -0.0538349 -0.05351393
00000000: 0245 1dbd 4664 9f3d c33b cabd 5c9c c73b
00000010: 328f 87bd 4521 99bd 13cb 9d3d e83a 303c
00000020: eae8 e8bc fba3 06bb d3c6 1c3d 3f26 b73c
00000030: fd59 c9bc 815f 37bb 2ccc 843d d7fc 19bd
00000040: 2594 22bd 2a8e ea3c 9a37 713d d6aa a5bd
00000050: 7268 1ebd 20e2 9b3d 98d3 f43c 36f2 b6bd
00000060: af1f 11bd 5475 a5bb 3848 4a3d f9c0 863d
00000070: 9f09 bebc 0512 aebc d4e9 c5bd 6442 2c3d
00000080: d5d3 1f3e aee7 6dbd aa2b 213d affd 243d
00000090: f165 55bd 48bd 07bd 3e92 373c 89c1 31bd
000000a0: 69fb a5bd ae2c 17bd 15f0 543d 94c0 9f3c
000000b0: 4559 b2bc 4cec e43b fd70 fc3d 32c6 363d
000000c0: 84a6 12bd 39d3 7a3d 3223 82ba d7e0 d83c
000000d0: bd3e b83b e3da 553d 1925 00bd 162b 693b
000000e0: d9ba 3a3d 3851 353e c958 873d 26ab c83d
000000f0: 5a34 323c a2c2 b13d 016f 8abb 96bf 543d
00000100: 21c5 a1bd 7843 8ebb cd7c 93bd 3751 983d
00000110: 6f36 a73d e2ac 99bd 1903 673d f96a 803d
00000120: 4216 783d 2a76 3b3d 970d f2bb 7335 03bd
00000130: c8f9 a83d 8dba 983d 3298 d3bc 1f41 f83c
00000140: 1a17 9a3d 0afe b93c eb79 843d 013c 593d
00000150: d24f 93bc cff4 1bbd 0084 e8bb 6bb8 37bd
00000160: ca22 20bd a00c aebd 4f77 623d fab6 133d
00000170: 5b03 15bc 7848 2cbd aa8c 163c edaf 7dbd
00000180: c075 2fbc 2ec6 8bbd b0a6 983d 6ac1 f8bb
00000190: f137 643d 2037 763c 824b f6bb daad c53d
000001a0: 78b1 273d 1a2f 6e3c 354c 1fbd b686 4fbd
000001b0: 074b 96bd 79e8 453b 1a85 20bd 789a 8dbd
000001c0: f514 75bb 4acd 9fbb b77c 2a3d 0266 aebd
000001d0: 1d8f c5bc 3862 0f3e f0e4 623c 6444 1ebd
000001e0: 9d02 88bd b72c 4cbd 3a4d af3d 52ce 5ebd
000001f0: 9d96 94bd 577d 64bd a609 a3bb ef97 b83d
00000200: 55fa 2a3d 72b3 f53c 8680 87bc 0c1f d9bd
00000210: 6042 c8be 6ce6 b9be 1cce a93c f330 353a
00000220: 83fd 78bd d9e0 aa3c 07bd c1bd ad63 98bd
00000230: 4669 3cbc 0dc0 56bb 7941 b8bc 8aa1 c9bd
00000240: 0342 e9bd 0aa8 043d d1ae 7b3d a0bf 4fbd
00000250: 16fd 723c d71b 073d 00b3 36be 0b53 fcbc
00000260: 4a83 0cbe 0596 0abe 8f25 e3bc 8c4f 943d
00000270: af73 e2bd e896 f3bd 0e3f 5bbb a400 b0bd
00000280: d299 83bd a184 25bd 6e6d acbd 2a75 cabd
00000290: 8911 dbbd 4b3b f4bd 7f6d 7ebd 7c92 00be
000002a0: 55ba 683d ba5c 15be 8852 9439 f6b2 463d
000002b0: 64ac 053d edd6 8b3d bc98 c6bd ca15 5fbb
000002c0: be53 55bd f01c eabd 653b a0bd d229 32bd
000002d0: d4a8 35bc e1e3 7e3d 641e 4ebe a644 65bd
000002e0: aaa4 29be 1e6c 09be fb44 e9bd ca61 92bd
000002f0: f907 31bd 1fa2 99be 565a 3bbe aa2b b6bd
00000300: ecc1 ecbd 737b d1bd 414a 3abe e3e5 82be
00000310: f775 a3bd 15cc 64bd 71fa 9ebd e307 9bbd
00000320: be11 f5bd 3d3f 3fbd 346b eebd c24c a93d
00000330: 593e aabd 5813 883d f697 2fbd 1c00 92bc
00000340: c52b fbbc c023 acbd dbc6 5b3d d0ad ca3b
00000350: 4969 fdbc 2018 fcbd aee1 7cbe 9d94 96be
00000360: c4f7 1ebe d01e 11be 51da 07be 03f2 8fbd
00000370: 0608 1ebe 0720 d6bb 5c76 2d3c dacd 923b
00000380: 7a95 8bbd 8c37 d5bc e5ab c9bc 4bc3 913d
00000390: 0b30 5bbd 217c bfbd 2220 74bd 6161 09be
000003a0: d1a8 8cbd eb1b e0bd 2a15 d9bd 3e2f ccbd
000003b0: 549a 783d 6116 23bd 757c b9bd 8eea 55be
000003c0: 3c07 0dbd d9fe 073d 9da7 ccbb 48b0 07be
000003d0: 0493 04be 7dd0 dfba 972b 3abd 521c 8cbd
000003e0: 1f3f ad3c 01a2 fcbd d7dc 97bd 7adf 34be
000003f0: 8ef7 e2bd cce1 12bb fc81 5cbd 6c31 5bbd

_rnn.bias_hh_l0 f4 [384]
0.009941207 0.0072701834 0.025885457 -0.062310655 -0.12589972 0.014764974 0.06270854 -0.06243563
0.0384267 -0.022142585 0.1006961 0.015714634 -0.021612158 0.059323646 0.0016354269 0.06654636
-0.06992723 0.08087106 0.041446425 0.07699771 0.086889006 0.035453692 0.016784808 0.038082063
-0.039323565 0.029610813 -0.0027683498 -0.075276226 -0.0735889 0.06619252 -0.09421682 0.03738639
0.14160548 0.0662922 -0.049278185 -0.01827113 0.021498153 -0.07972356 0.1007686 -0.01869232
-0.077451795 -0.029316083 0.031687915 -0.08378938 0.038284633 -0.033927638 0.06018709 0.022504091
0.03302704 -0.09995007 0.03033681 -0.012306115 -0.014327867 0.024574755 0.0061930423 -0.047410678
0.08409707 0.14147514 0.031600155 0.07430469 0.0034664823 0.05798348 -0.02334951 0.10901305
-0.006179422 -0.0069138184 -0.0289085 0.023008058 -0.0049371063 0.02198635 0.046033356 0.050303694
-0.011664872 -0.056707997 -0.028380757 -0.056121644 -0.06406106 -0.05772694 0.03355367 -0.023302898
0.045118794 -0.041139983 0.009455238 0.014362727 0.043971527 0.0058359746 -0.023548927 0.03544824
0.021139741 0.021793662 -0.08708479 -0.049825348 0.023033502 0.081469595 0.024825612 0.050377656
0.02248502 0.032084215 -0.050048135 0.07598543 0.044352066 -0.03995033 0.074023984 0.030113809
0.08196472 0.073305555 -0.059549566 -0.065403394 0.070936255 -0.027151456 -0.06271211 -0.009756491
-0.0071077105 0.06735689 -0.033474777 -0.055799678 0.03666906 0.13598335 0.050885234 0.091972336
-0.008282947 -0.06683884 0.041907202 -0.02980218 -0.0426586 -0.07893524 -0.008280311 0.00042110056
-0.027460232 0.0034709168 -0.12315071 0.029891185 -0.29584858 -0.30745775 -0.08561654 0.0037390357
-0.042292926 -0.1272086 -0.017049162 0.008830501 0.0021672917 -0.018472748 0.015993226 -0.061292093
-0.19631547 0.033509266 -0.1026917 0.045720663 0.026503645 -0.12875247 -0.08831045 -0.18638085
-0.03322489 -0.2100443 -0.023810156 0.05314092 -0.12918285 -0.026309686 -0.08739848 -0.033555456
-0.088829614 -0.015328355 0.09143997 0.01922763 -0.1233459 -0.18443373 -0.10615619 -0.17112073
-0.0042926907 -0.046492435 0.05936894 0.025523525 -0.139812 0.030576548 -0.057301722 -0.05269052
-0.13267228 -0.0860454 -0.08686816 -0.13467604 -0.122890584 -0.014308526 -0.17250562 -0.08264674
-0.11546111 -0.04026213 -0.09953002 -0.1046368 -0.02946211 -0.23886393 -0.17558074 0.026543863
-0.07351967 0.006248668 -0.07849226 -0.21491475 -0.17811716 -0.08649916 -0.0452277 -0.06146569
-0.21156912 -0.07004811 -0.015253746 -0.065078594 -0.08262456 0.022495842 0.0420494 -0.1700084
-0.028381117 -0.07726477 -0.047651134 -0.0051104217 -0.08317909 -0.030613238 -0.2585816 -0.35213548
-0.17560801 0.016647412 -0.28282517 -0.1551629 -0.15651818 0.05188703 -0.0069135 -0.030909618
-0.10358904 -0.04700651 0.048588738 0.06654264 0.07331495 -0.07262333 -0.02781408 -0.12942903
-0.07900843 0.0005592491 -0.113966584 -0.04940276 0.087117344 0.053506903 -0.0863631 -0.18348567
-0.16982426 -0.10321995 0.050391227 -0.112336844 -0.17357881 0.0779296 -0.14707431 -0.09428767
-0.10725679 -0.11957651 -0.04339879 -0.18348841 -0.20607138 0.06613504 -0.10264875 -0.0857788
00000000: 72e0 223c b83a ee3b bd0d d43c 7539 7fbd
00000010: dbeb 00be cae8 713c 566d 803d 81bc 7fbd
00000020: 5165 1d3d 5e64 b5bc c239 ce3d fabb 803c
00000030: fb0b b1bc 5afd 723d d25b d63a 7549 883d
00000040: 0236 8fbd ba9f a53d bac3 293d fab0 9d3d
00000050: ddf2 b13d e437 113d 4b80 893c f0fb 1b3d
00000060: bf11 21bd 6092 f23c 346d 35bb 6c2a 9abd
00000070: c7b5 96bd f28f 873d c0f4 c0bd 7922 193d
00000080: 0701 113e 34c4 873d ecd7 49bd 56ad 95bc
00000090: e51c b03c 1b46 a3bd c55f ce3d a320 99bc
000000a0: 0c9f 9ebd 4828 f0bc 30cb 013d c499 abbd
000000b0: 59d0 1c3d b5f7 0abd bd86 763d 805a b83c
000000c0: 5d47 073d 9fb2 ccbd e784 f83c 969f 49bc
000000d0: 6ebf 6abc ff50 c93c 01ef ca3b b331 42bd
000000e0: 163b ac3d dcde 103e 2a6f 013d 0f2d 983d
000000f0: ec2d 633b 1680 6d3d 7947 bfbc 3c42 df3d
00000100: c07c cabb 508d e2bb 85d1 ecbc 657b bc3c
00000110: 73c7 a1bb b81c b43c 798d 3c3d 3f0b 4e3d
00000120: 051e 3fbc a546 68bd c37e e8bc cfdf 65bd
00000130: 7232 83bd 1573 6cbd 936f 093d b8e5 bebc
00000140: 7cce 383d 6682 28bd 24ea 1a3c a551 6b3c
00000150: 7d1b 343d b43b bf3b aee9 c0bc 2c32 113d
00000160: 402d ad3c 9f88 b23c 8359 b2bd aa15 4cbd
00000170: c1b0 bc3c 88d9 a63d 155f cb3c cd58 4e3d
00000180: 8132 b83c bd6a 033d 46ff 4cbd 409e 9b3d
00000190: 83aa 353d f5a2 23bd e399 973d 3cb1 f63c
000001a0: 1edd a73d 3921 963d 3fea 73bd 37f2 85bd
000001b0: 0747 913d bb6c debc 356f 80bd b0d9 1fbc
000001c0: cce7 e8bb 69f2 893d d91c 09bd 348e 64bd
000001d0: 4c32 163d 383f 0b3e 096d 503d fe5b bc3d
000001e0: 33b5 07bc cde2 88bd e3a6 2b3d b423 f4bc
000001f0: c9ba 2ebd cda8 a1bd 24aa 07bc 29c7 dc39
00000200: 48f4 e0bc 5278 633b 7036 fcbd 5cde f43c
00000210: 7779 97be 1a6b 9dbe b957 afbd 9c0a 753b
00000220: 593b 2dbd f942 02be afaa 8bbc cead 103c
00000230: 1f09 0e3b 2954 97bc 3a04 833c 6b0d 7bbd
00000240: ec06 49be 0341 093d 0750 d2bd 9745 3b3d
00000250: 2c1e d93c b0d7 03be 1cdc b4bd 9fda 3ebe
00000260: d216 08bd da15 57be 840d c3bc 4baa 593d
00000270: 8248 04be 6987 d7bc f9fd b2bd 7271 09bd
00000280: 4dec b5bd c823 7bbc e144 bb3d 4383 9d3c
00000290: c69c fcbd 32dc 3cbe 6b68 d9bd 463a 2fbe
000002a0: b3a9 8cbb da6e 3ebd d82c 733d b616 d13c
000002b0: e02a 0fbe ab7b fa3c 36b5 6abd 04d2 57bd
000002c0: 3edb 07be 9238 b0bd efe7 b1bd 84e8 09be
000002d0: 0fae fbbd 4f6e 6abc 50a5 30be b242 a9bd
000002e0: e076 ecbd e7e9 24bd 65d6 cbbd d24b d6bd
000002f0: 865a f1bc bf98 74be 70cb 33be 8472 d93c
00000300: 7b91 96bd a0c1 cc3b 8dc0 a0bd 9d12 5cbe
00000310: 5864 36be 7926 b1bd ae40 39bd 73c3 7bbd
00000320: 93a5 58be 6275 8fbd d9ea 79bc ed47 85bd
00000330: 1137 a9bd 3349 b83c fe3b 2c3d af16 2ebe
00000340: 847f e8bc fe3c 9ebd d62d 43bd 5375 a7bb
00000350: cc59 aabd 9dc8 fabc cf64 84be 1a4b b4be
00000360: 96d2 33be 2760 883c 76ce 90be 06e3 1ebe
00000370: 4d46 20be 7f87 543d a48a e2bb 2b36 fdbc
00000380: 7e26 d4bd e689 40bd fc04 473d 8247 883d
00000390: 2626 963d 8abb 94bd 5ada e3bc 0b89 04be
000003a0: 2ccf a1bd 929a 123a 5067 e9bd 8c5a 4abd
000003b0: 946a b23d 0e2a 5b3d 23df b0bd abe3 3bbe
000003c0: 69e6 2dbe fb64 d3bd 0867 4e3d dc10 e6bd
000003d0: a5be 31be 8e99 9f3d a69a 16be e519 c1bd
000003e0: 73a9 dbbd 87e4 f4bd eec2 31bd 63e4 3bbe
000003f0: 6004 53be cf71 873d 8239 d2bd ccac afbd

_rnn.weight_ih_l0_reverse f4 [384, 1]
0.04611877 -0.08729299 0.11240867 0.021696463 0.06495883 -0.054461807 -0.06330262 0.047266513
0.014995793 0.105648905 -0.028174063 -0.0017990975 0.07941544 0.19034086 0.16788602 0.13905323
-0.036759842 0.15150282 -0.10370708 0.07770737 0.029877625 0.23487072 0.019136949 -0.16291416
-0.015292983 -0.049617045 0.19526222 0.095003195 0.006530103 -0.0026804628 0.026524676 0.06834785
0.10190727 0.27755272 -0.0098266965 -0.017688971 0.015119767 0.07232251 -0.0021712 -0.11876561
-0.17420453 0.096694924 0.27419192 -0.058157492 -0.118513174 0.09019276 0.0050255354 -0.013302669
0.1076503 0.0814885 0.066291474 0.028458182 0.2964388 -0.06376451 0.082140855 0.7009017
0.057847973 0.13458337 -0.035817817 0.048044775 0.109186314 1.0708658 0.091075875 0.8699333
0.048790276 0.21951662 0.019388221 -0.09500515 -0.051087968 0.082153365 -0.30176055 -0.037917115
-0.012404445 0.096232414 0.28141278 0.1600282 0.1324827 -0.11161328 -0.0041997167 -0.073239125
-0.01873882 0.041918665 0.0015167539 -0.08858295 0.005792392 0.18132737 -0.037754703 -0.06775116
0.007636559 0.08729889 0.20141988 -0.15663639 0.086449616 -0.0052627404 -0.10668641 0.44250745
0.022702226 0.07946707 -0.007392551 0.09438493 0.09223207 0.04030981 0.30280787 -0.031938042
0.08052771 0.05712471 0.24445193 0.02807685 -0.08357557 0.10175736 -0.11761492 -0.1573698
0.2188402 0.07373318 -0.033944204 0.19218266 -0.025060656 -0.020647625 0.10505558 0.07531134
0.0044058147 -0.041801598 -0.013519376 0.17001778 -0.018188793 0.05935275 0.11890731 -0.008674944
-0.09568271 0.015458001 -0.04787557 -0.0599247 -0.041334506 -0.04323926 -0.038648527 -0.23315455
-0.09612775 -0.109989606 0.017950123 0.073241934 -0.04660006 -0.19141096 -0.17635232 -0.253613
-0.17195784 -0.29182968 0.1260456 0.0065335855 -0.08359829 -0.18433572 -0.09481438 0.63762987
-0.061510544 -0.08528538 -0.24919777 -0.18344931 0.02572813 0.07796783 0.06361367 -0.035346527
-0.14271681 -0.2740782 0.036399465 -0.05511511 -0.08276442 0.040176034 -0.21501586 -0.115807645
0.1677582 0.035780296 -0.32602656 -0.073457986 0.22931775 -0.1262728 0.16278264 -0.041594464
-0.027877819 -0.0687807 -0.06568143 0.020092862 -0.3055883 -0.08160247 -0.26845926 -0.5444841
0.004698495 -0.024867805 -0.0710967 -0.07455512 -0.1319974 -0.7168412 -0.20558126 -0.73072225
-0.055867553 -0.46542835 0.0030794311 0.05061455 -0.21162692 -0.17893049 0.38601592 0.09824102
0.046981815 -0.0401311 -0.38535857 -0.22127512 -0.10409458 -0.016678197 -0.024493825 0.009618239
-0.107515134 -0.04652544 -0.017540945 -0.017403373 -0.10188944 -0.07848099 -0.06484088 -0.029739764
-0.06902428 -0.034029927 -0.310456 0.038576968 -0.11671176 -0.0034859069 0.0049105473 -0.4426959
0.06050524 0.014444646 0.13893177 -0.23707698 -0.1833519 -0.069141716 -0.50913626 0.027955076
-0.014076072 -0.20137028 -0.24119367 0.123768374 0.1843279 -0.12613519 0.07905649 0.011508417
-0.34466806 -0.340014 0.083313614 -0.0039981743 -0.02788051 -0.0051659634 -0.012067383 -0.11285173
-0.052202817 -0.050683144 -0.16040596 -0.08953821 0.042762883 -0.01855461 -0.17630176 0.001169666
00000000: 09e7 3c3d abc6 b2bd 8436 e63d c8bc b13c
00000010: 2309 853d 5813 5fbd cea4 81bd 889a 413d
00000020: eab0 753c 745e d83d 4bcd e6bc b2cf ebba
00000030: 90a4 a23d b7e8 423e 50ea 2b3e f863 0e3e
00000040: 7d91 16bd 8e23 1b3e 6164 d4bd 0b25 9f3d
00000050: ecc1 f43c f381 703e 17c5 9c3c f8d2 26be
00000060: 6b8f 7abc 3e3b 4bbd d2f2 473e 0991 c23d
00000070: 79fa d53b b4aa 2fbb 474a d93c f5f9 8b3d
00000080: c2b4 d03d 641b 8e3e 2700 21bc 76e8 90bc
00000090: e6b8 773c d31d 943d b14a 0ebb 623b f3bd
000000a0: ac62 32be fd07 c63d e262 8c3e 8d36 6ebd
000000b0: 09b7 f2bd fbb6 b83d 3fad a43b 70f3 59bc
000000c0: c377 dc3d 71e3 a63d d3c3 873d 2221 e93c
000000d0: d4c6 973e f896 82bd 7739 a83d 4b6e 333f
000000e0: fff1 6c3d 39d0 093e b4b5 12bd 99ca 443d
000000f0: 139d df3d 2112 893f fd85 ba3d f3b3 5e3f
00000100: 50d8 473d f7c8 603e 0cd4 9e3c 0f92 c2bd
00000110: 9e41 51bd 0640 a83d 5c80 9abe fa4e 1bbd
00000120: 033c 4bbc 8015 c53d 5615 903e 6fde 233e
00000130: 8ba9 073e 8195 e4bd c79d 89bb 65fe 95bd
00000140: 2782 99bc e8b2 2b3d d1cd c63a fa6a b5bd
00000150: 1bce bd3b e2ad 393e ada4 1abd 1fc1 8abd
00000160: 1a3c fa3b c3c9 b23d 0341 4e3e 4a65 20be
00000170: 7f0c b13d 1173 acbb 687e dabd 5690 e23e
00000180: 05fa b93c a2bf a23d 363d f2bb e34c c13d
00000190: 2be4 bc3d e61b 253d a209 9b3e 77d1 02bd
000001a0: b6eb a43d 9afb 693d 9b51 7a3e 6c01 e63c
000001b0: ab29 abbd 2a66 d03d 17e0 f0bd 8d25 21be
000001c0: a517 603e 6c01 973d 1409 0bbd 88cb 443e
000001d0: 014c cdbc 3525 a9bc 6127 d73d d53c 9a3d
000001e0: a75e 903b 2738 2bbd 5f80 5dbc 2419 2e3e
000001f0: aa00 95bc df1b 733d ad85 f33d 5a21 0ebc
00000200: 4cf5 c3bd 8e43 7d3c 2c19 44bd 9a73 75bd
00000210: 5f4e 29bd a61b 31bd eb4d 1ebd 11c0 6ebe
00000220: a0de c4bd 3b42 e1bd 230c 933c deff 953d
00000230: b4df 3ebd 3c01 44be b495 34be 90d9 81be
00000240: b715 30be b36a 95be 1912 013e b017 d63b
00000250: 9535 abbd 81c2 3cbe 0b2e c2bd b63b 233f
00000260: 7bf2 7bbd 1aaa aebd b32d 7fbe 23da 3bbe
00000270: cdc3 d23c 99ad 9f3d e247 823d 85c7 10bd
00000280: 5b24 12be fa53 8cbe 9b17 153d 62c0 61bd
00000290: 6480 a9bd a08f 243d 1e2d 5cbe 8f2c edbd
000002a0: cec8 2b3e 5c8e 123d f4ec a6be 2471 96bd
000002b0: 46d2 6a3e a84d 01be 7eb0 263e f55e 2abd
000002c0: 0660 e4bc e5dc 8cbd fc83 86bd c999 a43c
000002d0: 1276 9cbe 321f a7bd 7e73 89be 4f63 0bbf
000002e0: d5f5 993b 91b7 cbbc 269b 91bd 5bb0 98bd
000002f0: 542a 07be e882 37bf e583 52be 9d10 3bbf
00000300: 60d5 64bd a04c eebe 48d0 493b 3451 4f3d
00000310: bab4 58be 8e39 37be e1a3 c53e 9732 c93d
00000320: 0170 403d 8260 24bd b84d c5be f295 62be
00000330: 8a2f d5bd b7a0 88bc 46a7 c8bc d195 1d3c
00000340: e530 dcbd 7691 3ebd 07b2 8fbc 8591 8ebc
00000350: 69ab d0bd a4ba a0bd 4ccb 84bd cea0 f3bc
00000360: 9a5c 8dbd f762 0bbd 17f4 9ebe e202 1e3d
00000370: 9306 efbd d073 64bb a8e8 a03b 09a9 e2be
00000380: 58d4 773d 3da9 6c3c 2144 0e3e 4fc4 72be
00000390: 9ac0 3bbe 2c9a 8dbd c156 02bf 0b02 e53c
000003a0: 539f 66bc 0334 4ebe 79fb 76be 467a fd3d
000003b0: 74c0 3c3e 9529 01be 5ee8 a13d cd8d 3c3c
000003c0: 5578 b0be 5116 aebe 54a0 aa3d 1e03 83bb
000003d0: ab65 e4bc 3e47 a9bb 46b6 45bc cf1e e7bd
000003e0: 9fd2 55bd 2199 4fbd 7641 24be cf5f b7bd
000003f0: 2228 2f3d d6ff 97bc 7388 34be 7a4f 993a

_rnn.weight_hh_l0_reverse f4 [384, 128]
0.011541267 -0.041970503 -0.067930564 -0.031919546 -0.011942795 0.021758009 0.013587253 0.13156386
0.00087912905 -0.09547976 -0.103818946 0.053074326 0.01763898 -0.0424726 -0.021700183 0.008245543
0.003223447 0.001955114 0.085051134 0.09076268 -0.020017598 -0.05375631 0.050067 0.11115875
0.015451749 -0.003986055 0.021247564 -0.042081147 0.085621655 -0.026898766 0.0026974657 0.023242725
-0.06763974 -0.0717905 0.006785092 -0.03606539 0.04128242 0.07417222 -0.07064802 -0.0017705524
-0.08724691 0.103718 -0.0032493554 0.03490151 -0.022219926 -0.0911713 0.028374644 0.0815708
-0.09710118 0.10746827 -0.043818362 -0.008184275 -0.05018702 -0.052465364 -0.020341953 0.017569156
-0.07087909 -0.02471269 -0.03257118 -0.03314721 -0.09472226 0.08931313 0.015260581 0.10439502
0.06118431 -0.010297693 -0.012469945 -0.12702449 0.08294066 0.016880732 -0.022475366 -0.0023135545
0.0766897 -0.060229275 0.020583473 0.14535901 -0.036764186 0.013786884 -0.018015288 -0.037076212
0.078253046 -0.043123636 -0.012951094 0.060079213 0.102839835 -0.105051726 0.02507188 0.051581923
0.027008438 -0.099851266 0.033332903 -0.007532167 -0.12641782 -0.007910463 -0.04860006 -0.025693
0.063946374 0.031421416 -0.0010351012 0.12846075 0.04933715 0.027219657 0.071418226 -0.041788332
-0.05622174 0.060800146 -0.07412932 0.07659843 -0.03594435 -0.012029321 0.08220597 -0.033724986
0.04355807 -0.10951883 -0.08304926 0.044873226 0.02115889 0.014186308 -0.051537115 0.08698539
-0.099135645 -0.035393562 0.14389005 0.0132500855 -0.0907273 -0.042832624 -0.06391112 0.01805181
-0.044778686 -0.08654911 0.0005494397 0.031677585 0.027562348 -0.039891347 -0.09100824 -0.046658512
-0.050053462 -0.008520936 -0.028838532 -0.00969109 -0.022226375 -0.09518703 0.036566004 0.0021444587
0.046352495 0.019410131 -0.0004258841 0.033765223 -0.09234475 0.05741611 0.10565016 -0.04083816
0.06988802 -0.040774096 0.04041385 -0.029456042 -0.056061003 -0.043780323 0.05407671 -0.043742158
-0.06260596 0.042293545 -0.04373101 -0.025991593 -0.046672553 -0.06725427 -0.04532982 0.013362323
-0.025233794 0.012326022 0.049833275 -0.043054108 0.085217975 0.076590545 -0.01488308 0.038427774
0.09277327 -0.07086794 -0.05916168 0.058464937 0.05352508 0.020003706 0.021072585 -0.089587435
0.018553395 -0.018380336 -0.0019579714 0.111242175 0.046945058 -0.058960423 -0.027023092 -0.10978299
0.020894444 0.035689447 -0.02809733 -0.057062395 0.025408477 -0.06656231 0.090144455 0.019687513
0.09174262 0.016892273 0.015194073 -0.09302175 -0.020638349 0.050911672 -0.010869783 0.06698393
0.004761816 -0.043241728 -0.038852785 -0.065658785 0.0050925836 -0.062493045 0.04601001 -0.0010442005
0.04767231 0.06918149 -0.08529371 -0.062670864 0.07096871 -0.033746194 -0.07043428 -0.09348138
-0.07717823 -0.041982763 -0.00655691 0.04753486 0.022906492 0.034246847 -0.059015792 -0.06882645
0.051105868 0.05795291 0.053880878 0.07630867 0.086631134 -0.003959078 -0.048553634 0.030973608
-0.00781798 -0.02318552 0.0028016705 0.035629127 -0.036605302 0.060652792 -0.04995859 0.012234362
-0.08361742 0.019388901 -0.049217902 -0.00443848 0.07003705 -0.017565645 0.0047270884 0.045315042
00000000: 9517 3d3c 43e9 2bbd 2e1f 8bbd 12be 02bd
00000010: b6ab 43bc da3d b23c 129d 5e3c adb8 063e
00000020: 5a75 663a e48a c3bd 079f d4bd 7764 593d
00000030: 9f7f 903c c0f7 2dbd 95c4 b1bc 5018 073c
00000040: 7740 533b 5f21 003b 4a2f ae3d c9e1 b93d
00000050: f2fb a3bc 942f 5cbd 0e13 4d3d 33a7 e33d
00000060: 5529 7d3c 749d 82bb 5f0f ae3c 485d 2cbd
00000070: 685a af3d cd5a dcbc f7c7 303b 8767 be3c
00000080: b486 8abd e606 93bd 7a55 de3b 4db9 13bd
00000090: c117 293d 9be7 973d e9af 90bd e111 e8ba
000000a0: 82ae b2bd 1a6a d43d 23f3 54bb e3f4 0e3d
000000b0: 9006 b6bc 05b8 babd f171 e83c 970e a73d
000000c0: fcdc c6bd 5318 dc3d e27a 33bd 5617 06bc
000000d0: e890 4dbd ece5 56bd 2ba4 a6bc 31ed 8f3c
000000e0: 0e29 91bd 4472 cabc 5c69 05bd 5ec5 07bd
000000f0: bffd c1bd cde9 b63d 8407 7a3c 0ecd d53d
00000100: 669c 7a3d a8b7 28bc bd4e 4cbc b512 02be
00000110: cbdc a93d 7649 8a3c 421e b8bc 019f 17bb
00000120: 7d0f 9d3d f9b2 76bd ac9e a83c fed8 143e
00000130: 0b96 16bd 62e2 613c cc94 93bc 3add 17bd
00000140: 2243 a03d 69a2 30bd d330 54bc 9f15 763d
00000150: b19d d23d 5c25 d7bd 8b63 cd3c 9147 533d
00000160: cd40 dd3c d27e ccbd 1588 083d 65d0 f6bb
00000170: ac73 01be e39a 01bc db10 47bd 207a d2bc
00000180: 51f6 823d beb3 003d 3cac 87ba 378b 033e
00000190: c015 4a3d c2fb de3c b843 923d 3e2a 2bbd
000001a0: c448 66bd 9309 793d 1dd1 97bd a3df 9c3d
000001b0: 623a 13bd a116 45bc 9b5b a83d 3623 0abd
000001c0: f269 323d 694b e0bd bb15 aabd fdcc 373d
000001d0: 6955 ad3c b06d 683c 9518 53bd 6525 b23d
000001e0: a107 cbbd d7f8 10bd ea57 133e e316 593c
000001f0: 3ccf b9bd 4371 2fbd d5e3 82bd 64e1 933c
00000200: db69 37bd a940 b1bd 4608 103a 5bc0 013d
00000210: 6fca e13c 1c65 23bd 8762 babd ff1c 3fbd
00000220: dc04 4dbd 659b 0bbc c93e ecbc 61c7 1ebc
00000230: 1614 b6bc 6bf1 c2bd 3cc6 153d 0c8a 0c3b
00000240: 1ddc 3d3d ff01 9f3c 3249 dfb9 674d 0a3d
00000250: 3f1f bdbd 282d 6b3d 1c5f d83d ea45 27bd
00000260: 7321 8f3d bd02 27bd fe88 253d cc4d f1bc
00000270: 39a0 65bd ff52 33bd 8a7f 5d3d fa2a 33bd
00000280: 8e37 80bd ff3b 2d3d 4a1f 33bd 52ec d4bc
00000290: b82b 3fbd 9bbc 89bd c3ab 39bd a5ed 5a3c
000002a0: 1ab7 cebc 15f3 493c fa1d 4c3d 8159 30bd
000002b0: c386 ae3d 81db 9c3d 29d8 73bc 7166 1d3d
000002c0: eaff bd3d 3623 91bd 8553 72bd ee78 6f3d
000002d0: 1d3d 5b3d d0de a33c 6aa0 ac3c 9e79 b7bd
000002e0: 4afd 973c 5c92 96bc 4f51 00bb f0d2 e33d
000002f0: 7649 403d 7c80 71bd 885f ddbc e7d5 e0bd
00000300: d32a ab3c 192f 123d 5f2c e6bc 42ba 69bd
00000310: 7025 d03c d251 88bd a89d b83d b547 a13c
00000320: 8ee3 bb3d aa61 8a3c 90f0 783c 3082 bebd
00000330: c111 a9bc c288 503d 2d17 32bc df2e 893d
00000340: 0209 9c3b 3d1e 31bd 1924 1fbd 1d78 86bd
00000350: b0df a63b b5f8 7fbd fe74 3c3d 8edd 88ba
00000360: 0a44 433d 06af 8d3d 78ae aebd 9559 80bd
00000370: 0b58 913d 7339 0abd d93f 90bd 2a73 bfbd
00000380: 9f0f 9ebd 1ef6 2bbd 59db d6bb eab3 423d
00000390: 65a6 bb3c 6c46 0c3d 8bba 71bd e2f4 8cbd
000003a0: 6354 513d 0860 6d3d 32b2 5c3d b847 9c3d
000003b0: aa6b b13d 27bb 81bb 2de0 46bd 5dbc fd3c
000003c0: fc16 00bc 8fef bdbc 3b9c 373b d9ef 113d
000003d0: 71ef 15bd 106f 783d 61a1 4cbd a272 483c
000003e0: 9c3f abbd 79d5 9e3c b698 49bd ab70 91bb
000003f0: 966f 8f3d d4e5 8fbc b1e5 9a3b 449c 393d

_rnn.bias_ih_l0_reverse f4 [384]
0.048267033 0.14752027 0.08909689 0.112723075 0.12846386 0.021712411 0.01473913 0.05181246
0.06496071 0.064227216 0.0072478144 -0.0054804636 -0.036059793 -0.06262753 0.061822664 0.021905104
-0.030431097 -0.097978234 0.025034206 0.06722265 0.20481391 -0.04133495 0.028059728 0.27887094
-0.042560656 0.0070120827 0.0710216 0.03938758 0.07452681 0.026253626 -0.084970996 0.056630608
0.049738333 0.052841533 0.018005522 -0.01051357 0.059271954 -0.06570235 0.102063626 -0.09372529
0.035193816 -0.004645517 0.120287664 0.08704194 0.103193544 -0.05209373 0.0003739016 0.04492997
-0.042940605 -0.0076983958 -0.0019647912 0.096041635 0.018020486 -0.019363962 -0.042076357 0.0345614
0.05368767 -0.005723908 -0.03324282 -0.0017133523 -0.05812766 0.026470864 -0.05902158 -0.045846388
-0.050945517 0.05032063 0.07942885 0.04337094 -0.0056640888 -0.05648282 0.19202974 -0.02927507
0.059752215 -0.015243695 0.094963305 0.009698948 -0.02445809 -0.010887359 0.07024915 -0.021717485
0.043102093 -0.07835615 0.13850687 -0.0344548 0.01957988 -0.005689749 0.03354909 0.098248616
-0.0028136175 0.09095885 -0.0081923865 0.19523895 0.07889235 0.085113734 0.0068265544 -0.07379928
-0.0890876 -0.015104279 0.10177147 -0.03936489 0.04201701 0.08865776 -0.005483737 -0.04101988
0.036682624 -0.008760606 -0.04444757 0.05286574 -0.031651657 -0.035454154 -0.009185166 0.16891544
0.03892695 0.049219485 0.08847268 0.008918144 0.0840123 0.0980077 0.041823942 0.010814591
0.056009717 -0.05375647 0.009802414 0.040921435 -0.0599925 0.13249578 0.014765148 0.065248124
-0.09952978 -0.05350384 -0.049864158 -0.1432347 -0.14754069 -0.013832357 -0.11671345 -0.2657661
-0.16398394 -0.11265088 -0.16093227 -0.27184823 -0.15794624 -0.08874202 -0.35037553 -0.19549975
-0.156577 -0.121531755 0.008571397 -0.09793388 -0.19014393 -0.17662649 -0.1080878 0.02470059
0.038412508 -0.2668719 -0.1459986 -0.05707088 -0.050864134 -0.24759428 0.005011494 0.05313647
-0.102285445 -0.24866015 -0.016886247 -0.2419739 -0.14066388 -0.08317065 -0.33796257 -0.24282421
-0.28709716 -0.35879007 -0.3641496 0.013445767 -0.13624847 -0.36583552 -0.05183403 -0.18064128
-0.05537327 -0.33759895 -0.19409193 -0.011238007 -0.018103523 -0.15227519 -0.115099974 -0.36819708
-0.067352355 -0.21101578 -0.20510013 0.013763003 -0.15918191 -0.5985337 -0.14524841 -0.46681753
0.01846052 -0.32824993 -0.07208839 -0.24755037 -0.13943832 -0.23133989 -0.16675802 -0.0911684
-0.07933434 -0.39423218 -0.2991359 -0.3655158 -0.08080832 -0.047205597 -0.19467811 -0.027925488
-0.12036955 -0.27860877 -0.40018484 -0.26828155 -0.27569038 -0.25485677 -0.20108813 0.0066887247
-0.24630629 -0.19851185 -0.113046646 -0.35504034 -0.43772858 -0.04304831 -0.107570246 -0.31213987
-0.027943706 -0.041515686 -0.15877597 -0.20658006 -0.12582646 -0.14240153 -0.39525926 -0.27741897
0.035145216 -0.18146783 -0.15346391 -0.23357183 -0.07634151 -0.13152169 -0.0725548 -0.35543537
-0.28133616 -0.39920083 -0.053474274 -0.2334244 -0.31771117 -0.11603497 -0.008859997 -0.18229818
-0.12751555 -0.10309586 -0.38063154 -0.4071376 -0.29351777 -0.075842574 -0.008032274 -0.06071413
00000000: a7b3 453d 8e0f 173e 6e78 b63d 5bdb e63d
00000010: 088c 033e 3ade b13c 647c 713c 4d39 543d
00000020: 1f0a 853d 8f89 833d 137f ed3b 7695 b3bb
00000030: 6fb3 13bd dd42 80bd c339 7d3d 5572 b33c
00000040: a34a f9bc d0a8 c8bd 8914 cd3c 07ac 893d
00000050: bdba 513e d64e 29bd 84dd e53c 2cc8 8e3e
00000060: 1554 2ebd 9dc5 e53b c673 913d df54 213d
00000070: 83a1 983d d811 d73c 4605 aebd 7ff5 673d
00000080: 6cba 4b3d 5d70 583d 5180 933c 1c41 2cbc
00000090: 26c7 723d f48e 86bd bc06 d13d 0bf3 bfbd
000000a0: 6427 103d 6c39 98bb 6159 f63d 0b43 b23d
000000b0: 2357 d33d 3c60 55bd 3908 c439 7d08 383d
000000c0: 7de2 2fbd d342 fcbb bac3 00bb 7ab1 c43d
000000d0: b39f 933c 2ca1 9ebc 4258 2cbd 4190 0d3d
000000e0: 9ae7 5b3d 9f8f bbbb a029 08bd 9092 e0ba
000000f0: 4517 6ebd 6dd9 d83c 9dc0 71bd 6cc9 3bbd
00000100: 3fac 50bd 011d 4e3d 98ab a23d baa5 313d
00000110: d299 b9bb 885a 67bd 72a3 443e 46d2 efbc
00000120: bdbe 743d b1c0 79bc 1f7c c23d 56e8 1e3c
00000130: 555c c8bc e560 32bc c9de 8f3d dee8 b1bc
00000140: d28b 303d 3079 a0bd bfd4 0d3e 7a20 0dbd
00000150: fc65 a03c 1371 babb c56a 093d 9236 c93d
00000160: ab64 38bb a248 ba3d 5c39 06bc b8ec 473e
00000170: 5092 a13d 1c50 ae3d 4ab1 df3b 1424 97bd
00000180: 8f73 b6bd f077 77bc 8f6d d03d 143d 21bd
00000190: 071a 2c3d 3392 b53d ecb0 b3bb 7604 28bd
000001a0: 8540 163d a588 0fbc a80e 36bd bf89 583d
000001b0: 2ba5 01bd 6038 11bd 617d 16bc 2bf8 2c3e
000001c0: de71 1f3d 5f9a 493d 2a31 b53d 681d 123c
000001d0: a40e ac3d 43b8 c83d 954f 2b3d af2f 313c
000001e0: 726a 653d bf2f 5cbd 4e9a 203c 3c9d 273d
000001f0: b2ba 75bd f9ac 073e 85e9 713c cfa0 853d
00000200: 45d6 cbbd d826 5bbd 5c3e 4cbd 1eac 12be
00000210: e814 17be 1ca1 62bc 7607 efbd 7f12 88be
00000220: 68eb 27be 81b5 e6bd 6ecb 24be b12f 8bbe
00000230: a9bc 21be 60be b5bd 6c64 b3be 1631 48be
00000240: b955 20be a4e5 f8bd 0b6f 0c3c 8f91 c8bd
00000250: 17b5 42be 93dd 34be 235d ddbd e458 ca3c
00000260: 6f56 1d3d 6fa3 88be a880 15be 28c3 69bd
00000270: e956 50bd 5b89 7dbe 7537 a43b a1a5 593d
00000280: 087b d1bd c4a0 7ebe 0755 8abc 02c8 77be
00000290: 310a 10be 6055 aabd 6e09 adbe e9a6 78be
000002a0: 66fe 92be 55b3 b7be d171 babe a24b 5c3c
000002b0: b884 0bbe cb4e bbbe eb4f 54bd 07fa 38be
000002c0: 15cf 62bd c5d9 acbe 09c0 46be 9e1f 38bc
000002d0: d74d 94bc 07ee 1bbe 89b9 ebbd 5484 bcbe
000002e0: 08f0 89bd 8514 58be c505 52be 387e 613c
000002f0: 9500 23be 8139 19bf 00bc 14be b502 efbe
00000300: 843a 973c 6010 a8be 14a3 93bd d87d 7dbe
00000310: ebc8 0ebe 5de4 6cbe 9dc2 2abe 80b6 babd
00000320: 0b7a a2bd cdd8 c9be 5728 99be e324 bbbe
00000330: d57e a5bd a85a 41bd b359 47be fec3 e4bc
00000340: 5084 f6bd cfa5 8ebe 07e5 ccbe 335c 89be
00000350: 4a27 8dbe 967c 82be 0cea 4dbe 172d db3b
00000360: b737 7cbe b146 4bbe 0085 e7bd d9c7 b5be
00000370: f61d e0be 6d53 30bd ca4d dcbd ccd0 9fbe
00000380: 33ea e4bc 5a0c 2abd 2b96 22be b989 53be
00000390: a7d8 00be b5d1 11be 6c5f cabe dc09 8ebe
000003a0: 6ef4 0f3d b4d2 39be a525 1dbe 742d 6fbe
000003b0: f058 9cbd 9fad 06be 9c97 94bd a0fb b5be
000003c0: 4b0b 90be 0d64 ccbe d707 5bbd ce06 6fbe
000003d0: 0aab a2be bea3 edbd 8529 11bc 60ac 3abe
000003e0: 7093 02be ec23 d3bd 23e2 c2be 5774 d0be
000003f0: f647 96be 5a53 9bbd cd99 03bc 61af 78bd
