outputs/seed42_detector.pth (torch, 407116 bytes, 10 tensors)

_rnn.weight_ih_l0 f4 [384, 1]
00000000: 56fe 3c3d 9707 883d 2f93 26bd e956 af3d
00000010: 623b 59be 1541 cebe da5a 25bd c034 dfbb
00000020: 3032 2e3e edfc 76bd 0df8 113e 56c3 e4bc
00000030: 8625 443d 4820 0c3d 0fc0 933d a9f6 adbc
00000040: ea61 77be 9de2 bf3c b509 9cbd b50e c83c
00000050: 3e77 91bc c874 0abd ddc8 70bd 7ef7 e83c
00000060: a3ea d5bd d372 acbd e3ea e2bd 1592 6fbd
00000070: 2aad 563d eef9 93bd a29c 043e 08ab 9bbd
00000080: 466d 833e 10ec 803c 0afb 33bd 96d0 4a3d
00000090: c34c 9abd 54eb 8f3d 81d7 95bc ce9c 20bd
000000a0: 71e7 e13c 64f8 9ebd 60b8 383d 9667 733d
000000b0: 5ceb 293e 09d8 b1bc e9c4 d43d d22b 1cbe
000000c0: 4d51 863d b720 b8bd c94b cfbb 004e d6bd
000000d0: afbc 86bd ddca ad3d 17fa 30be 684c 5bbc
000000e0: 4ec9 023d d1dd 80be 6092 293d de94 24bd
000000f0: 7b83 a33d 4f90 c4be a0d1 c73a e48e 413d
00000100: 36be 253b b764 ecbb 3fca 543d 5c80 9bbe
00000110: eea2 82bc a77f 62bd 6cf6 633d bea5 10be
00000120: 8e8c 033e 4f3d 2ebd 205f 15be 754b 07bd
00000130: d2e8 b1bd ab3c 023d 8608 073d 9f2c 603d
00000140: 3ed6 63bd faa1 12be 4241 313d d604 febc
00000150: c3b8 483d 000c 8bbd 46e8 de3d 4ee1 aebe
00000160: 4252 3bbe 3d2c b13c 02ba adbe cadf 17bd
00000170: 07dc 3bbe 7cd4 b33d 5fa4 d1ba 4c50 8abd
00000180: dbe8 0d3e 1325 09be 2099 0bbd 67ac d2bd
00000190: 65ee 3dbd 0f47 94bc 09f4 85bc b590 acbb
000001a0: 5356 0e3d 570e a4bd 70d5 07be f08c 99bd
000001b0: 07cc 9abd 5c7c 7bbd 57c8 be3d 98f5 d2bd
000001c0: a757 663d 8269 4ebd 3593 4abd 9633 1abd
000001d0: d538 ed3d 54bd f8bc fab9 dcbd 2d9a 46bd
000001e0: a99b f4bc 79af 4fbd 8e67 31bc 1644 a5bd
000001f0: 80ea 6dbd 057f c8bd 4450 a5bd a903 93bd
00000200: 82c7 a73d 8c74 91bc 156d b83d 210d cb3c
00000210: b100 cb3b 38e9 4d3e e09b f1bc 2c57 62bc
00000220: 9aa9 e9bd 85a9 b0bd 96ed a73b a7b1 1dbc
00000230: 35f0 1a3d 57cf afbd 86bd 633d 610a 82bd
00000240: 6397 ca3d fbb8 a43c af89 6a3d 82c6 903d
00000250: f2a7 a13d b5bf 7fbd add3 3d3d 808e abbc
00000260: eae7 523b da4c 6bbd 7e35 e83d 083f 83bd
00000270: 55f0 b33c 48e2 ae3c 78e9 c33c 7715 20bd
00000280: 0f2b d43b eb85 9a3c d1d9 943c 60f4 9cbd
00000290: 2800 a03d 70d6 94bc 360b 23bd 0553 9b3d
000002a0: a27c a03c 1b8a fcbc 8355 4cbd f60a 92ba
000002b0: 8617 6cba 47d8 a3bc e347 8fbd 52f1 4e3d
000002c0: a5ea 7fbd aa94 533d 3c0a 673d ebfc 5cbd
000002d0: 3efc 033d b151 283d 8c90 bd3d 2152 d3bc
000002e0: 591c 713d 27c6 1b3e 074a 263d 0e42 d3bc
000002f0: a41f 24bd bf12 0e3e fe8d 47bc bd34 80bd
00000300: b370 8a3d 6133 a13d 7e27 32ba 0044 883d
00000310: e948 29bc a3a1 c1bb ddb4 f53c c381 f83d
00000320: 1d8b cdbd 13fa 0abd 77f1 c33d 7f85 b23c
00000330: 8f28 373c c119 59bd 4e80 55bd e144 91bd
00000340: a85c c6bc e4c0 3e3d 3ade 6b3d c81f 2a3d
00000350: 05b0 a0bd 7bfd 38bd 9647 76bc c4e9 3d3e
00000360: 9318 7b3d 5ad4 9cbc fc34 383e 4867 f7bc
00000370: 9088 313d fddd 503d beba 64bd e91a 31bc
00000380: de46 e0bd fcbc cf3d ad9a 893d 83ff 183d
00000390: ed27 6dbd 24db a6bd 5804 93bd f4a2 5d3d
000003a0: cf00 f53c b07b b13d db8b 733d c628 e63c
000003b0: 4dd7 8eba af87 68bd 456c 98bd 6a41 34bd
000003c0: 1ac6 133d b06a 57bd 3cb9 8abc eb6c 14bd
000003d0: 7e20 3dbd ddba a7bd f329 f7bc d8c7 df3c
000003e0: 314c 58bc 5f1c 8c3d 8df3 d1bc 321e 52bd
000003f0: 81d7 70bc 6146 10bd a5c0 61bc 2053 aabd
0.04614099 0.06642073 -0.04066771 0.08561499 -0.21214059 -0.4028403 -0.040369846 -0.006811708
0.17011333 -0.060299803 0.1425478 -0.027925175 0.047887348 0.034210473 0.07214367 -0.02123578
-0.24158445 0.023423487 -0.07619039 0.024421075 -0.017757054 -0.033802778 -0.05878531 0.028438326
-0.10445144 -0.084203385 -0.11079957 -0.058488924 0.052411236 -0.07225405 0.12950376 -0.07600981
0.25669307 0.015737563 -0.04394058 0.04951533 -0.075341724 0.07027307 -0.018291237 -0.03921204
0.02757618 -0.077622205 0.04509771 0.05942496 0.16593689 -0.021709459 0.1038912 -0.15251091
0.06558476 -0.08990615 -0.006326173 -0.10464096 -0.06578957 0.08485959 -0.17282902 -0.013384916
0.03193026 -0.25169232 0.04139936 -0.040181033 0.07984062 -0.3839135 0.0015244968 0.04725541
0.0025290377 -0.0072141546 0.05195069 -0.30371368 -0.015946832 -0.05529752 0.055654928 -0.14125726
0.12846586 -0.042538937 -0.14587069 -0.033030946 -0.08686985 0.03179614 0.032967113 0.054730054
-0.05562424 -0.14319602 0.043275125 -0.031008165 0.049004328 -0.06789398 0.108841464 -0.3415627
-0.18293098 0.02162754 -0.33930975 -0.037078656 -0.18345653 0.087807626 -0.0015994421 -0.06753597
0.13858359 -0.13393049 -0.03408158 -0.102867894 -0.04636993 -0.01810029 -0.016351717 -0.005266274
0.034750294 -0.080105476 -0.13265014 -0.07497585 -0.075584464 -0.061397895 0.093155555 -0.103007495
0.056235936 -0.05039359 -0.049456794 -0.037646852 0.115831055 -0.030363716 -0.1077766 -0.048486877
-0.02985938 -0.050704453 -0.010827912 -0.08069627 -0.058084965 -0.09789852 -0.0807195 -0.071784325
0.0819235 -0.01775577 0.09005181 0.024786534 0.006195151 0.20108497 -0.029493272 -0.013814729
-0.11409302 -0.08626083 0.005124758 -0.009624875 0.037826736 -0.08584469 0.055600666 -0.06349636
0.09892156 0.020107737 0.05726021 0.07069112 0.07893361 -0.062438685 0.046344448 -0.020941973
0.0032181689 -0.05744634 0.11338328 -0.06408507 0.021965185 0.021348134 0.023915038 -0.03908297
0.0064748595 0.018862685 0.01817027 -0.07663798 0.0781253 -0.018168658 -0.039805613 0.07584194
0.01959068 -0.030827573 -0.049886238 -0.0011142183 -0.0009006191 -0.02000059 -0.06996133 0.05052311
-0.062479634 0.05165545 0.056406245 -0.05395214 0.03222298 0.041093532 0.09256086 -0.025795998
0.058864925 0.15212308 0.04059794 -0.025788333 -0.040069237 0.13874339 -0.01217985 -0.06260059
0.06759777 0.07871128 -0.0006796046 0.06653595 -0.010332325 -0.005909161 0.029993469 0.12134125
-0.100362994 -0.033929896 0.0956754 0.021792172 0.0111791035 -0.053003076 -0.052124314 -0.07093216
-0.024214104 0.046570674 0.05758498 0.041534215 -0.07846073 -0.045163613 -0.015031716 0.18546206
0.061302733 -0.019144226 0.17988962 -0.030200616 0.043343127 0.050992955 -0.055842154 -0.010809639
-0.10951017 0.10143468 0.06718955 0.03735305 -0.057899404 -0.081472665 -0.07178563 0.054110482
0.029907612 0.0866617 0.05945955 0.028095614 -0.0010897905 -0.056770023 -0.07442526 -0.044007696
0.036077596 -0.05259198 -0.01693403 -0.036236685 -0.046173565 -0.08189938 -0.03017137 0.027316973
-0.013201759 0.06841349 -0.02562883 -0.051298328 -0.014699818 -0.03522337 -0.01377884 -0.08316636

_rnn.weight_hh_l0 f4 [384, 128]
00000000: fb73 213c 1581 9c3d 5db7 b2bd ff30 f0bc
00000010: 18db 023d ea6a 083c c307 b5bb 6e0b 4ebd
00000020: 895f 973d 33d1 2f3d 719a bd3c eee2 74bd
00000030: 7cec a9bd d491 283b 0238 e03c a4ac 04bd
00000040: eff4 41bd 277b 6d3d 6704 87bb 93dd 17bb
00000050: f115 a9bc 8fd3 b6bd efb6 c5bd e7a3 01bd
00000060: 6e93 fbbc 9cdb 893c a19e 02bc 4583 2abd
00000070: f9d4 c33d 0baa cc3c f635 893d 0dd6 51bd
00000080: 593e 03bd f14c 073d 1d17 8fbd 8de6 75bd
00000090: c322 673c e87b d7bc 19e5 9dbd 43c4 733d
000000a0: 3f26 913d 47a0 e33c 3053 c0bc 3e07 b8bd
000000b0: 1a13 35bd a529 e63c 4ac4 373d fb5c 2e3c
000000c0: 4c8e e8bc b4cb 0e3d d70a 94bd 4640 143d
000000d0: 5fb3 cdbc 65b8 4aba dcb0 2abd ddcb 89bb
000000e0: 8818 78bc 45ba 143d 96a7 1f3c ff9d 7a3d
000000f0: 9c10 ac3d 30a8 92bd e1b7 4abd d125 9f3d
00000100: 62ba 663d 7cbc 72bd adcd 8dbc 3285 ebbd
00000110: e6d7 8abd c56a 3e3c 8706 0c3d b724 3c3d
00000120: 895e f6bc 96b3 a43d bda2 82bb 4f4d 40bd
00000130: d1a0 d03b c4e4 3b3c 1c16 a63c 65b9 5fbd
00000140: a63f 283d 8eef 77bd d6b8 9fbd fb9a 39bd
00000150: 494c a03d f3d6 ba3d b16a b43d 7a4e 9e3d
00000160: bc99 b33d 6e7c 23bb 4ba8 99bd 052a 553d
00000170: 99e3 b1bc 1785 56bd fe11 fabc 965f fe3c
00000180: 0903 513d 3e32 5cbd 48c8 47bd e393 ae3c
00000190: edea 3dbd 446e 8fbd 906e 1f3d 55a6 72bc
000001a0: 97bb a43d 04ff c93d 1321 273d 42c0 253d
000001b0: bc2f 8d3c 1515 2c3c 78f0 ca3a 50ed 933c
000001c0: fa59 1a3d 9cc8 a53d 7174 d7bc 5240 42bd
000001d0: 73ba b2bc 73e1 29bd 967a 073d 58b7 823d
000001e0: 4b89 a93d 2f48 fe3c d155 90bd 03dc 02bd
000001f0: 91b4 cfbc 0e1c d4bc 2d02 83bb 92a7 b3bd
00000200: f636 e73c 98ee 87bd 9cee 6bbd a49e 96bd
00000210: 89a3 953d 1d58 95bd 7a8d 8b3d 1c5e 98bb
00000220: cc76 11bc fabd 5a3d 4434 fdbb 0560 5c3d
00000230: 8e03 813d 4974 9cbd 71ee 073d 1183 9c3c
00000240: a954 313c 6792 343c 90ff a53c cac5 2dbd
00000250: 3441 26bc a5b5 a83d db20 653d efc0 a5ba
00000260: 46f8 9fbd 665d 5d3a a262 5bbd e6bb 913d
00000270: b6c6 55bd e045 08bc 061d 9ebc 3203 443c
00000280: 8a65 a83d 253f 1a3c 2cd4 3e3d 3c4b 8e3d
00000290: 1c62 9a3d 4a21 f5bc d8c4 abbc 0b9b 373d
000002a0: 2d1e c8bc 95db 3a3d 493d a3bc 2e29 76bd
000002b0: c57b 0e3d 0618 813c 7519 203d 699e c43d
000002c0: 0956 7d3d 2899 a33d f7cd cc3b 9aba a5bd
000002d0: b6fd 71bd 2999 69bd 2ef8 abbd 870a 3fbd
000002e0: 27c0 9ebd b055 b9bd 640e 54bd dbc0 b2bd
000002f0: 04fe 63bd 65b8 c83c daea 9b3d 01a8 c1bc
00000300: eb54 dfbc 659c 453d 81a9 36bd e54d 4fbd
00000310: 8cf8 5f3d fc04 9cbd 7669 4a3c bf35 b23d
00000320: f5f7 5e3c 297b ba3c a66a 5cbd 6404 fdba
00000330: dabc 003c 73da ac3c 8e07 f43c 08bc 9f3d
00000340: 3a1d 87bd 890f 4dba 5b95 3abd d048 8abd
00000350: 70c1 02bc c585 9bbd 7132 813d f8d1 873c
00000360: 28f5 2bbd 62d0 433d 9cce c2bd f579 08bd
00000370: 5907 35bc b09e 97bd ad92 63bd 4eab 3fbc
00000380: 87b7 873d 236f a53d bc49 6d3d 4779 56bd
00000390: 1897 68bd d7bf 9c3d 4736 043d 3fde 3b3a
000003a0: 790c 5d3c eb72 88bd 87c1 d8bc 5a4d b13d
000003b0: 4159 c2bc f5e5 7ebb e30b 95bd 254f 36bd
000003c0: 815e c939 71cd 64bd 54c1 55bc b504 023d
000003d0: 8add b2bd 6a5c db3c 9acc 5abd 7c49 2cbd
000003e0: cbcd 153d d659 8b3d 9512 dcbc e171 05bd
000003f0: 1387 a3bd b97c 3cbd c9ad a1bd dfdf c0bc
0.009854312 0.07641808 -0.0872638 -0.029320238 0.031947225 0.008326272 -0.005524607 -0.05030387
0.07391269 0.042924117 0.023144932 -0.05978673 -0.08297059 0.0025721686 0.027370457 -0.032391205
-0.047352728 0.057978775 -0.004120398 -0.002317284 -0.020640345 -0.0892707 -0.096540324 -0.03165045
-0.030709948 0.01682835 -0.00797239 -0.041629095 0.09562106 0.024983427 0.06699745 -0.051229525
-0.03204188 0.03303236 -0.069868304 -0.060034323 0.014107409 -0.0263042 -0.077097125 0.05951334
0.07087373 0.027786387 -0.023477167 -0.08985756 -0.04420767 0.02809603 0.04486493 0.010642285
-0.028388165 0.034862235 -0.0722863 0.03619411 -0.025109945 -0.00077331654 -0.041672572 -0.0042052106
-0.015142567 0.036310453 0.009744545 0.061185833 0.084016055 -0.071609855 -0.049491767 0.07770885
0.056330092 -0.059261784 -0.017309988 -0.11500014 -0.067794606 0.0116221355 0.034185912 0.04593345
-0.030074375 0.08042066 -0.003986685 -0.046948727 0.006366827 0.011468116 0.020274214 -0.054620165
0.041076325 -0.06053119 -0.077989265 -0.045313817 0.0782705 0.091230296 0.08809412 0.07729812
0.08769557 -0.0024945992 -0.075028025 0.052042026 -0.021714972 -0.052373018 -0.030526157 0.031051438
0.051028285 -0.053758852 -0.048774987 0.021310752 -0.04636662 -0.070034534 0.0389238 -0.014810164
0.080435924 0.098630935 0.040803026 0.040466554 0.017234676 0.010503073 0.0015483042 0.018057495
0.037683465 0.08094904 -0.02630064 -0.047424622 -0.021817422 -0.04147477 0.03307589 0.06382626
0.0827814 0.03104028 -0.07047618 -0.0319481 -0.025354655 -0.025892284 -0.003998062 -0.08772196
0.02822445 -0.06637305 -0.057600603 -0.07354477 0.073065825 -0.07292197 0.06814094 -0.0046498906
-0.008878421 0.053403832 -0.007727178 0.05380251 0.06299506 -0.07639367 0.03318638 0.019105466
0.010823407 0.011021233 0.020263463 -0.042424954 -0.010147382 0.08237771 0.055939537 -0.0012646
-0.07811026 0.00084443984 -0.05356086 0.07115917 -0.05219146 -0.008317441 -0.019300949 0.011963652
0.08222492 0.009414469 0.04658906 0.069479436 0.07538244 -0.0299231 -0.020967886 0.044825595
-0.024428451 0.045619566 -0.019926684 -0.060097866 0.034786005 0.015758526 0.039086778 0.09600527
0.061849628 0.079881966 0.006250139 -0.08092232 -0.05907985 -0.05703083 -0.08396946 -0.0466409
-0.07751494 -0.09049547 -0.051771536 -0.087281905 -0.05566217 0.024501989 0.07613154 -0.02363968
-0.027262172 0.048244853 -0.044595245 -0.050611395 0.054680392 -0.07618138 0.012354245 0.087016575
0.013608922 0.022763805 -0.053812645 -0.0019303677 0.007857526 0.021100258 0.029788759 0.07799536
-0.065973714 -0.00078224443 -0.045552593 -0.06752169 -0.007980689 -0.07593874 0.06308449 0.016579613
-0.041981846 0.04780615 -0.09512064 -0.033319432 -0.011049115 -0.07403314 -0.055559803 -0.011698557
0.06626802 0.08077838 0.057931647 -0.052361753 -0.05678472 0.07653778 0.032278325 0.0007166601
0.013491743 -0.06662544 -0.026459469 0.08657332 -0.0237242 -0.003889439 -0.07277658 -0.04450907
0.00038408118 -0.055859987 -0.013046581 0.03174277 -0.087336615 0.026777465 -0.05341778 -0.042062268
0.036573213 0.06804244 -0.02686433 -0.032579307 -0.07984748 -0.046017382 -0.07894475 -0.02354425

_rnn.bias_ih_l0 f4 [384]
00000000: 93ad 0ebd 1ca4 a43d 53c9 d2bd ab6b 753c
00000010: d8be 33bd 9d3e 01be fed2 f13d 1eaa 663c
00000020: 6442 06bd 5538 59bd 57ba 293d d573 283c
00000030: 1ee6 b6bc 6b78 16bb cd1d 623d 44cf 8abd
00000040: 8abf a2bd 1a6e 78bc 63cb 203d a5a4 93bd
00000050: e435 7cbd 0dbe 8b3d 282c 433d 7491 c1bd
00000060: 3390 e6bc 09f8 9fbd 8632 093d 2fe1 b83d
00000070: 0061 273d 35d2 8c3c eba8 c2bd 23a8 983c
00000080: aff8 843d 9de8 67bd a7a8 663c 26f4 443c
00000090: c960 43bd 3ae3 24bd dadb 25bc 450d 80bd
000000a0: d080 97bd 7c68 01bd 1d9c 8d3d 8ecf bb3c
000000b0: 7bb7 533d 352b 89bc c4c4 ed3d 9fc7 133d
000000c0: cbcf 82bd f563 3c3d 2d0b a3bb b5cd 333d
000000d0: 2096 46bd c031 5f3d e5a3 99bc b97b e33c
000000e0: 17c5 0c3d cf2b 313d 2d73 8b3d 6283 ed3d
000000f0: 28a3 d6bb 33a4 6b3c a3e2 653a 0a76 353d
00000100: 6bd6 a6bd cab5 d8bb 393a 44bd 5833 553d
00000110: 03c2 ad3d 5b2f 69bd 5836 803d d938 723d
00000120: 9a16 343d eeaa 7b3c 6678 57bc 7de1 dabc
00000130: 8593 5c3d 965b d13d 2abf 58bc 8eee a4bb
00000140: 6af4 403d 16bd 2b3d e530 873d 6ade 7b3d
00000150: 831b ecbc 2a8e 953c a85b f2bc 37c7 45bd
00000160: 98c8 32bd 8f87 adbd a4a6 f43c 9425 4a3d
00000170: 6c04 99bc 7937 cdbc a4c7 4ebb fc27 33bd
00000180: a8ee 873c 7294 8cbd 2bc0 623d bd3b 02bc
00000190: 1604 ce3c 27dd cb3c 267b dfbb 5728 bb3d
000001a0: 29e7 593c 28cd 2b3c 36c9 45bd 7b6c 1abd
000001b0: bfae b5bd e4c6 de3b 20a0 10bd 7a53 abbd
000001c0: fb29 c7bd acdd fa39 c68f aa3c 658f 04be
000001d0: d5f6 d8bb 236e e23d 5c31 80bc fa1a 54bd
000001e0: 8436 73bd 01ce b0bd 64d1 5e3d 47d8 07bd
000001f0: ef31 82bd 867b 69bd e164 97bc 8fb1 da3c
00000200: 1e33 c9bc ebf9 c0ba 8fb1 83bd 0df4 ffbd
00000210: 85c4 afbe 5235 20bf 6803 73bd f6e8 f6bd
00000220: 780c 2cbe fb7b 823c 3a1c 1dbe b24c 94bd
00000230: a6a8 cebc d85b f9bc e529 92bd cea7 28bd
00000240: b0cb bebe bd6e 79bc abb4 95bc b22d 8abd
00000250: 1714 67bd 5ee0 433d 5115 81be 8e58 d3bd
00000260: 31c8 4dbe 379a a8bd d8de 6cbe c75c a43c
00000270: d496 a9bd 9d64 0abe 7cd1 19bd cbe3 c9bd
00000280: 3c11 93be 50e8 12bd b53d 24be 6db9 ddbd
00000290: 4b12 44be 6bb3 3e3d 543e 97bd abc3 853c
000002a0: fcc0 383d f8e0 75be 0454 37bd 6e1f 0ebb
000002b0: 79a4 f9bd a4b6 60bc 742e d1bd 005d 60be
000002c0: d4bd 9cbd 9bb0 52be 4a59 76be 60c7 39be
000002d0: 329b 9cbd 12d9 303d 37ea b5be 661f f3bd
000002e0: f82c 2bbe 90ec afbe e2a1 45be d43a f4bc
000002f0: dc8b 2abe 3e91 cdbe 75cf 5bbe a5f8 10be
00000300: e8ef 3cbe df5d 2fbe 5186 3dbe 1850 e8be
00000310: fdd7 8dbd 2133 93bd 8049 8fbd 50bb 92be
00000320: 0ec5 11bd 91d6 8dbd b460 41be 9f61 853c
00000330: 0083 0ebe 42ce c1bc 07c6 05be 291b 823c
00000340: 98f3 b6bc 1552 32be 276f 653d 6385 89bc
00000350: 7507 e5bb f3c3 86be e11e a1be 6c0b 99be
00000360: 4705 a5be 9ef6 09be f255 f4be 1d08 bdbd
00000370: 73ad 93be d1d3 19bd 812b e4bd bcf7 bfbd
00000380: f6c5 f8bd 0358 13be 6829 5fbc b53d 0e3d
00000390: e3c7 00be 02bb 20be 8439 9bbd 1526 1dbe
000003a0: 6121 d0bd 566c 5abe 3293 25be 92be 27be
000003b0: 51d1 553d c188 a6bd f9d7 21be 9a68 91be
000003c0: 4650 cfbd dd89 e33b ae88 f6bc fb5b 2ebe
000003d0: 2a57 47be 044e e6bd 1204 20be 3692 86bd
000003e0: e347 54bd fcf9 e6bd fa1a 86bd 8568 96be
000003f0: 5922 0ebc 6f7f a8bd e6c8 ecbd 7342 febc
-0.034833502 0.08039114 -0.10292306 0.014979283 -0.043883175 -0.12621541 0.11807822 0.014078645
-0.03277816 -0.053032238 0.041437473 0.010281523 -0.022326525 -0.0022959958 0.0552042 -0.06777814
-0.079466894 -0.015162969 0.039256465 -0.07209138 -0.06157483 0.06823359 0.047649533 -0.09451571
-0.028144931 -0.07810981 0.03349545 0.09027325 0.04086399 0.017190078 -0.09504875 0.018634861
0.06492745 -0.05661832 0.014078296 0.0120211 -0.047699723 -0.040255763 -0.0101232175 -0.06252531
-0.07397616 -0.031593785 0.06914542 0.022926118 0.051688652 -0.016744236 0.11609796 0.036079045
-0.063872896 0.045993764 -0.0049756975 0.04389735 -0.048483014 0.054490805 -0.018754909 0.027768956
0.034367647 0.04325467 0.068090774 0.11597325 -0.0065502115 0.01438241 0.0008769428 0.044302024
-0.08146366 -0.006613468 -0.047907088 0.05205092 0.084842704 -0.056929927 0.06260365 0.059136245
0.043966867 0.015360577 -0.013151264 -0.02671885 0.053851623 0.10222547 -0.013229171 -0.0050333207
0.04710809 0.041928373 0.06601123 0.061491407 -0.028821712 0.018256266 -0.02958472 -0.04828569
-0.043648332 -0.084731214 0.029864617 0.049352244 -0.018678866 -0.025050865 -0.00315521 -0.043739304
0.016593292 -0.06864251 0.055359047 -0.007948813 0.025148433 0.024885727 -0.0068201004 0.091385536
0.013299742 0.010485925 -0.048287593 -0.03770111 -0.08871221 0.006798612 -0.035308957 -0.08365531
-0.09724804 0.00047848874 0.02082051 -0.12945326 -0.0066212215 0.11056163 -0.015648536 -0.05178354
-0.059378162 -0.08633042 0.05439891 -0.033165243 -0.0635718 -0.057002567 -0.01848072 0.026695995
-0.024560507 -0.0014722919 -0.06430351 -0.12497721 -0.3432962 -0.6258136 -0.05932942 -0.120561525
-0.16801631 0.01592826 -0.15342799 -0.07241191 -0.025226902 -0.030439302 -0.07136897 -0.041175656
-0.37264776 -0.015224156 -0.018274626 -0.06746997 -0.056415644 0.047821395 -0.25211576 -0.10319625
-0.20095898 -0.08232539 -0.23131883 0.020063771 -0.08280721 -0.13514943 -0.037553295 -0.09857901
-0.28724086 -0.03586608 -0.16039164 -0.10826383 -0.19147603 0.046557825 -0.07384935 0.016328653
0.04510592 -0.240116 -0.044757858 -0.0021686214 -0.12189574 -0.01371542 -0.10213938 -0.21910477
-0.07653394 -0.20575182 -0.24057499 -0.18142462 -0.07646789 0.043175764 -0.35530254 -0.11871223
-0.16716373 -0.3436017 -0.19300035 -0.029813208 -0.16654915 -0.40149873 -0.21465857 -0.1415735
-0.18450892 -0.17125653 -0.18508269 -0.45373607 -0.06925962 -0.071874864 -0.06996441 -0.28658533
-0.035588317 -0.06925691 -0.18884546 0.0162819 -0.1391716 -0.023657922 -0.13063823 0.015882092
-0.022332951 -0.17414124 0.056014206 -0.016787237 -0.0069894143 -0.26321372 -0.3146887 -0.29891527
-0.3223059 -0.13472983 -0.4772182 -0.09230063 -0.2884327 -0.03755552 -0.1114111 -0.093734235
-0.12147133 -0.14389043 -0.013620712 0.034726817 -0.1257625 -0.15696338 -0.075793296 -0.15346558
-0.101626165 -0.2133039 -0.16169432 -0.1638129 0.052201573 -0.081315525 -0.15805043 -0.28400117
-0.10122733 0.006943925 -0.03009447 -0.17027275 -0.19466844 -0.11245349 -0.15626553 -0.06570856
-0.05182637 -0.112781495 -0.06548114 -0.29376617 -0.008675181 -0.08227431 -0.11561756 -0.031037545

_rnn.bias_hh_l0 f4 [384]
00000000: 403e 5d3c 551c 213c 70d7 b13c 1ed2 5abd
00000010: f427 d4bd b43d 16bd 3175 d43d d020 72bd
00000020: 6a97 0b3d 1dc0 95bd 8cb3 d43d 727c 6e3b
00000030: 3a98 9ebc ac0b 753d 751e 03bc 1ff1 143d
00000040: 68ab e0bd e5dc 173d e7ae b23c 2bb7 af3d
00000050: 2f0c 833d bedf e13c 8682 0d3d 6dbd 063d
00000060: 2c3a 03bd 39f8 31bd 02d9 98bc 6714 50bd
00000070: 5e17 1cbc 1149 d63d d7b3 bdbd ced0 643c
00000080: 2ea6 4e3d b5c3 8a3d a2ac 98bd 5697 3ebd
00000090: 4f27 d43c 34d9 b1bd 01b2 a23d 4ee9 1abd
000000a0: 7324 90bd cd9f c4bc 6413 483d f595 a4bd
000000b0: 3fda e43d f02a 6cbd 352e 593d 22bb 643c
000000c0: dd71 a23b 43ea ebbd 4ce4 d73c 77ab a73b
000000d0: f026 8cbd b8fe db3c 0e62 993c 1a0d bebc
000000e0: 2140 953d 4e12 fb3b f1a3 093d 4f05 bd3d
000000f0: 74ba 64bc 8b70 6cbc c07c 95bc 629d cf3d
00000100: 25c8 0dbc bb7f 16bc f449 9dbb f8a7 333a
00000110: 2e39 e4ba bf38 243d f6f6 553d 2b6e 3f3d
00000120: 498e e7bc f468 b2bd d6db 0bbd 1b1b 50bd
00000130: 6fe2 bdbd 6d62 f6bc df0b 3d3d 3431 70bd
00000140: 5329 8b3c e688 b3bc 30a2 303c a1ed ba3c
00000150: 86b5 073d 4ba3 7e3d 2d92 3cbd 6323 033d
00000160: a3e1 873c a39c b43c 7a6b e6bd 10a7 15bd
00000170: c05b 5c3c f3af c93d ac7f 4c3c 5d70 8c3d
00000180: fced 4b3d 43ce 013d 59c6 8dbd d8e2 9a3d
00000190: b1d2 613c 3384 f6bc f706 993d 1a9b cc3c
000001a0: 9682 5e3d f8d4 8d3d a433 8dbd 44ca 56bd
000001b0: 5fc6 633d 1e78 bfbc 5ff9 70bd d4d0 c6bc
000001c0: d30f cebd 15ea 943d af51 5ebd d5ff ccbd
000001d0: f3da 5d3d 2728 da3d 3f36 af3c b170 a13d
000001e0: 79d2 a3ba 809a d3bd 1178 2f3c 9b6f 0cbc
000001f0: 4bf1 09bd e327 a4bd 9177 b2bc bf0e 81bd
00000200: f706 c0bd d753 e5bc f503 2fbe 9314 333c
00000210: 35f7 7dbe a8f7 11bf 7ba6 29be 00ab f0bd
00000220: f51b 19be 924f 07be 1b66 9bbd 9865 313c
00000230: b665 3dbc edeb 3abd edb0 06bd d58f 83bb
00000240: a8fe e8be cb0a 67bc 50ca 3abe 9d53 ed3c
00000250: 4c44 37bd 214d e9bd aee5 25be 447e 84be
00000260: 4195 c6bd 01cd 20be d7db 68be 8b65 4e3a
00000270: 35b4 cfbd 6528 2ebd d00c f9bd c137 3dbd
00000280: d7a5 9fbe 79b2 30bc 04b7 793c 15e4 203c
00000290: e8d7 54be 3b8d 98bc 1470 f1bd a27a efbc
000002a0: e21c 83bc 0020 10be ddc0 6a3c 1813 cebc
000002b0: 22b4 96be a99d 52bd 9fe0 7fbd 9b6a 89be
000002c0: 3de5 20be 6fbe 35be 902f 7fbe bb92 8bbe
000002d0: fec9 40be 5da6 08bd ab2d a7be eadf 14be
000002e0: 9287 efbd 64a7 7fbe 9aea 36be c7f8 80bd
000002f0: 3075 1cbe 843b aebe 8c40 54be 1ca4 d5bc
00000300: b4d7 11be 2d74 80bd 9938 a7bd 8173 d3be
00000310: 6795 2bbe 6ef3 d1bd eede 19bd c271 8bbe
00000320: fd8d 02be 4eac bdbd 8d93 b3bd 269e 06be
00000330: 5dff 0dbe 9a74 8abd 4244 3bbd 2693 0bbe
00000340: 6447 a4bc b45e 2bbe 7185 39bd 2c0e e6bc
00000350: dd9f 72bd e5d4 2ebe da12 a7be eec1 b6be
00000360: ad72 afbe 80a1 c13c 8f9b 20bf 1d6e 35be
00000370: 95cc 94be 60ef aa3c 7b01 04be 0f39 04be
00000380: 7bab 20be 87d3 28be 8e10 743d 3e8c f63c
00000390: bd9d 8b3a b65a 0bbe 1040 34bd b94d 18be
000003a0: b447 e5bd 9297 d3bd 46bc 2dbe 147b e8bd
000003b0: 1506 a13d e6bb 443c 5089 1dbe 3665 84be
000003c0: bd4c 72be eb95 04be 7a6f d93c 19b4 19be
000003d0: be82 74be 7a6a 06bd e809 84be c18f bbbd
000003e0: 978e 38be 813c dfbd 453f 0ebd f5ea 99be
000003f0: 79d5 d4bd 14b5 63bc b960 28be b0a4 81bd
0.013503611 0.009833415 0.021709174 -0.05342304 -0.10359183 -0.03667994 0.10373915 -0.059113324
0.034079947 -0.07312033 0.10385808 0.0036390093 -0.019359697 0.059825584 -0.008002867 0.036362763
-0.10970193 0.037075896 0.021811916 0.085798584 0.06398808 0.027572509 0.034548305 0.032895494
-0.0320379 -0.043449614 -0.018658165 -0.050800707 -0.009527056 0.10463155 -0.09262817 0.013965799
0.05045145 0.067756094 -0.07454802 -0.046531044 0.02589765 -0.08684006 0.07944108 -0.037820153
-0.07038202 -0.02400198 0.048846617 -0.080364145 0.1117444 -0.057658136 0.053022582 0.013960632
0.004957421 -0.11519291 0.026353978 0.0051168757 -0.06843364 0.026854858 0.018723514 -0.023199607
0.07287622 0.007662094 0.033603612 0.09229528 -0.0139604695 -0.014431129 -0.018247962 0.1013744
-0.008653675 -0.009185727 -0.0048000757 0.00068533374 -0.001741206 0.04009318 0.052237473 0.046735924
-0.028266089 -0.087114245 -0.0341452 -0.0508071 -0.092717044 -0.03007623 0.0461539 -0.058640674
0.016987478 -0.021915864 0.010780856 0.022818388 0.0331321 0.062167447 -0.04603784 0.03201617
0.016587084 0.022047346 -0.11250968 -0.036536276 0.013449609 0.09848013 0.012481611 0.06857369
0.049787506 0.031690847 -0.069225974 0.07562798 0.013783143 -0.030092334 0.074720316 0.024976302
0.054323755 0.06925386 -0.06894615 -0.05243899 0.055609103 -0.023372706 -0.05883157 -0.024269499
-0.10061612 0.0727121 -0.05427712 -0.100097336 0.054163884 0.1065219 0.021388171 0.07882822
-0.0012498639 -0.10332203 0.010709778 -0.008571531 -0.03367738 -0.0801542 -0.02178553 -0.06301641
-0.093763284 -0.02799408 -0.17091353 0.010930198 -0.24801333 -0.5701852 -0.16567414 -0.11751366
-0.14952071 -0.13213947 -0.075878344 0.0108274445 -0.011559894 -0.045635153 -0.032883573 -0.004014949
-0.45506787 -0.014101694 -0.18241239 0.028970534 -0.044742867 -0.11391664 -0.16200897 -0.25877583
-0.09696437 -0.15703203 -0.22740112 0.00078734074 -0.10141794 -0.042518992 -0.12160647 -0.04619575
-0.31181213 -0.010784739 0.015241388 0.009820004 -0.20785487 -0.018622031 -0.11788955 -0.02923328
-0.016004983 -0.14074707 0.014328209 -0.025155589 -0.29434305 -0.051419888 -0.062470075 -0.26839146
-0.15712447 -0.17748426 -0.24920487 -0.27260384 -0.18827054 -0.03336178 -0.3265203 -0.14538541
-0.1169578 -0.24966198 -0.17862931 -0.062974505 -0.15279078 -0.34029782 -0.20727748 -0.02607923
-0.1424244 -0.06272159 -0.08165092 -0.4129906 -0.16756211 -0.10251509 -0.037566118 -0.27235228
-0.12749477 -0.0926138 -0.087683775 -0.13146266 -0.13866945 -0.06760521 -0.045719393 -0.13630351
-0.020053573 -0.16735345 -0.045293275 -0.02808293 -0.05923449 -0.170734 -0.3263157 -0.35694832
-0.34267178 0.02363658 -0.62737364 -0.17717786 -0.29062334 0.020866096 -0.1289119 -0.12912391
-0.15690415 -0.16486941 0.0595861 0.03009617 0.0010651868 -0.13608822 -0.044006407 -0.14873399
-0.11195317 -0.10331644 -0.16966352 -0.113516 0.07862488 0.012007689 -0.15384412 -0.25858468
-0.23662086 -0.12947814 0.026542414 -0.15010108 -0.23877999 -0.032816388 -0.25788808 -0.09158278
-0.18023144 -0.10900212 -0.034728307 -0.3006207 -0.10392279 -0.013898153 -0.16443147 -0.0633024

_rnn.weight_ih_l0_reverse f4 [384, 1]
00000000: d1f3 c33c eb62 14bd dd0a c63d 98b4 eabc
00000010: 1aa3 373d 1e20 59bd 49ed b0bd 45c5 da3e
00000020: 5e60 993c edea 653d 4136 233d 139e d33c
00000030: e3bf 9c3d 5fe1 703e d73d a03e 916d 953d
00000040: bddf 9abd c2ec be3a 6ef8 5bbd 56b9 683d
00000050: 002c 643d 7b6d f23d b039 17bc bfc4 063d
00000060: 0646 38bd 05fa 35bd ec77 133e 6cd6 bb3d
00000070: 7e1a d5ba 2b68 15bd bbc6 ce3c 23ca ac3d
00000080: 0ae5 8e3d ec7c 003e c9ad babb 36e9 d83b
00000090: d18c 9bbc 6650 723d 2543 453d 2923 23bd
000000a0: 798d 80be a372 953a ee46 4b3e 0879 45bd
000000b0: 5c9b 56bc ef5e 80bd 6a98 8a3d dc83 24bd
000000c0: 7bb2 733c eab4 bc3d 0c0a 953e 4fba 593d
000000d0: e600 613e 7367 91bd ee1a 843d 7cf7 863e
000000e0: 259e dd3d 6266 8a3d ef65 6ebd 11dc d13c
000000f0: 4e93 c33d a68e 2c3f 8d02 033e 9eba 5a3e
00000100: c8dc 963d a88b f63d 75a1 6cbc dd38 96bd
00000110: 1e53 8cbd 763a e13c 757d 8ebd 0ba1 69bc
00000120: a3e6 14bd 0bdb 59bd 4e98 0d3e b8fc 193e
00000130: c49e ad3d ef29 b0bd 2792 903d 3555 a6bd
00000140: a349 4bbd 61ba 18bc abee 3dbc d4a7 f6bd
00000150: 492a 1ebd a042 0f3e 7157 5fbd 5ae6 f0bc
00000160: b8de 94bd f37b 333a 6456 d43d 63a9 dabd
00000170: 56fe 4ebc f7ce 14bc f49c a2bd 7507 983d
00000180: 0e34 d83c 2aab 883d 50d4 a13d 7b95 133d
00000190: bb80 593d 41ea 403c 703c c43d a1fb 0c39
000001a0: 1606 cd3d 5fc8 27bc 8c31 613d e755 203c
000001b0: 1312 2c3d d781 983c 9eb3 9dbd 2bd1 43bd
000001c0: 9c9c ba3e 6665 bb3d 0abf c8bc 6266 843d
000001d0: 535a 72bc 1fd2 6abd f7eb 95bb 8ace 283d
000001e0: fea9 b23d 5fc1 3abd 896f 32bd 97b6 363e
000001f0: ebbe 383c 8928 fc3d 152d 383d 2c85 4abc
00000200: bca8 bfbb d729 b2bd 3ba1 1fbc 6aa5 683c
00000210: cccb babc 2386 b73c cf42 9ebc 3384 74be
00000220: e48f 9cbd 3a1a 39bb f67d 8dbd 4eaa 943d
00000230: bdbd 333c 3e31 c2bc 92bc edbd e6f0 253c
00000240: 5d63 adbd 4067 a43c 3d18 193d d722 483c
00000250: e1fd 45bd 7616 41bd c931 29bd 5d66 bf3d
00000260: 9b3b 933c 6666 5abd 2025 41bd 1370 02bd
00000270: cd86 173d f6b2 af3d d4cf 713d 3c1c 013d
00000280: 3d13 08bd 0a97 843a 0276 783d fa65 683d
00000290: bd34 9d3b 9b58 8b3d a979 ecbd 36ef c7bd
000002a0: 0301 d03d 541c 0f3d d6f7 0dbb f8db 8cbd
000002b0: bf96 ab3d f396 a2bd fedd 9c3d f104 01bd
000002c0: e1b5 9a3d c23a 7e3c a4e3 8abd 2665 56b8
000002d0: c048 05be 2fd2 a0bd deb1 e6bd 67d0 d0bd
000002e0: 0e7b 0abd d66e fd3c 977a a4bd 5caa 82bd
000002f0: cf26 76bc 35aa 82be e569 81bd 1c92 10be
00000300: b5a6 a3bd a54d e2bd af9f e6bc 9e8d aebc
00000310: 406d 90bd 8682 babd 3aa0 26bc 8f88 c73d
00000320: 782e 8a3d 0faa 0c3c 8cae 04be cf05 fabc
00000330: 8e67 9fbd 48aa 68bd 571d d1bb b36a 933c
00000340: 2bea 2abd f801 883b 588c 15bc 4e37 b7bc
00000350: f0e5 c33c 3afd 833c 20d4 51bd ffb9 87bc
00000360: 9fc7 9cbd eb83 65bd 1562 d2bd e6d2 2ebd
00000370: 86b1 89bd f50e 813a a15b 8d39 6339 22bb
00000380: 31d8 813d 4f79 8b3c 4ffe 1a39 4777 583b
00000390: 30bd 91bd ce91 6dbc 5a06 1abd 436c 863d
000003a0: 22ca 633d 2a11 adbd 964f 6f3b 5381 8e3d
000003b0: ff0d 863c 5b74 96bd 5325 663d f30a 94bd
000003c0: 3553 3bbe 70cf 05be 02a6 b53d 5cd7 953d
000003d0: 23de 0fbd 1a10 0e3d c43d 7c3d 5679 acbd
000003e0: 8f93 a2bd 2a64 3dbd 9922 c5bb 1000 b8bd
000003f0: 76c2 423d a34e afbd 9c42 65bd 2cd0 e13b
0.023919972 -0.036227148 0.09670041 -0.028650567 0.04483328 -0.053009145 -0.086390086 0.4272863
0.01872271 0.056132246 0.039846662 0.025832212 0.07653787 0.23523472 0.3129718 0.07296289
-0.07562206 0.0014566409 -0.053703718 0.056817375 0.055706024 0.11837288 -0.009230062 0.032902475
-0.044988655 -0.04442789 0.14401215 0.09171757 -0.0016258506 -0.036476295 0.025241246 0.08436992
0.069772795 0.12547654 -0.0056969863 0.006619598 -0.018988045 0.059158705 0.048159737 -0.039828453
-0.25107935 0.0011401962 0.19851276 -0.048211128 -0.013098564 -0.06268107 0.06767352 -0.040164813
0.014874096 0.09214194 0.29109228 0.053156193 0.21972999 -0.070998095 0.06450449 0.2636069
0.10821179 0.06757809 -0.05820268 0.025617631 0.095495805 0.67405164 0.12793942 0.21360251
0.073663294 0.12038356 -0.014442791 -0.073350646 -0.06851791 0.027493697 -0.06957523 -0.014259587
-0.036352765 -0.05318741 0.13827631 0.15037811 0.08477548 -0.08601748 0.07059126 -0.08121721
-0.049630772 -0.00932178 -0.011592547 -0.120437294 -0.038614545 0.13990259 -0.05452675 -0.029406715
-0.07269043 0.0006846778 0.1036804 -0.10676839 -0.012633881 -0.009082547 -0.07940093 0.07423297
0.02639201 0.06673272 0.079018235 0.036031228 0.053101283 0.0117746005 0.0958184 0.0001344518
0.100109264 -0.010240643 0.054978892 0.009786106 0.042009424 0.0186166 -0.07700275 -0.0478069
0.36447608 0.091501996 -0.024505157 0.064648405 -0.014792043 -0.057329293 -0.0045752483 0.041212596
0.0872383 -0.04559457 -0.0435634 0.1784309 0.011275987 0.12312419 0.04496487 -0.012360852
-0.005848972 -0.086993866 -0.00974303 0.014199594 -0.022802256 0.022402829 -0.019318966 -0.23878555
-0.076446325 -0.0028244392 -0.06908791 0.072590455 0.01097053 -0.023705121 -0.116082326 0.010128235
-0.08466218 0.020068765 0.03737663 0.012215338 -0.04833782 -0.04714056 -0.041307244 0.09345696
0.017972758 -0.05332031 -0.047154546 -0.031845164 0.03699379 0.08579056 0.05903609 0.031521067
-0.033221472 0.0010115814 0.060659416 0.056737877 0.0047975467 0.068040095 -0.11546642 -0.09762423
0.10156443 0.034939125 -0.0021662614 -0.06877893 0.08378362 -0.079389475 0.07659529 -0.031498853
0.07554222 0.015516939 -0.067817 -5.1115778e-05 -0.13016033 -0.07852589 -0.11264394 -0.101959996
-0.03380876 0.03093664 -0.08031195 -0.0638015 -0.015023901 -0.25520483 -0.06319026 -0.14118236
-0.07990781 -0.11049966 -0.028152315 -0.021307763 -0.07052088 -0.091069266 -0.010170037 0.09742843
0.067471445 0.008585467 -0.1295721 -0.030520348 -0.07783423 -0.056803018 -0.0063816714 0.017995214
-0.041727226 0.0041506253 -0.009127699 -0.022365239 0.023913354 0.016111959 -0.05122769 -0.016568182
-0.07655262 -0.05603401 -0.10272614 -0.042681597 -0.06723313 0.0009846376 0.00026961885 -0.0024753443
0.06340063 0.017025618 0.00014781322 0.003303008 -0.07116163 -0.014500095 -0.037603714 0.06563618
0.05561269 -0.084505394 0.0036515943 0.069582604 0.016364096 -0.07346412 0.05618794 -0.07228651
-0.1829346 -0.13067412 0.08869554 0.07316467 -0.035123955 0.034683324 0.06158234 -0.084215805
-0.07938301 -0.046238102 -0.0060160873 -0.08984387 0.047548734 -0.08559921 -0.055971727 0.006891271

_rnn.weight_hh_l0_reverse f4 [384, 128]
00000000: e516 d23d 539c 653d f09b 1cbd 6e23 963b
00000010: b527 12bd 57b9 b43b f4c8 073d 9868 443e
00000020: 36b8 b0bc b67b 7bbd f5df f4bd 6fd9 893d
00000030: c1a4 9cbc b193 bc3c 6034 77bd 7fb3 8c3d
00000040: e4ba 2cbd 5d2c d83b ea92 503d 57da dc3d
00000050: e7c5 d33a 6645 e9bc 5d3c e83d be63 e03d
00000060: 5935 6abc 05d6 fb3b 9c9b e13b fe00 73bb
00000070: ad69 813d b454 d93c 2f5f aebc 7831 b03d
00000080: 60c9 33bd 65bb b8bd 0fc6 d63c 1528 bfbc
00000090: 38b0 c73d 6ff7 423d 7288 cfbd 6784 493c
000000a0: 55ae 13be 25f9 d63d cbd3 013d 8908 403d
000000b0: f986 14bd 676a a2bd 9145 9e3c ae97 943d
000000c0: d10f edbd 3526 053e 054a 983c 36b2 493c
000000d0: 4d3d c8bd 2246 69bd 741c 643c 54c8 533d
000000e0: 8923 e2bd 1d12 3cbb 62cf abbd 4c0e abbd
000000f0: b479 cfbd 3212 153e 5e33 6a3d 9153 093e
00000100: 7300 853d 9fea 1dbb 8302 ddbc faef f7bd
00000110: 4b27 c03d 8227 233d b18c bf3c 3767 8a3d
00000120: 70d6 153e 6d02 3cbb ec81 a13d 2102 353e
00000130: 06b8 97bc a0d2 e93c 458b ecbc 45d4 fabc
00000140: 4520 b13d d76a 80bd 6ba5 efbb b76d 923d
00000150: 3272 a43d 58df 0fbe 935e 4e3d 43b3 f73c
00000160: 3a3c 15ba a809 c4bd 686f 803d dafb 4cbd
00000170: ee75 eabd 91e2 58bd a0b2 11bd bf43 f4bc
00000180: aa5c ad3d 1058 783d ec95 a0bd 7ee3 183e
00000190: a808 b73d d93e 853d a6e8 c23d b11c 0ebd
000001a0: 8b24 acbd 00f0 a13d 8889 5ebd e444 873d
000001b0: 11dc 7eba 6f0b 38bd 3b01 943d d51c f9bb
000001c0: 9d7f ca3d 9235 16be 3b61 99bd fb9f 8f3d
000001d0: 5d7b 073d 579b 6c3c cc1f e9bd e567 403d
000001e0: d206 35be 3a59 2abd 2ec1 0c3e 41e1 5a3d
000001f0: de5a dcbd d1cd 2bbe e9a4 cbbd cb70 8a3c
00000200: 9706 d9bd 526e fcbd f34c 2abd 8d5b 38bc
00000210: 215c d93c 22de 8c3b 31e9 ddbd 8071 a8bd
00000220: 12ea 43bd bff0 babc 0906 d6bc 1b7f aabc
00000230: 9db2 3a3c 5773 0abe a473 b73d 0673 a0bc
00000240: 4be8 6b3d 33dc e13c 4c4f 063c 7d8c 963b
00000250: a195 dcbd bdee 1a3d b1f6 063d de3f 69bd
00000260: 9246 b03d 414a 0dbd 7b03 533d 9425 7bbd
00000270: 90b1 12bd 65cf 99bd 2806 9a3d 1680 96bd
00000280: 554f 9abd d254 1a3d 3dcd 86bd 87d0 3abd
00000290: 88a5 aebd 0216 0cbd 93a0 f4bc dffc 493c
000002a0: 00f3 bb3b 2c97 5d3c 298e 2b3d e3c9 9f3c
000002b0: 6e07 973d 4f9b 8a3d fd49 47bb 63c6 193d
000002c0: 261f ba3d 3dc7 98bd 3d0a d0bd 8966 3f3d
000002d0: 46fd a93d 5354 f83c b4b9 f6bb c810 a4bd
000002e0: 7bed 753d a00a 85bc e30e 6b3c 6d23 de3d
000002f0: ef3a 743d cac1 9dbd b4a8 48bd 5ae6 98bd
00000300: 0022 d13c 406f 943d 3891 f9bc c734 77bd
00000310: fc2d 333d 85f6 c5bd acaa 9d3d 3e54 13bc
00000320: ccd3 2d3d a682 54bc 48eb 98bc a450 e8bd
00000330: 2cce 2fbc 0762 473d 3db6 f1bc 58ae 913d
00000340: 3e7b 03bc 8b2c 0cbd a4c7 0bbd fc53 82bd
00000350: 2273 df3c f94c cdbc 78eb 163d 5648 9dbc
00000360: b341 4e3d 3868 7d3d ac5a a1bd 8eed debc
00000370: 341a 853d c2b5 743a 7302 acbd dcfa 66bd
00000380: 7ef6 bdbd dd70 85bd 80d9 953c cef0 353d
00000390: 4a1a 4dbc ee4a 91bc ce27 1ebd dd0b 60bd
000003a0: 3acb 513d 76f9 183d 2c74 193d 60ea 933d
000003b0: ebff 933d 3232 423d f7dc 50bd 208b 663d
000003c0: 6fd6 41bd 1205 4e3c afba 81bc 4da4 2339
000003d0: 2b54 e5bc d5bc 9f3d 822d 09bd 1387 6e3c
000003e0: 8ad0 10bd f7e6 f83c d31c 3bbd 1d20 3abd
000003f0: 8a3a a83d f6ff 9e3d 2f7a cd3c bb0c 263d
0.10258273 0.056057286 -0.03823465 0.0045818603 -0.0356824 0.0055152583 0.03315063 0.19180524
-0.021572214 -0.061397277 -0.11956779 0.06730925 -0.01912153 0.023019644 -0.060352683 0.06870174
-0.04217042 0.0065970854 0.05092136 0.107838325 0.0016157002 -0.028475475 0.113396384 0.10956524
-0.014294946 0.007685425 0.006885005 -0.0037079449 0.06318984 0.026529647 -0.021285621 0.086031854
-0.043893218 -0.09020118 0.026217489 -0.023334542 0.09750408 0.047599252 -0.10133447 0.012299634
-0.14421971 0.10496739 0.031696122 0.04688314 -0.036261532 -0.07930451 0.019320281 0.07255493
-0.11575282 0.13002856 0.018589983 0.012310555 -0.09777317 -0.05695165 0.013922799 0.05170472
-0.11041934 -0.002869732 -0.083891645 -0.08352336 -0.10130635 0.14557722 0.057177894 0.13410784
0.06494226 -0.0024096144 -0.026978737 -0.12106319 0.093824945 0.0398326 0.023382517 0.06757968
0.14632583 -0.002868797 0.07886109 0.17676593 -0.018520366 0.028542817 -0.028875003 -0.030618796
0.08648733 -0.06270378 -0.0073134205 0.07149833 0.080295935 -0.14050043 0.05038316 0.030236846
-0.00056928734 -0.09572154 0.06271249 -0.050044872 -0.114482746 -0.052950446 -0.03557074 -0.02981746
0.0846494 0.060630858 -0.07841095 0.14930531 0.08937198 0.06506128 0.095170304 -0.03469533
-0.084054075 0.079071045 -0.05433038 0.06604937 -0.00097221235 -0.04493278 0.07226797 -0.007602314
0.098876216 -0.14668873 -0.07489248 0.07012936 0.033076633 0.014441333 -0.11383018 0.04697408
-0.17678383 -0.041589 0.13745567 0.053437475 -0.10759519 -0.16777731 -0.099435635 0.016899487
-0.1059696 -0.123257294 -0.04157729 -0.011252296 0.026533188 0.004298941 -0.10835493 -0.082247734
-0.04783065 -0.022819875 -0.026125925 -0.020812562 0.011395124 -0.13520561 0.089576036 -0.019586097
0.05759458 0.02757082 0.008197617 0.004594384 -0.10770727 0.037825335 0.032950107 -0.056945674
0.0860721 -0.034494642 0.05151699 -0.061315134 -0.035813868 -0.075102605 0.075207055 -0.07348649
-0.07534663 0.037678547 -0.06582115 -0.045609023 -0.08527666 -0.034200676 -0.029861724 0.012328356
0.005735755 0.013524812 0.04188362 0.019505447 0.07374464 0.06767904 -0.003040909 0.037542712
0.09087972 -0.07459877 -0.10158203 0.046728645 0.08300261 0.030313646 -0.0075294618 -0.08011013
0.060040932 -0.016240418 0.014346811 0.10846601 0.059626516 -0.07702978 -0.048989013 -0.07465811
0.025528908 0.07247782 -0.030464754 -0.060353067 0.043745026 -0.096661605 0.07698569 -0.008992253
0.042438313 -0.012970602 -0.018666878 -0.11343506 -0.010730308 0.04867747 -0.029505843 0.071133316
-0.008024989 -0.034222167 -0.03412594 -0.06363675 0.02727658 -0.025061117 0.036845654 -0.019199532
0.050355624 0.06186697 -0.078786224 -0.027212884 0.064991385 0.00093349454 -0.08398905 -0.056391582
-0.0927553 -0.065156676 0.018292189 0.044419102 -0.012518475 -0.017735925 -0.03861218 -0.054698814
0.051219203 0.03734728 0.037464306 0.07222438 0.07226547 0.04741115 -0.05099198 0.056285024
-0.04732364 0.012574451 -0.015836088 0.00015606098 -0.027994236 0.07799689 -0.033490665 0.014558571
-0.03535513 0.03038357 -0.045681786 -0.04544078 0.082142904 0.077636644 0.025082676 0.040539484

_rnn.bias_ih_l0_reverse f4 [384]
00000000: 1502 fc3d 3a5d 213d 5a7a 873d 5205 ae3d
00000010: a016 d03d f158 0abd 9895 bc3c c7c1 4c3d
00000020: 38f9 d53c 848d a43d 2b2e 0fbd 968b c7bb
00000030: 6a50 7bbd 1a83 94bd 2f7f 523d b641 613d
00000040: 4b07 d739 1d00 99bd 1c86 0cbc 0775 063d
00000050: 155e bb3d 01f9 5bbd 00a8 893d 5cf1 9b3d
00000060: 1c9d 10bd 1f4e 01bd 5b1b aa3d 31a3 103d
00000070: 4520 a03d cee1 89bb 593d b3bd eb83 8d3d
00000080: e62e 363d ce56 2d3d 065d 923a a6c8 9abc
00000090: a2d2 ba3d 8ce1 a6bd 4c10 4a3d 0f18 b3bd
000000a0: 9a3d 1c3d 672d ddbd 7a83 8d3d fdfa 2bbd
000000b0: f247 0e3c e724 0bbe 5444 85bd 80bf 083d
000000c0: 5e5a 30bd d31d 37bc 419d b93b 3b33 7f3d
000000d0: fc97 cf3c 1081 d1bd 275d 19bd 95ef 813d
000000e0: af39 1c3b 6f99 83bc 9c79 893a 9f32 ad3a
000000f0: b564 74bd 8b0a b73c 9d65 64bd 6fba 4f3d
00000100: 70db aebd a2e1 553c f7c4 8a3d a377 30bb
00000110: 6b52 aebc 9044 80bd 922c 87bc 8f6e b23b
00000120: be14 ee3d 1dbc 36bc bf8a b53d ed65 ff3a
00000130: bb0b a3bd 82da 57bd 54c9 1a3d 3a9c 0cbd
00000140: 9c8f 983b 0992 c6bd f582 373d e896 fbbd
00000150: ba41 07bc e4ba 44bc 375e ec3c f1a1 923d
00000160: 409e 66bd c052 333d d0cd 3e3c f6aa 1e3e
00000170: a5cf d0bc 5a31 d13d ff70 7abc 3951 46bd
00000180: bf8f b0bd 33c3 99bc 7bf9 c03c 7ee7 5fbd
00000190: fb1d 163d c709 a83d 011a f7bc 11a6 a3bd
000001a0: e5df 2b3d 8a08 5e3c 54cc 1bbd 1725 e63c
000001b0: 4b8a bfbd 9a21 bf3c 2599 9abd bccf 2c3d
000001c0: 18da 533d 95bf 8d3d c7c6 ad3d 7b9c d7bc
000001d0: ad55 04bc 7aeb e93c fce7 053d 47c6 9f3b
000001e0: 3a28 fd3d 5098 b0bd 5523 d7bc f7b2 0a3d
000001f0: bab4 bbbd 9258 663e fdee d53c 7285 113d
00000200: 4df5 93be 5b23 28bd ab65 39bd 431b 24be
00000210: c7f2 35be 47d5 36bd f353 11be b5e7 f7be
00000220: 9f66 4bbe b46f b4bd 7ad2 a0bd 440a 57be
00000230: 5fb4 38be 1ff9 09be 382f efbe 396d 7fbe
00000240: 4ff3 3fbe 3afd acbc c5e8 fb3c 1f43 9cbd
00000250: 6e30 86bd f5fa 19be 162c 61be 6daf 38bd
00000260: 4366 8f3c c5ce 32be 0fe6 b0bd 9148 33bd
00000270: 7a4d 95bd 28c5 37be 93a9 1abb eda7 f8bd
00000280: 8ab0 403d 9ac0 2abe dc9e a43c 0144 55bd
00000290: 89de 5dbe 4ead bbbd 9f91 81be 6e56 06be
000002a0: db44 ecbe 848b 4ebe 8e3f 98be 5451 413d
000002b0: e28a 29bd a441 79be 5dae 9e3c b8dd 9abd
000002c0: b106 1ebd 3502 8fbe 3b17 dcbe d00a 0bbd
000002d0: 9462 58be 4ad2 a7bd 55ff ffbd 2c24 92be
000002e0: fa23 a4bc 1759 54bd 1332 2d3b f6e9 25bd
000002f0: b9c3 40bc 7e51 57bf 9590 16be 4acf 0fbe
00000300: 5409 fa3c 5b72 67be 30c3 ebbd 7a53 18be
00000310: 97ed b8bd 2cbb 02be 9d7d 92bd 33b8 7fbd
00000320: c7ba 47be a72f 3dbe 66b5 9ebe 7849 bbbe
00000330: 17ab 633d ac68 98bc 006d 30be d352 98bd
00000340: c566 74bd 2829 51be a0e7 4bbe bde1 4dbe
00000350: 44ba d4bd a5d1 5fbe f8c6 45bc 240f b63c
00000360: 7344 cfbd 137e 20be 254e 0cbe 4329 43be
00000370: 233e 8cbe 65f6 d6bd 5d16 a4bd c9a5 13be
00000380: b8ce f7bc 9434 99bd 5ac2 00be 1add 21be
00000390: 41b5 f4bd 996c 53be d120 8ebe 9e55 5cbe
000003a0: d421 83bc c52d abbd 7bae d6bc 54f4 e8bd
000003b0: 69e9 2b3d 5ab3 aabd b7cc 68bc 6136 1fbe
000003c0: 5624 bbbe 65ef bebe 58df 78bd e80d febd
000003d0: 5f40 09be 5601 16be 58ab 98bd 516c 36bc
000003e0: e00a 9dbe 4bec 3fbd d67f fbbd f369 8cbe
000003f0: 38cc 5abe 53f1 d8be 3bcc 4abd 8166 91bd
0.123050846 0.03939555 0.066151336 0.084971085 0.101605654 -0.033776227 0.02302055 0.049989488
0.026119813 0.080348045 -0.03495614 -0.006089638 -0.061355986 -0.07251568 0.051390823 0.054994307
0.0004101343 -0.07470725 -0.008576896 0.03282645 0.09148804 -0.053704266 0.067214966 0.07614395
-0.03530608 -0.031568643 0.08305999 0.03531188 0.07818655 -0.004207826 -0.087519355 0.06909927
0.04447832 0.04231911 0.0011166639 -0.018894505 0.09122206 -0.081484884 0.04933195 -0.08744823
0.038144685 -0.107996754 0.06909843 -0.041987408 0.008684145 -0.13588296 -0.06507173 0.033385754
-0.04305493 -0.011176544 0.005664498 0.062304717 0.025341026 -0.10229695 -0.037442353 0.06344525
0.0023838093 -0.016064374 0.0010488513 0.0013213939 -0.059666354 0.022343894 -0.05576097 0.050714906
-0.08537948 0.013054283 0.06775849 -0.0026926778 -0.021279534 -0.06263077 -0.016500745 0.0054453085
0.1162505 -0.011153248 0.08864354 0.0019485332 -0.07961222 -0.05269862 0.037789658 -0.034328677
0.0046557914 -0.09695823 0.044802625 -0.122846425 -0.0082554165 -0.012007449 0.028853519 0.07159794
-0.056303263 0.04378009 0.011645749 0.15494904 -0.025489638 0.10214491 -0.015285729 -0.048417304
-0.086211674 -0.018769836 0.023556462 -0.054664128 0.036649685 0.0820499 -0.030163767 -0.07990659
0.04196157 0.013551841 -0.03803666 0.028093858 -0.09352549 0.023331452 -0.07548741 0.0421903
0.051721662 0.06921307 0.084851794 -0.026319733 -0.008077067 0.028554667 0.03269194 0.0048759314
0.12361188 -0.08622801 -0.026261965 0.03386208 -0.0916533 0.22494724 0.026114935 0.035527654
-0.28898087 -0.041049343 -0.045262974 -0.16026025 -0.17768393 -0.04463699 -0.1419218 -0.48418966
-0.19863366 -0.08810368 -0.07852645 -0.2100001 -0.18037556 -0.13473938 -0.46715713 -0.24944009
-0.18745159 -0.021116842 0.030750642 -0.0762999 -0.06552206 -0.15037139 -0.21989474 -0.045089174
0.017504817 -0.17461689 -0.0863763 -0.043770377 -0.07290168 -0.17946303 -0.002359961 -0.12141404
0.04704336 -0.16675034 0.020095281 -0.052066807 -0.21666922 -0.091639146 -0.25306413 -0.13118908
-0.46146283 -0.20170408 -0.29735988 0.0471967 -0.041392215 -0.24341446 0.019370252 -0.07561821
-0.0385806 -0.2793137 -0.42986473 -0.03394586 -0.21131355 -0.08194406 -0.124998726 -0.28543222
-0.020036686 -0.051842775 0.0026427552 -0.040506326 -0.011765414 -0.8410872 -0.14703591 -0.14043918
0.030522026 -0.22602217 -0.115118384 -0.14875594 -0.09029692 -0.12766713 -0.07152865 -0.062431525
-0.19504844 -0.18475209 -0.3099777 -0.3657949 0.055583086 -0.018604599 -0.1722908 -0.074376725
-0.05966832 -0.20425856 -0.19912577 -0.20105644 -0.1038709 -0.21857317 -0.012071364 0.022224016
-0.101204775 -0.15673093 -0.13701685 -0.19058709 -0.27391157 -0.10496215 -0.08012078 -0.14418711
-0.030249938 -0.074807316 -0.12574139 -0.15807 -0.11948634 -0.20646895 -0.27759412 -0.21517035
-0.016007341 -0.08358339 -0.026206246 -0.11374727 0.041970644 -0.0833499 -0.014208964 -0.15548088
-0.3655116 -0.3729202 -0.060759872 -0.12404996 -0.13403462 -0.14648947 -0.07454556 -0.011134223
-0.3067236 -0.046856206 -0.12280242 -0.27424583 -0.21366966 -0.42371616 -0.049511176 -0.07099629
