outputs/seed42_detector.pth (torch, 407116 bytes, 10 tensors)

_rnn.weight_ih_l0 f4 [384, 1]
0	0x3d017237	0.031603064
1	0x3d6ef23e	0.05833649
2	0xbd2dffa2	-0.04248012
3	0x3d82c247	0.06384712
4	0xbed41cff	-0.41428372
5	0xbea7e99f	-0.32795426
6	0xbd97f3d7	-0.07419556
7	0x3cf03c12	0.029325519
8	0x3deb9977	0.115038805
9	0xbd6bd32a	-0.05757443
10	0x3d878fc4	0.06619218
11	0xbc6c5afe	-0.014425991
12	0x3d3cbdbf	0.046079393
13	0x3cb44c9f	0.022009192
14	0x3d8c7411	0.068580754
15	0xbca3c160	-0.01998967
16	0xbe139240	-0.14411259
17	0x3d0e0e45	0.034681577
18	0xbd61f3c0	-0.0551641
19	0x3c12c47e	0.00895798
20	0xbd35627b	-0.04428337
21	0x3c30c83a	0.010789925
22	0xbe323cf3	-0.17406063
23	0x3d2ff889	0.04296163
24	0xbdfca4a3	-0.123360895
25	0x3dd74453	0.10511079
26	0xbc6b7021	-0.014369995
27	0xbd7283e2	-0.059207805
28	0xbc5f9088	-0.013645299
29	0xbd8dcfcc	-0.069244
30	0x3d913a2c	0.070911735
31	0xbd3335a0	-0.043752313
32	0x3e6949af	0.22782014
33	0x3c64b810	0.0139599
34	0xbcbc8905	-0.023014555
35	0x3d13f158	0.036118835
36	0xbdf6d1da	-0.12051745
37	0x3dd9e24a	0.10638864
38	0xbd8ec943	-0.069719814
39	0x3cbecbc2	0.023290519
40	0x3cbaaa03	0.022786146
41	0xbd28b67b	-0.041189652
42	0x3d21ce4a	0.039503373
43	0x3d8c7e9d	0.06860087
44	0x3c11b710	0.008893743
45	0xbd1b9241	-0.037981275
46	0x3d396713	0.045264315
47	0xbd1a172b	-0.03761975
48	0x3d58c0cc	0.05291824
49	0xbdc00902	-0.09376718
50	0xbd89ed79	-0.067347474
51	0xbdc15bb2	-0.094413176
52	0xbcaa17e3	-0.020763343
53	0x3d8a89f2	0.06764592
54	0xbe3c3a69	-0.18381657
55	0xbd1fbce7	-0.03899851
56	0x3ccb2425	0.024797508
57	0xbdf80dea	-0.12112029
58	0x3d1a1ca3	0.037624966
59	0xbdba75b0	-0.09104478
60	0x3d39573a	0.0452492
61	0xbef11951	-0.47089627
62	0xbd2c6fba	-0.04209874
63	0xbd4def69	-0.050277147
64	0x3c0f5a6f	0.008749588
65	0xbc4d1218	-0.012516521
66	0x3acb0467	0.0015488983
67	0xbe79ebfa	-0.24406424
68	0x3daf69ac	0.08565077
69	0xbdb44abf	-0.08803319
70	0x3d8d8152	0.069094315
71	0xbb0462bb	-0.002020045
72	0x3e9f57a0	0.3112154
73	0xbe0ebfbe	-0.13940331
74	0xbe2d95e9	-0.16951717
75	0xbd846abe	-0.06465672
76	0xbdd43224	-0.10361126
77	0x3cf48e37	0.02985297
78	0x3d10cecf	0.035353478
79	0x3d900454	0.070320755
80	0xbd4e42e0	-0.050356746
81	0xbe608059	-0.21923961
82	0x3d2670a7	0.040634777
83	0xbd22aeba	-0.039717413
84	0x3d7dd2d3	0.061968636
85	0xbdaf330d	-0.08554659
86	0x3e777fc8	0.24169838
87	0xbf17ddaa	-0.5932261
88	0xbe17fcd0	-0.14842534
89	0x3cd509cd	0.02600565
90	0xbd334575	-0.04376741
91	0xbd27416a	-0.040833868
92	0xbe40da98	-0.18833387
93	0x3d87ef52	0.066374436
94	0xbd53bb62	-0.051692374
95	0xbd54a142	-0.0519116
96	0x3e0840ea	0.13306013
97	0xbe081b39	-0.13291635
98	0xbce5a7ee	-0.028034177
99	0xbdd3c8f6	-0.10341065
100	0xbd45d259	-0.048296306
101	0xbd30ebd5	-0.043193657
102	0xbcd0735f	-0.025445638
103	0xbd1c621b	-0.0381795
104	0x3d89d581	0.06730176
105	0xbd229839	-0.039695952
106	0xbe2d0dd5	-0.16899808
107	0xbdb8d511	-0.09025014
108	0xbd9a59c5	-0.075366534
109	0xbd2c3e34	-0.04205151
110	0x3dfddbc7	0.12395435
111	0xbd0b0d7c	-0.033948407
112	0x3e079f70	0.13244414
113	0xbdaa8272	-0.08325662
114	0xbd582cf5	-0.05277725
115	0xbcabe486	-0.020982992
116	0x3df96cc5	0.12178949
117	0xbd4ff475	-0.05077024
118	0xbcc3969c	-0.023875527
119	0xbd8395fb	-0.06425091
120	0xbd1b0028	-0.037841946
121	0xbc0ce8a0	-0.008600384
122	0x3bf7f021	0.0075664674
123	0xbd90aa9e	-0.07063793
124	0xbda7eb1b	-0.0819914
125	0xbdb609ac	-0.088885635
126	0xbd94840d	-0.07251749
127	0xbdac97db	-0.08427402
128	0x3de3dccb	0.11126097
129	0xbc8abcca	-0.016935725
130	0x3e2d1912	0.16904095
131	0x3ceecde2	0.029150907
132	0x3ed869e9	0.42268303
133	0x3f0ef3af	0.5584058
134	0xbc10931f	-0.008824139
135	0xbc5d63ff	-0.01351261
136	0xbe01304a	-0.12616077
137	0xbdaf24ec	-0.08551964
138	0x3cd3006e	0.02575704
139	0x3d37cbbe	0.044872038
140	0x3d81aac0	0.06331396
141	0xbdc50e72	-0.09621896
142	0x3d20cd11	0.039258067
143	0xbd7b78c4	-0.061394468
144	0x3ec8be2f	0.392076
145	0x3cd491fc	0.025948517
146	0x3dbe480e	0.09291087
147	0x3db116df	0.086469404
148	0x3dad1b87	0.08452516
149	0xbd2879ad	-0.041131664
150	0x3e91e9fe	0.28498834
151	0x3e3570a9	0.17718758
152	0x3dc71b81	0.09722043
153	0xbdfbcb0f	-0.1229459
154	0x3da5aad4	0.080892235
155	0xbd6d3f46	-0.05792167
156	0x3e09d546	0.13460264
157	0x3d86b10c	0.06576738
158	0x3e6ad939	0.22934426
159	0xbc9f78ec	-0.01946684
160	0xbd0dc8ac	-0.034615204
161	0x3c9ed0bf	0.019386647
162	0x3bf61e0a	0.007510905
163	0xbd95530f	-0.07291233
164	0x3ebbfe5e	0.36717504
165	0x3dc5c578	0.09656805
166	0x3c8567b9	0.01628481
167	0x3e5a4e2c	0.21318883
168	0x3cd04b27	0.02542646
169	0xbd0d54de	-0.034504764
170	0xbd5156f5	-0.05110832
171	0xbc9a64b3	-0.018846845
172	0x3db9a66a	0.09064944
173	0xbd0ca29e	-0.03433477
174	0xbda7dc95	-0.081963696
175	0x3e3786c5	0.17922504
176	0xbc9978d8	-0.01873438
177	0x3e1b9bba	0.15196124
178	0x3d6bf363	0.05760516
179	0x3c953123	0.018211907
180	0x3d476f06	0.048689865
181	0x3d5985af	0.053106006
182	0x3ebbc62e	0.36674637
183	0x3cfe5bdf	0.031049667
184	0x3e30816a	0.17236868
185	0x3ee12129	0.43970612
186	0x3d5bc1a1	0.053651456
187	0xbadb6c12	-0.0016740581
188	0xbd0ca21b	-0.034334283
189	0x3f0eb166	0.5573944
190	0x3d1de8b9	0.03855202
191	0xbc5b8f7b	-0.013400908
192	0x3db48cea	0.0881594
193	0x3dbfe703	0.09370234
194	0x3e02a4fe	0.12758252
195	0x3e89eeda	0.26940042
196	0x3da3de4b	0.080013834
197	0x3c9bf0fd	0.01903581
198	0x3e2578c0	0.16159344
199	0x3e7e3983	0.24826626
200	0xbe720bb5	-0.23637278
201	0x3d28f085	0.041245002
202	0x3e76cb67	0.2410103
203	0x3cf53ba1	0.02993566
204	0x3dd45325	0.10367421
205	0xbd52aeb3	-0.051436137
206	0xbd4438e6	-0.047905825
207	0xbd10bf96	-0.03533896
208	0xbd496005	-0.049163837
209	0x3e860339	0.26174334
210	0x3d6d76ea	0.057974733
211	0x3d187941	0.03722501
212	0xbddd2d21	-0.10799623
213	0x3cd5e6c7	0.02611102
214	0xbc99711b	-0.01873069
215	0x3f413eaf	0.7548627
216	0x3e748be4	0.23881489
217	0x3bd30d58	0.0064407997
218	0x3e9fb8cd	0.3119568
219	0x3dd48b1c	0.103780955
220	0x3eab434b	0.33449778
221	0x3d7f682d	0.06235521
222	0xbc67277b	-0.014108534
223	0xbb91d354	-0.004450241
224	0xbe16cbaa	-0.14726129
225	0x3e9a05b9	0.3008249
226	0x3d937e90	0.07201874
227	0x3d6b6709	0.05747131
228	0xbd75f943	-0.060052168
229	0xbd01a434	-0.031650737
230	0xbd916287	-0.07098871
231	0x3dbc055a	0.09180708
232	0xbcab1cd8	-0.020887777
233	0x3e1a7b73	0.15086155
234	0x3e318f4b	0.17339818
235	0x3d9e4356	0.07727687
236	0x3a163164	0.00057294057
237	0xbd1692df	-0.03676116
238	0xbd9aa95a	-0.075518325
239	0x3d909f0b	0.07061585
240	0xbb0f891c	-0.0021901792
241	0xbce7c156	-0.028290432
242	0xbc18ae95	-0.009318967
243	0xbc4177bf	-0.011808335
244	0x3cd549b1	0.026036115
245	0xbd9575bb	-0.07297846
246	0x3ab1093a	0.0013506778
247	0x3cbc98e5	0.023022125
248	0x3d1fd6cb	0.039023202
249	0x3e00ae36	0.12566456
250	0xbc9982e2	-0.018739168
251	0x3d86438f	0.065558545
252	0x3dbf9a0b	0.09355553
253	0xbcc49ea8	-0.024001434
254	0x3d8d066c	0.068859905
255	0xbda0453f	-0.07825708

_rnn.weight_hh_l0 f4 [384, 128]
0	0x3b2cd1af	0.0026370098
1	0x3da0cea0	0.078519106
2	0xbda8d233	-0.08243217
3	0xbcf5abf8	-0.029989228
4	0x3d38fa98	0.04516086
5	0xbc38dd67	-0.011283255
6	0xbc7544c8	-0.014970012
7	0xbd1fa1d8	-0.038972706
8	0x3d7e539b	0.06209145
9	0x3d237652	0.03990776
10	0x3cc78ee8	0.024360135
11	0xbd58011e	-0.05273544
12	0xbd9b8774	-0.07594195
13	0x3c196ae2	0.009363862
14	0x3cd6e4f1	0.026232215
15	0xbcebe748	-0.028796807
16	0xbcf2e675	-0.029650906
17	0x3d7605df	0.060064193
18	0x3b93de40	0.0045125782
19	0x3b2aa4b4	0.0026038112
20	0xbcb5b41e	-0.022180613
21	0xbdabfbe4	-0.08397654
22	0xbdb643c5	-0.08899645
23	0xbd0cf276	-0.034410916
24	0xbd2870ce	-0.041123204
25	0x3d06e355	0.032931644
26	0xbcd551c8	-0.026039973
27	0xbd123001	-0.03569031
28	0x3dba35d5	0.09092299
29	0x3d11df3c	0.035613284
30	0x3d8f6726	0.07002096
31	0xbd45a2de	-0.048251025
32	0xbd23a02a	-0.039947666
33	0x3d0205e7	0.03174391
34	0xbd69f0f0	-0.05711454
35	0xbd7aae1a	-0.061201192
36	0x3bbeefbe	0.0058269193
37	0xbcbfa139	-0.023392307
38	0xbd9d3b0a	-0.076772764
39	0x3d765f85	0.06014969
40	0x3d954ff3	0.0729064
41	0x3c8f80f6	0.017517548
42	0xbca9712e	-0.020683851
43	0xbdaf419b	-0.08557435
44	0xbd22cc53	-0.03974564
45	0x3ca9f234	0.020745374
46	0x3d4ea282	0.05044795
47	0xbc067e76	-0.008208862
48	0xbcec86fa	-0.028872956
49	0x3d2ed38a	0.042682208
50	0xbd8f9921	-0.07011629
51	0x3d497bfe	0.049190514
52	0xbd00a001	-0.03140259
53	0x3b4ca9df	0.003122918
54	0xbcce9490	-0.025217324
55	0x3b06cc84	0.0020568678
56	0xbc97ff09	-0.018554227
57	0x3d803c01	0.06261445
58	0xb9e001f8	-0.00042726076
59	0x3d7b677a	0.06137798
60	0x3da6670b	0.08125123
61	0xbd4d71bc	-0.050157294
62	0xbd6109b2	-0.054940887
63	0x3d81f432	0.06345405
64	0x3d8637ca	0.0655361
65	0xbd787389	-0.060657058
66	0xbc856ae0	-0.016286314
67	0xbdc17336	-0.09445803
68	0xbd8a60ce	-0.06756745
69	0x3c7223fb	0.014779086
70	0x3cf7867f	0.0302155
71	0x3cd7adf9	0.026328074
72	0xbcada58c	-0.021197103
73	0x3db30911	0.08741964
74	0x3bbdcefe	0.0057924977
75	0xbd52ff8a	-0.051513232
76	0x3b4adfe3	0.00309562
77	0x3ca3cd9f	0.019995509
78	0x3cd01e61	0.02540511
79	0xbd6f42dc	-0.05841337
80	0x3d23f247	0.040025976
81	0xbd593130	-0.053025424
82	0xbd958835	-0.0730137
83	0xbd497f99	-0.049193952
84	0x3da120d4	0.078675896
85	0x3da946c7	0.08265453
86	0x3db401f1	0.08789433
87	0x3d7be7c3	0.061500322
88	0x3d985474	0.07437983
89	0xbb9562a0	-0.004558876
90	0xbd6ebbea	-0.058284678
91	0x3d50d678	0.050985783
92	0xbd1fc5b6	-0.03900691
93	0xbd7adbed	-0.061244894
94	0xbd08aada	-0.03336606
95	0x3caa920a	0.02082159
96	0x3d414063	0.047180545
97	0xbd2049a1	-0.039132718
98	0xbd4f1ff6	-0.05056759
99	0x3c7a4e02	0.015277388
100	0xbd51d923	-0.05123247
101	0xbd81f2af	-0.06345116
102	0x3d3345f8	0.0437679
103	0xbc9fe25e	-0.01951712
104	0x3da4d418	0.08048266
105	0x3db86d2c	0.09005198
106	0x3d0f4285	0.034975547
107	0x3d11a160	0.03555429
108	0x3ca95375	0.020669678
109	0x3b82f904	0.00399697
110	0xbba5a8d6	-0.005055527
111	0x3bfdec3d	0.007749109
112	0x3d0737b1	0.033012096
113	0x3db0a6ed	0.086255886
114	0xbcc18bb5	-0.023626188
115	0xbd2ec662	-0.04266966
116	0xbc7b6b45	-0.015345399
117	0xbd4056aa	-0.04695765
118	0x3ca6db79	0.020368325
119	0x3d7c3fe3	0.061584365
120	0x3d964243	0.07336857
121	0x3d0f5838	0.03499624
122	0xbd85ca53	-0.06532731
123	0xbd183d50	-0.037167847
124	0xbcf2cd88	-0.02963902
125	0xbc922dd8	-0.017844126
126	0x3b0cfa0c	0.0021511344
127	0xbdb6870a	-0.089124754
128	0x3cdc295f	0.026875196
129	0xbd83b344	-0.064306766
130	0xbd62377d	-0.0552287
131	0xbd98ffc3	-0.07470658
132	0x3d962b81	0.073325165
133	0xbda3ab06	-0.079916045
134	0x3d85afee	0.065276965
135	0xbb0b2ab7	-0.0021235177
136	0xbc0ab97d	-0.008467075
137	0x3d621f0c	0.05520539
138	0xbc0b95ac	-0.008519571
139	0x3d61cf5e	0.0551294
140	0x3d82a7f2	0.06379689
141	0xbd9b8cd9	-0.07595224
142	0x3d0aee29	0.033918533
143	0x3c9051c5	0.017617116
144	0x3c7c9ee7	0.015418745
145	0x3c3565e6	0.011071658
146	0x3caa2fe8	0.020774797
147	0xbd3038e0	-0.04302299
148	0xbc0715e8	-0.008244969
149	0x3dad970c	0.084760755
150	0x3d67012f	0.056397613
151	0xbb368496	-0.0027850023
152	0xbda42442	-0.08014728
153	0x3b0e358e	0.0021699402
154	0xbd755723	-0.059897553
155	0x3d95ef06	0.07320981
156	0xbd53c654	-0.051702812
157	0xbbd7076d	-0.0065621645
158	0xbc92d21b	-0.017922452
159	0x3c7689dc	0.015047517
160	0x3dad2716	0.08454721
161	0x3c0781a6	0.008270657
162	0x3d4addf7	0.04952809
163	0x3d8f957f	0.07010936
164	0x3d9663c8	0.073432505
165	0xbcfa63dc	-0.030565195
166	0xbc9cbff3	-0.019134497
167	0x3d2f2202	0.04275704
168	0xbcc053f5	-0.023477534
169	0x3d310726	0.043219708
170	0xbc934ca4	-0.017980881
171	0xbd72b7e1	-0.05925739
172	0x3d1307a6	0.035895966
173	0x3c63a564	0.013894413
174	0x3d22ceb3	0.039747905
175	0x3dbb446c	0.0914391
176	0x3d79df7c	0.061004147
177	0x3da6fdfd	0.08153913
178	0x3ba09852	0.0049009705
179	0xbd9be856	-0.07612674
180	0xbd7daaa0	-0.0619303
181	0xbd62ad56	-0.055341087
182	0xbda4802a	-0.08032258
183	0xbd3530f8	-0.044236153
184	0xbda2be76	-0.07946484
185	0xbdb0e973	-0.08638277
186	0xbd5c638a	-0.053805865
187	0xbdb44482	-0.08802129
188	0xbd59645f	-0.053074237
189	0x3cec75a4	0.02886469
190	0x3d964940	0.0733819
191	0xbccaf90c	-0.024776958
192	0xbcc587b5	-0.024112562
193	0x3d3ac057	0.045593586
194	0xbd3274ff	-0.043568607
195	0xbd386c46	-0.045025133
196	0x3d5d932a	0.054095425
197	0xbd9ac4fe	-0.075571045
198	0x3c34df60	0.011039585
199	0x3da6e5c9	0.08149297
200	0x3c61d4d5	0.013783653
201	0x3ccdf220	0.025139868
202	0xbd585751	-0.052817646
203	0xba8dd07f	-0.0010819583
204	0x3bda7bc9	0.0066675884
205	0x3cbe783f	0.023250697
206	0x3d0a3bff	0.033748623
207	0x3da1951c	0.078897685
208	0xbd895ef7	-0.06707566
209	0xb9895291	-0.00026192193
210	0xbd317e10	-0.043333113
211	0xbd8f2a81	-0.06990529
212	0xbbf9a95e	-0.007619067
213	0xbda14b01	-0.07875634
214	0x3d71d56a	0.059041418
215	0x3c670136	0.01409941
216	0xbd3971a1	-0.04527438
217	0x3d40b970	0.047051847
218	0xbdb0a259	-0.08624715
219	0xbd0d56b8	-0.03450653
220	0xbc6fa501	-0.014626742
221	0xbd97aa66	-0.07405548
222	0xbd6092a7	-0.05482736
223	0xbc84a298	-0.016190812
224	0x3d88592d	0.06657634
225	0x3da84171	0.08215607
226	0x3d6bade8	0.057538897
227	0xbd5c017c	-0.053712353
228	0xbd76d3e5	-0.060260672
229	0x3da12950	0.07869208
230	0x3d0559fa	0.03255651
231	0x3aad279c	0.0013210657
232	0x3c3e510f	0.011616006
233	0xbd8df28f	-0.0693103
234	0xbce4d2d3	-0.02793256
235	0x3dac4587	0.08411699
236	0xbcc222ec	-0.023698293
237	0xbbc91740	-0.006136805
238	0xbd996354	-0.074896485
239	0xbd3db098	-0.04631099
240	0xba8fc93f	-0.001097001
241	0xbd65e9d9	-0.056131218
242	0xbc53a906	-0.012918716
243	0x3d0f2341	0.03494573
244	0xbdb320c9	-0.08746488
245	0x3cee6256	0.029099625
246	0xbd6bf057	-0.057602253
247	0xbd29cc3c	-0.04145454
248	0x3d0ac01a	0.03387461
249	0x3d8f26fa	0.06989856
250	0xbcd7c623	-0.026339596
251	0xbd154080	-0.036438465
252	0xbda37b77	-0.079825334
253	0xbd33af71	-0.043868486
254	0xbda0fac3	-0.07860329
255	0xbca6b40c	-0.020349525

_rnn.bias_ih_l0 f4 [384]
0	0xbd1d1171	-0.03834671
1	0x3d8e4d36	0.069483206
2	0xbdcbcd07	-0.09951215
3	0x3b0dbcca	0.002162742
4	0xbbad9c13	-0.0052981465
5	0xbd371d7c	-0.044705853
6	0x3d8b5475	0.06803218
7	0x3bca6c9d	0.0061774985
8	0xbd8ca773	-0.06867876
9	0xbc724c06	-0.014788633
10	0x3cd69502	0.0261941
11	0x3c9190d5	0.017769257
12	0xbce86421	-0.028368058
13	0xbcbdeac9	-0.023183243
14	0x3d5754fb	0.052571278
15	0xbd229b4a	-0.039698876
16	0xbc4a3ab4	-0.0123430975
17	0x3b9cdecd	0.004787302
18	0x3d721c0d	0.059108783
19	0xbd97ca0c	-0.07411584
20	0xbd4f399f	-0.05059206
21	0x3d80644e	0.062691316
22	0x3d416ea9	0.047224674
23	0xbda45587	-0.080241255
24	0xbd38ea0b	-0.045145076
25	0xbd4a6434	-0.049411967
26	0x3d25f3b5	0.04051562
27	0x3d85961b	0.06522771
28	0xbcd94b5a	-0.026525188
29	0xbcc18235	-0.023621658
30	0xbdb810b6	-0.08987562
31	0x3d016731	0.03159255
32	0x3d920e0f	0.07131588
33	0xbd69e147	-0.057099607
34	0x3c973149	0.018456118
35	0x3ce1e5e6	0.027575444
36	0xbd7739aa	-0.060357727
37	0xbccac3e5	-0.024751613
38	0xbc6f76e2	-0.014615746
39	0xbd32a23c	-0.04361175
40	0xbda1ce09	-0.07900626
41	0xbd434a9e	-0.047678582
42	0x3cf431c1	0.02980888
43	0x3cb66329	0.02226408
44	0xbc37134d	-0.011174035
45	0x3bbfe673	0.005856329
46	0x3dd9373d	0.10606239
47	0x3d3c86fb	0.046027165
48	0xbd1c9d29	-0.038235817
49	0x3d857d59	0.06518049
50	0xbb9f8dd7	-0.0048692035
51	0x3cbac333	0.022798156
52	0xbc421d84	-0.011847857
53	0x3d3e396f	0.04644149
54	0xbbdf5565	-0.0068155997
55	0xba0f3d14	-0.00054641184
56	0x3d49a9b4	0.049234107
57	0x3def3125	0.116792955
58	0x3d7aeb39	0.061259482
59	0x3dc1c48b	0.09461316
60	0x3c605a9f	0.013693481
61	0x3db92010	0.090393186
62	0xbd1bb081	-0.038010124
63	0x3d2ae7a3	0.041724812
64	0xbdb1e9df	-0.086871855
65	0xbafd48a2	-0.0019324014
66	0xbd764d99	-0.060132597
67	0x3d90ce8e	0.07070647
68	0x3db1ecee	0.08687769
69	0xbd9d5695	-0.0768253
70	0x3d81e664	0.06342772
71	0x3d6c2c43	0.0576594
72	0x3cd3bc83	0.025846725
73	0x3d0d2122	0.034455426
74	0xbc1afb76	-0.009459367
75	0xbd444b74	-0.04792352
76	0x3db266bd	0.08711002
77	0x3d910644	0.07081273
78	0xbce7eba5	-0.028310606
79	0x3cd18d9a	0.025580216
80	0x3d91676a	0.07099803
81	0x3d229180	0.03968954
82	0x3d873e11	0.06603635
83	0x3d5119a0	0.05104983
84	0xbc9bd4e5	-0.019022414
85	0xbd039358	-0.03212294
86	0xbbad5e70	-0.005290799
87	0xbc0f9ba6	-0.008765137
88	0xbd1412c1	-0.036150698
89	0xbda8990c	-0.082323164
90	0x3d8a762e	0.06760822
91	0x3d390a3c	0.045175776
92	0xba9cb18c	-0.0011954769
93	0xbd38e6b3	-0.045141887
94	0xbaee6c56	-0.0018190246
95	0xbd84f23d	-0.06491516
96	0xbc66f649	-0.014096805
97	0xbd5d3e02	-0.054014213
98	0x3d8a0e0e	0.06740962
99	0xbc1831cb	-0.009289215
100	0x3d365f49	0.044524465
101	0x3a018e46	0.000494216
102	0xbc02b8c4	-0.007978622
103	0x3db3b88b	0.08775433
104	0x3cbf8f7a	0.023383845
105	0x3c3644b4	0.011124779
106	0xbd3b7226	-0.045763157
107	0xbd56eb66	-0.052470587
108	0xbda4c41f	-0.0804522
109	0x3a699f0d	0.0008911945
110	0xbd183d58	-0.037167877
111	0xbd8abd6c	-0.067744106
112	0xbcdfc4b9	-0.027315484
113	0xbbb52a60	-0.005528733
114	0x3d258e16	0.040418707
115	0xbdb10741	-0.08643962
116	0xbc982ccc	-0.018576048
117	0x3db7bdc9	0.089717455
118	0xbbfd5e52	-0.007732191
119	0xbd4c9da0	-0.04995501
120	0xbd941fae	-0.07232605
121	0xbd45f9d2	-0.04833395
122	0x3dae6968	0.085161984
123	0xbd4779c9	-0.048700128
124	0xbd854d99	-0.06508941
125	0xbd6cd024	-0.057815686
126	0xbc231475	-0.009953608
127	0x3da42bfc	0.08016202
128	0x3d24389b	0.040093046
129	0x3d0843e5	0.033267874
130	0x3bd734b2	0.006567561
131	0xbdd9f281	-0.10641957
132	0xbe220e88	-0.15825856
133	0xbe07ec30	-0.13273692
134	0x3cd3feef	0.025878398
135	0x3bb1728d	0.005415267
136	0xbd5c257e	-0.053746693
137	0x3d298275	0.04138418
138	0xbd8e1837	-0.06938212
139	0xbd4713cf	-0.048602875
140	0xbbbdb883	-0.005789818
141	0x3cc7697d	0.024342293
142	0xbb99f117	-0.0046979296
143	0xbda9a572	-0.08283509
144	0x3d802f1e	0.06258987
145	0x3d1f9357	0.038958874
146	0x3da6d185	0.081454314
147	0xbd4daccc	-0.05021362
148	0x3c880697	0.016604705
149	0x3d7753af	0.06038254
150	0xbe1373b5	-0.14399607
151	0x3c7e5833	0.015523958
152	0xbd944d92	-0.07241358
153	0xbdaa96b9	-0.08329529
154	0xbc192a47	-0.009348459
155	0x3da31ca5	0.07964448
156	0xbd3dfffa	-0.046386696
157	0xbdd59ecf	-0.10430681
158	0x3d0e08fb	0.034676533
159	0xbd960b01	-0.073263176
160	0xbd958b63	-0.073019765
161	0xbd0fc2dc	-0.03509794
162	0xbdbe6bd0	-0.09297907
163	0xbdc3cc68	-0.09560472
164	0xbce20e3d	-0.02759468
165	0xbd26b8f2	-0.04070372
166	0xbcc53937	-0.024075134
167	0xbd442757	-0.04788908
168	0x3d660d62	0.056165107
169	0xbde6b112	-0.11264242
170	0x3c70a547	0.014687843
171	0x3d5f6b62	0.054545768
172	0x3d4ed1b8	0.050492972
173	0x3d8dc204	0.06921771
174	0xbd651b17	-0.055934038
175	0x3dcc00bc	0.099610776
176	0xbbc8a6a1	-0.0061233793
177	0xbd4eba7a	-0.050470807
178	0xbd89b2be	-0.067235455
179	0xbce472bf	-0.027886746
180	0x3cc12f22	0.023582045
181	0x3d8b2d30	0.06795728
182	0xbdb0a9f9	-0.0862617
183	0xbc618452	-0.013764458
184	0xbdd1bc2d	-0.1024097
185	0x3e19b015	0.15008576
186	0xbdf3af1c	-0.11898634
187	0xbd1cc3b6	-0.038272582
188	0xbc1202ae	-0.008911772
189	0xbdbe56e8	-0.0929392
190	0xbe107425	-0.14106806
191	0xbdad0e19	-0.084499545
192	0xbdc8cc78	-0.09804624
193	0xbdb2365f	-0.08701777
194	0xbe1f8aa2	-0.15580228
195	0xbe1b68b6	-0.15176663
196	0xbb46e7ed	-0.003035064
197	0xbd42c2de	-0.04754912
198	0xbcac0cf7	-0.021002276
199	0xbd00e45c	-0.03146778
200	0xbdbd976d	-0.09257398
201	0xbd01745d	-0.031605113
202	0xbd8fac69	-0.070153065
203	0x3dac3a80	0.084095955
204	0xbd197ce8	-0.037472636
205	0x3d87cce9	0.066308804
206	0xbd2106f8	-0.039313287
207	0x3d78975e	0.06069123
208	0x3bfc3f98	0.0076980107
209	0xbd644010	-0.055725157
210	0x3d74cf47	0.059767988
211	0x3c785a7e	0.015158294
212	0xbbc45291	-0.005991288
213	0xbde466aa	-0.11152394
214	0xbe6719e8	-0.22568476
215	0xbd350829	-0.044197235
216	0xbdcbabaf	-0.099448554
217	0xbdef4834	-0.116836935
218	0xbd7fead8	-0.062479824
219	0xbd166ada	-0.036722995
220	0x3c03b49f	0.008038669
221	0x3c02c001	0.007980348
222	0xbc22b15d	-0.009929982
223	0x3c3b36e1	0.011426658
224	0xbd193fce	-0.037414365
225	0x3d1c9f67	0.038237955
226	0xbc069e72	-0.008216487
227	0x3d9fdd47	0.07805877
228	0xbd828092	-0.06372179
229	0xbdb93760	-0.09043765
230	0xbd4b6b52	-0.049662896
231	0xbdc95d20	-0.09832215
232	0xbd304c89	-0.04304174
233	0xbd727fe9	-0.059204016
234	0xbda08006	-0.078369185
235	0xbda08ff8	-0.0783996
236	0x3d77daab	0.060511272
237	0xbcfc0280	-0.03076291
238	0xbd91815b	-0.07104751
239	0xbe0be2eb	-0.13660781
240	0x3d236a91	0.03989655
241	0x3d4eebbe	0.05051779
242	0x3c2d34d1	0.010571674
243	0xbdafd58f	-0.08585655
244	0xbddcfa8f	-0.10789978
245	0xbd3d1fb8	-0.046172827
246	0xbb9939b3	-0.0046760677
247	0xbd7607c1	-0.06006599
248	0x3d2ef1b2	0.042710967
249	0xbd8d7c6a	-0.06908496
250	0xbd127d6e	-0.03576415
251	0xbe0390fe	-0.12848279
252	0xbdb02815	-0.08601395
253	0xbaf4c036	-0.0018673006
254	0xbba51f3f	-0.005039125
255	0xbcd64cfb	-0.026159754

_rnn.bias_hh_l0 f4 [384]
0	0x3c23aec8	0.009990402
1	0xba8cdb54	-0.0010746517
2	0x3ccdc891	0.025120052
3	0xbd87a8a4	-0.066239625
4	0xbd852254	-0.06500688
5	0x3d379f38	0.044829577
6	0x3d5bed4d	0.053693105
7	0xbd893ee0	-0.067014456
8	0xbaee9dcc	-0.0018204986
9	0xbd0edaef	-0.03487676
10	0x3db57b99	0.08861465
11	0x3c364d0d	0.011126769
12	0xbcd0162a	-0.025401194
13	0x3d1f7ddb	0.038938385
14	0xbc2e41ed	-0.010635835
15	0x3d83fa32	0.06444205
16	0xbd2e666f	-0.042578157
17	0x3d699446	0.05702617
18	0x3d2aa81e	0.041664235
19	0x3dab91c4	0.08377412
20	0x3d998a38	0.07497066
21	0x3cb478ac	0.022030197
22	0x3d0bc508	0.03412345
23	0x3d413530	0.047169864
24	0xbd48dc1b	-0.049038034
25	0xbc71b163	-0.014751765
26	0xbc3ead6b	-0.011638026
27	0xbd9b554a	-0.07584627
28	0xbd9d863c	-0.07691619
29	0x3d82b3e7	0.0638197
30	0xbdb31ba2	-0.08745505
31	0x3cdc8e9b	0.026923468
32	0x3d68d0e3	0.056839835
33	0x3d89c776	0.06727497
34	0xbd8fb57a	-0.07017036
35	0xbcfdc2c3	-0.030976659
36	0x3c58ea98	0.013239525
37	0xbd921870	-0.07133567
38	0x3d997ea3	0.07494857
39	0xbc9ae21b	-0.018906644
40	0xbd9a71ac	-0.075412124
41	0xbd243219	-0.04008684
42	0x3c1bd02b	0.00951008
43	0xbda5f116	-0.08102624
44	0x3d48382a	0.048881687
45	0xbd0f9889	-0.03505758
46	0x3d30133b	0.04298709
47	0x3cc3dc32	0.023908708
48	0x3cfaa193	0.030594623
49	0xbdc49ee6	-0.0960062
50	0x3cd8c3aa	0.026460487
51	0xbc82ed61	-0.015982332
52	0xbd023f1b	-0.031798463
53	0x3c9a0e23	0.018805569
54	0x3cfb3086	0.030662786
55	0xbd53015b	-0.051514965
56	0x3db3b278	0.087742746
57	0x3da64c5c	0.08120033
58	0x3cdb51ad	0.026772344
59	0x3d914672	0.070935145
60	0x3bcde384	0.0062832255
61	0x3d7c3b0d	0.061579753
62	0xbd6a063b	-0.057134848
63	0x3dca5634	0.09879723
64	0xbc6663b3	-0.014061856
65	0xbb939be6	-0.0045046685
66	0xbc8b793f	-0.017025588
67	0x3c9e7094	0.01934079
68	0x3999fbfb	0.00029370174
69	0x3ca575d8	0.020197794
70	0x3d59571a	0.053061582
71	0x3d3961ac	0.045259163
72	0xbd3dff6e	-0.046386175
73	0xbd8b4dc2	-0.068019405
74	0xbcf97934	-0.030453302
75	0xbd937aeb	-0.07201179
76	0xbd738af7	-0.0594587
77	0xbd7bdbd1	-0.06148893
78	0x3cfe8baf	0.031072466
79	0xbce5993d	-0.028027171
80	0x3d276f27	0.040877488
81	0xbcc5dfde	-0.0241546
82	0x3c310b98	0.010805987
83	0x3c4ac7ec	0.012376767
84	0x3d2fd8e0	0.042931437
85	0x3c412374	0.011788238
86	0xbcb22034	-0.021743871
87	0x3d9281df	0.07153677
88	0x3cc54d5c	0.02408474
89	0x3cc856bd	0.024455423
90	0xbd991eec	-0.07476601
91	0xbd26c266	-0.040712737
92	0x3cfd6738	0.030933008
93	0x3da08a6c	0.07838902
94	0x3c6263f4	0.013817776
95	0x3d42243b	0.047397833
96	0x3c9c7234	0.019097425
97	0x3d3db920	0.046319127
98	0xbd6a309e	-0.05717527
99	0x3d98241b	0.074287616
100	0x3d07d1ef	0.033159193
101	0xbd5f2a89	-0.054483924
102	0x3d96a78c	0.07356176
103	0x3caedc37	0.021345241
104	0x3d83e83f	0.06440782
105	0x3d8f23e2	0.06989266
106	0xbd880823	-0.06642177
107	0xbd89a492	-0.067208424
108	0x3d82cddf	0.06386923
109	0xbcefdcd3	-0.029280102
110	0xbd7896ac	-0.060690567
111	0xbc08f160	-0.00835833
112	0xbcfb5c15	-0.030683557
113	0x3d889c94	0.0667049
114	0xbd0e0b7a	-0.034678914
115	0xbd69d0c3	-0.057083856
116	0x3d2ce37b	0.04220913
117	0x3daf77cd	0.08567772
118	0x3cf01003	0.02930451
119	0x3da52f6a	0.08065684
120	0xbc689db9	-0.01419776
121	0xbd85c969	-0.065325566
122	0x3d29df6e	0.041472845
123	0xbcc57ab5	-0.024106363
124	0xbd1028db	-0.035195213
125	0xbda5d244	-0.080967456
126	0xbc5939c7	-0.013258404
127	0xbc1c78e3	-0.009550306
128	0xbcee77b4	-0.029109813
129	0x3bdd0df5	0.0067460486
130	0xbdcce319	-0.10004253
131	0x3cf1905f	0.029487787
132	0xbd80f96e	-0.06297575
133	0xbd9deaff	-0.077108376
134	0xbda4cb7f	-0.08046626
135	0x3c0aa8d4	0.008463103
136	0xbd106359	-0.035250995
137	0xbdda7ce3	-0.106683515
138	0x3c05d114	0.008167524
139	0x3d0ddf01	0.0346365
140	0x3c010f40	0.007877171
141	0x3c15daa7	0.009146369
142	0x3d0a64c7	0.033787515
143	0xbd3b1524	-0.04567446
144	0xbca27308	-0.019830242
145	0x3d242c55	0.04008134
146	0xbda955eb	-0.08268341
147	0x3d3d586b	0.0462269
148	0x3ce7a639	0.028277503
149	0xbdcf9386	-0.1013556
150	0xbd5cbb04	-0.05388929
151	0xbe0f6ab6	-0.1400555
152	0x3d015b1e	0.031581037
153	0xbe21cb3d	-0.15800186
154	0xbbb1f476	-0.0054307533
155	0x3d774462	0.06036795
156	0xbd851d5b	-0.0649974
157	0xbc3f4d8f	-0.011676206
158	0xbd4a3f07	-0.049376514
159	0xbcab0c85	-0.020879993
160	0xbdc7ddd5	-0.09759108
161	0xbc241c64	-0.0100165345
162	0x3da9467f	0.08265399
163	0x3cb8264f	0.022479204
164	0xbd341d86	-0.04397347
165	0xbdd8d988	-0.10588366
166	0xbd8b8006	-0.06811528
167	0xbdbf6342	-0.09345104
168	0xbba21067	-0.004945803
169	0xbc5977ea	-0.013273219
170	0x3d9716bd	0.07377384
171	0x3d0143c5	0.03155877
172	0xbdf9c315	-0.12195412
173	0x3d011409	0.031513248
174	0xbc853d9d	-0.016264731
175	0x3d4e20df	0.050324317
176	0xbdb19706	-0.086713836
177	0xbcb5e3a1	-0.022203268
178	0xbd9b5f56	-0.07586543
179	0xbdf3d8c9	-0.11906583
180	0xbdb4ad23	-0.08822086
181	0xbc0c9486	-0.008580333
182	0xbd6b6fa4	-0.057479516
183	0xbd25a1e0	-0.04043758
184	0xbd55d36a	-0.052203573
185	0x3e79e1be	0.2440252
186	0xbdd64086	-0.104615256
187	0xbd924bee	-0.07143389
188	0x3b9ecff8	0.004846569
189	0xbd02001f	-0.031738397
190	0xbe08e53e	-0.13368699
191	0x3cfde8c7	0.030994786
192	0xbd65381e	-0.05596172
193	0x3cb0449f	0.021517096
194	0xbd56828a	-0.052370586
195	0xbde35f20	-0.11102128
196	0xbdcf8a06	-0.10133748
197	0xbda021c2	-0.07818939
198	0x3c3ab72f	0.011396213
199	0xbc8d3005	-0.017234812
200	0xbe3ce872	-0.18448046
201	0xbd611fdd	-0.054962028
202	0x3cfe05fc	0.031008713
203	0xbd825a2f	-0.063648574
204	0xbd176e5f	-0.036970492
205	0x3cb72f2e	0.022361364
206	0x3d3acd07	0.045605686
207	0xbdbb6187	-0.09149461
208	0x3c237859	0.009977424
209	0xbd487291	-0.048937384
210	0xbd2a2551	-0.041539494
211	0x3b7d23aa	0.0038625994
212	0xbd6e894a	-0.058236398
213	0xbc9c02b2	-0.019044254
214	0xbe7301de	-0.23731181
215	0xbdd15e00	-0.10223007
216	0xbdf56141	-0.1198144
217	0x3d2a1ae3	0.041529547
218	0xbe59bd43	-0.21263604
219	0xbdf9097b	-0.121600114
220	0x3bbfa04d	0.0058479668
221	0x3d87fdc8	0.06640202
222	0xbce0b69b	-0.027430823
223	0xbcc44e44	-0.023963101
224	0xbd9530e7	-0.07284718
225	0x3c8d6290	0.017258912
226	0x3d851994	0.06499019
227	0x3d96617e	0.07342814
228	0x3d813db7	0.06310599
229	0xbd8e76d9	-0.06956262
230	0xbc9270b2	-0.017876003
231	0xbdbfac6e	-0.0935906
232	0xbd5a992d	-0.053368736
233	0x3d500247	0.05078342
234	0xbdb0d22c	-0.08633837
235	0xbce637d2	-0.02810279
236	0x3db20ab1	0.086934455
237	0x3d801f93	0.06256022
238	0xbd88e412	-0.06684126
239	0xbde3b818	-0.111190975
240	0xbdc393f4	-0.09549704
241	0xbdafee9a	-0.085904315
242	0x3d89a490	0.06720841
243	0xbd8685e1	-0.06568504
244	0xbe1ba8e6	-0.15201148
245	0x3d0911e2	0.03346432
246	0xbdd9b329	-0.10629875
247	0xbdb00175	-0.08594028
248	0xbdaf8053	-0.08569398
249	0xbd85bee8	-0.06530553
250	0xbba4357d	-0.005011259
251	0xbe0a95e4	-0.13533741
252	0xbe399ca3	-0.18126158
253	0x3d8835e0	0.06650901
254	0xbd5c94f2	-0.053852983
255	0xbd6f4e98	-0.058424562

_rnn.weight_ih_l0_reverse f4 [384, 1]
0	0x3d4b0c51	0.049572293
1	0xbdb28f08	-0.08718687
2	0x3e05101f	0.12994431
3	0xbba718cc	-0.0050993916
4	0x3d7d2b61	0.061808947
5	0xbd190164	-0.03735484
6	0xbd906fa0	-0.07052541
7	0x3d881402	0.06644441
8	0x3cafd8a4	0.021465607
9	0x3def41ea	0.11682494
10	0xbc9f1814	-0.019420661
11	0x3d163844	0.036674753
12	0x3d33ef88	0.043929607
13	0x3e4c6ca3	0.19963317
14	0x3e164252	0.14673737
15	0x3e0b9a1a	0.13633004
16	0xbcf94f62	-0.03043336
17	0x3e1468c1	0.14493085
18	0xbe0c9e89	-0.13732351
19	0x3dcbb3c7	0.09946399
20	0x3d453f22	0.04815591
21	0x3e77ced6	0.24199995
22	0x3c80e727	0.015735222
23	0xbc53fc1d	-0.012938526
24	0xbc421dbf	-0.011847912
25	0xbce7bdff	-0.02828884
26	0x3e57c140	0.21069813
27	0x3d953fdc	0.07287571
28	0x3c7ecdac	0.015551966
29	0xbadf930a	-0.0017057371
30	0x3cb63900	0.022243977
31	0x3d7fdd00	0.06246662
32	0x3dc5c026	0.0965579
33	0x3e5bb96c	0.21457452
34	0xba66fc9d	-0.0008811446
35	0xbcc8440f	-0.024446515
36	0x3ccfa1b8	0.025345668
37	0x3db5baa3	0.08873489
38	0x3c6bd61c	0.014394309
39	0xbdbcae83	-0.09212973
40	0xbe495989	-0.19663061
41	0x3dbbaadc	0.09163448
42	0x3eb0de3e	0.34544557
43	0xbd553934	-0.052056506
44	0xbdd6a837	-0.10481303
45	0xbda3e972	-0.080035105
46	0x3b37cacc	0.002804446
47	0xbcb6c35d	-0.022309953
48	0x3de28350	0.11060202
49	0x3d6eb4ea	0.058278
50	0x3d9b2ac5	0.07576517
51	0xbc6f136b	-0.014592032
52	0x3ea595f1	0.3234096
53	0xbd5b69ba	-0.053567626
54	0x3d9033ce	0.07041131
55	0x3effb0b5	0.49939504
56	0x3d3402a0	0.043947816
57	0x3dd4de3b	0.103939496
58	0xbd4a58bc	-0.04940103
59	0x3d0dba6b	0.03460161
60	0x3de91637	0.1138119
61	0x3f8fab8d	1.1224228
62	0x3dc3f3ad	0.09567962
63	0x3f2ebb5e	0.6825465
64	0x3d86c6e9	0.06580908
65	0x3ea907e1	0.33013824
66	0x3a5efea3	0.0008506572
67	0xbdcd5fee	-0.10028063
68	0xbc80af72	-0.015708659
69	0x3d833065	0.06405715
70	0xbe89abee	-0.26888984
71	0xbd36b803	-0.04460908
72	0xbcacbca5	-0.021086046
73	0x3dcba008	0.09942633
74	0x3e96aed0	0.29430246
75	0x3e31e707	0.17373286
76	0x3dc554e0	0.09635329
77	0xbdca4883	-0.09877112
78	0x3d4f9ca4	0.050686494
79	0xbd9c44bf	-0.076303
80	0xbd4f413b	-0.050599318
81	0x3d2b3b2f	0.04180449
82	0x3c4cb96a	0.012495378
83	0xbe061cf5	-0.13096984
84	0xb9dc7740	-0.00042050518
85	0x3e0bcff0	0.1365354
86	0xbd6bd33a	-0.05757449
87	0xbd48b2db	-0.048998695
88	0xbd35e882	-0.04441119
89	0x3dd11f66	0.10211067
90	0x3e4cdcae	0.20006058
91	0xbdda3950	-0.10655463
92	0x3dc6426e	0.09680639
93	0x3c690082	0.0142213125
94	0xbdb8dc3b	-0.09026381
95	0x3e8e7e87	0.27830908
96	0x3cc00188	0.02343823
97	0x3d962b08	0.07332426
98	0x3ba33eb8	0.004981842
99	0x3e15b40a	0.1461946
100	0x3db64c16	0.08901231
101	0x3d665e56	0.05624231
102	0x3eb889a4	0.3604251
103	0x3b3976ad	0.0028299496
104	0x3d88d1ba	0.06680627
105	0x3d800f0e	0.062528715
106	0x3e36de14	0.17858154
107	0x3c1aab55	0.009440263
108	0xbd87c3a9	-0.06629116
109	0x3d62a179	0.055329774
110	0xbe00d8f6	-0.12582764
111	0xbe3deb0c	-0.18546695
112	0x3e617c19	0.22019996
113	0x3da72010	0.08160412
114	0xbcc54689	-0.024081485
115	0x3de38f64	0.11111334
116	0xbd014b67	-0.03156605
117	0xbcffb0d1	-0.031212242
118	0x3dc1b856	0.094589874
119	0x3d9feab2	0.078084365
120	0x3aab84eb	0.0013085877
121	0xbd69b5f6	-0.057058297
122	0xbb3db4d9	-0.0028946905
123	0x3dc26b39	0.09493107
124	0xbc9c33f1	-0.019067736
125	0x3da54fcf	0.08071863
126	0x3e04daab	0.1297404
127	0x3c028d19	0.007968211
128	0xbdd010d9	-0.101594634
129	0x3b2f1755	0.0026716788
130	0xbd819727	-0.06327658
131	0xbd95b371	-0.07309616
132	0xbcd7332c	-0.026269518
133	0xbd0dad02	-0.03458882
134	0xbceac407	-0.028657926
135	0xbe7e8062	-0.24853662
136	0xbddde42f	-0.10834538
137	0xbdce89ca	-0.10084875
138	0x3c8cc1b7	0.017182214
139	0x3da1b669	0.0789612
140	0xbd2d1f4a	-0.042266168
141	0xbe53f8e0	-0.20700407
142	0xbe3fd75f	-0.18734501
143	0xbe818042	-0.25293165
144	0xbe239431	-0.159745
145	0xbe9657ed	-0.29363957
146	0x3e1f0a6e	0.15531322
147	0xbc94453f	-0.018099425
148	0xbdc10d2d	-0.09426341
149	0xbe4608f5	-0.19339354
150	0xbe0704b0	-0.13185382
151	0x3e850313	0.25978908
152	0xbd87d2c9	-0.06632001
153	0xbda18c14	-0.07888046
154	0xbe8dc759	-0.27691153
155	0xbe3d7a7d	-0.18503757
156	0x3cdce3b9	0.026964055
157	0x3d8d9457	0.06913059
158	0x3d8f8768	0.070082486
159	0xbd009564	-0.03139247
160	0xbe01448f	-0.1262381
161	0xbe7f4f27	-0.24932538
162	0x3d03fc56	0.03222307
163	0xbdba48e8	-0.09095937
164	0xbdbff7b9	-0.09373421
165	0x3cf11433	0.029428577
166	0xbe8174ce	-0.25284427
167	0xbde52325	-0.11188344
168	0x3e389a91	0.18027712
169	0x3c4070cf	0.011745646
170	0xbecb6268	-0.39723516
171	0xbd84ddb6	-0.064876005
172	0x3e6710e8	0.22565043
173	0xbdaece1d	-0.08535407
174	0x3e34cf8d	0.176573
175	0xbd1a5f9e	-0.037688844
176	0xbd0441a6	-0.03228917
177	0xbd9aa90d	-0.07551775
178	0xbda8aaa9	-0.08235676
179	0x3d7e06b1	0.0620181
180	0xbeb0fcce	-0.34567875
181	0xbdb4dd70	-0.08831298
182	0xbe9afead	-0.30272427
183	0xbf19ab75	-0.6002725
184	0x3b619405	0.0034420502
185	0xbc96d770	-0.018413275
186	0xbd7748e2	-0.06037224
187	0xbd8d9e67	-0.069149785
188	0xbe07caa0	-0.13260889
189	0xbf570fe1	-0.84008604
190	0xbe57c750	-0.21072125
191	0xbf4b81f4	-0.7949517
192	0xbd845f99	-0.06463546
193	0xbf1221d6	-0.5708288
194	0xbb959aac	-0.0045655575
195	0x3d38ac7b	0.045086365
196	0xbe5841d4	-0.21118861
197	0xbe369ede	-0.1783404
198	0x3e897d39	0.2685335
199	0x3e0a7a06	0.13523111
200	0x3d15e02f	0.03659075
201	0xbd6dc817	-0.05805215
202	0xbedbedd7	-0.42954895
203	0xbe5c1926	-0.21493968
204	0xbdc5d411	-0.09659589
205	0xbd6ad91e	-0.057335965
206	0xbc684e13	-0.014178771
207	0x3c52488d	0.01283468
208	0xbdf16522	-0.11786868
209	0xbd3b1bdd	-0.04568087
210	0xbd2cd4f9	-0.042195294
211	0xbb81534d	-0.003946698
212	0xbd82eb27	-0.06392508
213	0xbdb46a48	-0.08809334
214	0xbd5885af	-0.052861866
215	0xbd3730e1	-0.04472435
216	0xbda8027f	-0.08203601
217	0xbd20518f	-0.03914028
218	0xbe9b4d30	-0.30332327
219	0x3ac06dd8	0.0014681173
220	0xbe157ef8	-0.14599216
221	0xbcb4d7f7	-0.022075636
222	0x3ba71818	0.0050993077
223	0xbec8a46c	-0.39187944
224	0x3d6fbbe3	0.058528792
225	0xbc60f09a	-0.013729239
226	0x3df29f22	0.118467584
227	0xbe90a99d	-0.28254405
228	0xbe509048	-0.20367539
229	0xbdbf7180	-0.0934782
230	0xbf130fc6	-0.57445943
231	0x3c98d7b7	0.018657548
232	0xbcf0e09f	-0.029403983
233	0xbe77afaa	-0.24188104
234	0xbe334158	-0.17505395
235	0x3df34acb	0.118795
236	0x3e2ccf44	0.1687594
237	0xbe2cde7d	-0.16881748
238	0x3d8b9cee	0.06817041
239	0x3cc3e850	0.023914486
240	0xbeb7e755	-0.3591868
241	0xbec3ec47	-0.38266203
242	0x3da463d5	0.08026854
243	0x3cc4a039	0.024002181
244	0xbca6c723	-0.020358628
245	0x3b03e1db	0.0020123634
246	0xbc21f471	-0.0098849395
247	0xbe10f810	-0.14157128
248	0xbd95031f	-0.07275986
249	0xbd6e536f	-0.058185037
250	0xbe3305bc	-0.17482656
251	0xbdc6d6c6	-0.097089335
252	0x3d46740f	0.048450526
253	0xbd571eed	-0.052519727
254	0xbe6a6550	-0.2289021
255	0xbc5b8f0a	-0.013400802

_rnn.weight_hh_l0_reverse f4 [384, 128]
0	0x3bfc867e	0.0077064624
1	0xbce960ab	-0.028488478
2	0xbd8cf87b	-0.068833314
3	0xbd095c86	-0.033535503
4	0xbb272624	-0.0025504911
5	0x3c658471	0.014008627
6	0x3bada33b	0.0052989996
7	0x3df32d94	0.11873928
8	0x3bae06ab	0.0053108535
9	0xbdabdc3d	-0.083916165
10	0xbdb934f1	-0.09043301
11	0x3d323469	0.043507013
12	0x3cbd4b6e	0.023107257
13	0xbd3bc9ff	-0.045846935
14	0xbc4b3d2e	-0.012404723
15	0x3b6e8f06	0.0036401167
16	0x3c3ca484	0.011513833
17	0xbb9963a5	-0.004681068
18	0x3da8cb2d	0.08241878
19	0x3db513f9	0.088417
20	0xbd0bab54	-0.034098938
21	0xbd69d772	-0.05709023
22	0x3d4a860c	0.049444243
23	0x3dd2f330	0.103002906
24	0x3ca4ff93	0.020141399
25	0xbc1d6b7c	-0.009608146
26	0x3d03eec3	0.032210123
27	0xbd595f46	-0.053069375
28	0x3da5d39c	0.08097002
29	0xbcfb4ce9	-0.030676322
30	0xbac365db	-0.0014907675
31	0x3c9713db	0.018442085
32	0xbd6dd925	-0.058068413
33	0xbd7a96e8	-0.06117907
34	0x3c3d4733	0.01155262
35	0xbcbab9a2	-0.022793595
36	0x3d137c52	0.036007233
37	0x3d9d9109	0.07693679
38	0xbd6b0429	-0.057377014
39	0xbc7c3f38	-0.015395932
40	0xbd9a4790	-0.07533181
41	0x3dcdeb66	0.10054664
42	0xbb8aa5b9	-0.0042311815
43	0x3cedd676	0.029032927
44	0xbd0b0219	-0.033937547
45	0xbdb0a3c8	-0.08624989
46	0x3cb298a5	0.021801302
47	0x3da450e0	0.08023238
48	0xbdbc15a2	-0.09183814
49	0x3dce867a	0.10084243
50	0xbd4d5d15	-0.050137598
51	0xbbe9f41c	-0.007139696
52	0xbd53d7f3	-0.051719617
53	0xbd55bf27	-0.05218425
54	0xbce17b01	-0.027524473
55	0x3c86e762	0.016467754
56	0xbd9323bb	-0.071845494
57	0xbca7105d	-0.020393545
58	0xbd253f04	-0.0403433
59	0xbcebfefc	-0.02880811
60	0xbdacc010	-0.084350705
61	0x3dc063eb	0.09394058
62	0x3c1cdb7e	0.009573815
63	0x3dd8715b	0.10568496
64	0x3d506746	0.05087974
65	0xbc636071	-0.013877974
66	0xbb98cdf7	-0.004663225
67	0xbdf3a4d7	-0.11896675
68	0x3d96433d	0.073370434
69	0x3c672c3e	0.014109669
70	0xbc6d1dab	-0.014472405
71	0x3c38912e	0.011265082
72	0x3dacee4a	0.084438875
73	0xbd52fcc1	-0.051510576
74	0x3c8af430	0.01696214
75	0x3e0803d9	0.13282718
76	0xbcd8397f	-0.026394604
77	0x3bd44aea	0.006478657
78	0xbc2d87c7	-0.010591454
79	0xbd21e661	-0.039526347
80	0x3da3438d	0.07971869
81	0xbd367cde	-0.044552676
82	0xbb46e928	-0.0030351374
83	0x3d8caff5	0.06869499
84	0x3dbe74bc	0.09299609
85	0xbdc50643	-0.09620335
86	0x3d1b9d59	0.037991855
87	0x3d7752c2	0.06038166
88	0x3cedb486	0.029016744
89	0xbdc82605	-0.09772877
90	0x3cde9ecb	0.027175328
91	0x3b88e3b3	0.0041775345
92	0xbdf37bbb	-0.11888834
93	0xbc35cb1e	-0.01109579
94	0xbd2949c4	-0.041330114
95	0xbd03708b	-0.03208975
96	0x3d867681	0.065655716
97	0x3d0172c7	0.0316036
98	0xbc731bbd	-0.014838156
99	0x3df914d9	0.121621795
100	0x3d2eca1e	0.042673223
101	0x3cc71b00	0.024304867
102	0x3d9080d2	0.070558205
103	0xbd461a3b	-0.04836486
104	0xbd4e76ea	-0.050406374
105	0x3d48b57b	0.0490012
106	0xbd83d3ca	-0.0643688
107	0x3d8f602e	0.07000767
108	0xbcc71ce4	-0.024305768
109	0xbc2d8cf4	-0.010592688
110	0x3da611ee	0.081088886
111	0xbcf0ddfa	-0.029402722
112	0x3d099ddc	0.033597812
113	0xbdd4f70c	-0.10398683
114	0xbdad00d0	-0.084474206
115	0x3d56c4e3	0.05243386
116	0x3cf48d02	0.029852394
117	0x3cceeea1	0.025260272
118	0xbd593964	-0.053033248
119	0x3da7a21b	0.08185216
120	0xbdcfc628	-0.10145217
121	0xbd377904	-0.044793144
122	0x3e085a16	0.13315615
123	0x3b388f6f	0.0028161665
124	0xbdaaaa82	-0.08333303
125	0xbd632490	-0.05545479
126	0xbd6c558b	-0.057698768
127	0x3cae3224	0.021264143
128	0xbd2f6eb4	-0.042830184
129	0xbdacb4b3	-0.08432903
130	0xbcce5f89	-0.02519204
131	0x3c643298	0.013928078
132	0x3c0b1290	0.008488312
133	0xbbbc6938	-0.0057498477
134	0xbdb1859f	-0.08668064
135	0xbd0b4e29	-0.034010086
136	0xbd6e3f45	-0.058165807
137	0xbc6e7e3b	-0.014556463
138	0xbd36d91e	-0.044640653
139	0xbbb0a0a3	-0.005390243
140	0xbbb49ca5	-0.0055118375
141	0xbdbd9906	-0.092577025
142	0x3d331a48	0.043726236
143	0x3c534c7b	0.012896652
144	0x3ce24fb3	0.027625894
145	0x3cadf43a	0.02123462
146	0xbc489b02	-0.012243988
147	0x3c96aa6f	0.018391816
148	0xbdc1b492	-0.09458269
149	0x3d559c7b	0.052151185
150	0x3da1ed78	0.07906622
151	0xbd2de595	-0.042455275
152	0x3d9264a4	0.07148102
153	0xbd20168d	-0.039084006
154	0x3d2aef93	0.041732382
155	0xbd17ac44	-0.03702952
156	0xbd50bf82	-0.050963886
157	0xbd07a688	-0.0331178
158	0x3d5d5412	0.054035254
159	0xbce86cb7	-0.028372152
160	0xbd8a195e	-0.0674312
161	0x3cbfb404	0.023401268
162	0xbd61739d	-0.055041898
163	0xbd248e0d	-0.040174533
164	0xbd3e8db4	-0.046521857
165	0xbd7467f6	-0.059669457
166	0xbd842857	-0.06453007
167	0x3cb6c3d3	0.022310173
168	0xbd2e9b86	-0.042628787
169	0x3c4ca87d	0.012491343
170	0x3d599ac3	0.053126108
171	0x3c014165	0.007889126
172	0x3dad1579	0.08451361
173	0x3dc167e6	0.09443645
174	0x39dda717	0.00042276896
175	0x3d04b4e1	0.032399062
176	0x3db725b0	0.08942735
177	0xbd9e68f7	-0.07734864
178	0xbd594806	-0.053047203
179	0x3d4399c6	0.04775407
180	0x3d61e990	0.055154383
181	0x3c9b5dbd	0.018965596
182	0x3c16d83d	0.009206829
183	0xbd955a3f	-0.07292604
184	0x3d0c82e0	0.0343045
185	0xbb84f05b	-0.004056973
186	0xbc36079e	-0.0111102145
187	0x3db6a545	0.089182414
188	0x3d426cca	0.04746703
189	0xbd6dc5a7	-0.058049824
190	0xbcb2ef8b	-0.021842739
191	0xbdc4b01b	-0.09603902
192	0x3d0caf52	0.034346886
193	0x3d44ecd4	0.04807742
194	0xbd46aba8	-0.048503548
195	0xbd579d32	-0.052640148
196	0x3d5f23cd	0.0544775
197	0xbda4d4b4	-0.080483824
198	0x3dbc2c8e	0.09188186
199	0x3c27bcdd	0.0102379
200	0x3d96e7b1	0.073684104
201	0x3c98f858	0.018673107
202	0x3c822399	0.015886115
203	0xbda609f0	-0.08107364
204	0xbbdcab8f	-0.0067343186
205	0x3d84755f	0.06467699
206	0xbcca1fc2	-0.024673346
207	0x3d8efc52	0.0698172
208	0xbadeecfd	-0.0017007884
209	0xbd431f2e	-0.047637157
210	0xbd1cc68d	-0.03827529
211	0xbd98e2bb	-0.074651204
212	0x3cb02a1b	0.021504452
213	0xbd3a58f5	-0.045494992
214	0x3d55fb19	0.05224142
215	0xbcc9c192	-0.024628434
216	0x3ce65f41	0.028121592
217	0x3d9b064d	0.07569561
218	0xbd8b9c86	-0.06816964
219	0xbd8c15fe	-0.06840132
220	0x3d82369d	0.06358073
221	0xbce0badb	-0.02743285
222	0xbd9416ab	-0.07230886
223	0xbd8ebc3a	-0.06969495
224	0xbda6e097	-0.08148306
225	0xbd6693fc	-0.056293473
226	0xbbbae11d	-0.005703105
227	0x3d4895d6	0.04897102
228	0x3c908826	0.017643046
229	0x3c85832e	0.016297903
230	0xbd3992ec	-0.04530613
231	0xbd7759fc	-0.06038855
232	0x3d20f152	0.03929264
233	0x3d6fa2a0	0.0585047
234	0x3d03ce88	0.032179385
235	0x3d8c3f05	0.068479575
236	0x3da9e50b	0.082956396
237	0x3cba6352	0.022752438
238	0xbd4abb3f	-0.049494978
239	0x3d70f114	0.05882366
240	0xbb1dd226	-0.0024081557
241	0xbc169781	-0.009191395
242	0xbb962c23	-0.004582898
243	0x3bd9683f	0.0066347416
244	0xbcff014b	-0.031128546
245	0x3d8996f2	0.06718244
246	0xbd8396e8	-0.064252675
247	0x3bd79002	0.0065784464
248	0xbd9a5e7b	-0.07537552
249	0x3c958da3	0.018256014
250	0xbd415f56	-0.04721006
251	0xbc48293c	-0.012216862
252	0x3d9d9c73	0.07695856
253	0x3b7516a2	0.0037397523
254	0x3ca8502d	0.020546043
255	0x3d0bf62a	0.034170307

_rnn.bias_ih_l0_reverse f4 [384]
0	0x3d573f0f	0.05255037
1	0x3e005168	0.12531054
2	0x3d96a6aa	0.073560074
3	0x3dd4ef93	0.10397258
4	0x3e0a72f8	0.1352042
5	0xbcb4700d	-0.022026086
6	0x3ca3c5cc	0.019991778
7	0x3d6b3659	0.057424877
8	0x3d586944	0.052834764
9	0x3d81e90f	0.063432805
10	0x3c090ce4	0.00836489
11	0x3c432c21	0.011912377
12	0xbd44e780	-0.048072338
13	0xbd9af5b8	-0.075663984
14	0x3da2a886	0.079422995
15	0x3c900eac	0.017585121
16	0xbd0572f7	-0.032580342
17	0xbdcf15c5	-0.10111574
18	0x3caaae67	0.020835115
19	0x3d7b8cdf	0.061413642
20	0x3e15c7fb	0.14627068
21	0xbda1c03d	-0.07897995
22	0x3c0d94d1	0.008641438
23	0x3e13d318	0.14435995
24	0xbd3ecc80	-0.046581745
25	0x3c378461	0.011200995
26	0x3d9c2771	0.0762471
27	0x3cf72434	0.03016863
28	0x3d83cae5	0.064351834
29	0x3c8d4ad7	0.0172476
30	0xbda1566f	-0.07877814
31	0x3d8c31aa	0.0684541
32	0x3d56d9c3	0.052453768
33	0x3d5ccfb8	0.053909034
34	0x3c5c7904	0.013456587
35	0x3ca5d36c	0.020242415
36	0x3d8a3d6f	0.06749999
37	0xbd852870	-0.065018535
38	0x3db41045	0.08792166
39	0xbdb04260	-0.0860641
40	0x3d1ad222	0.037798055
41	0xbc569172	-0.0130962
42	0x3da320a1	0.07965208
43	0x3d04a2c0	0.032381773
44	0x3dc8212f	0.09771954
45	0x3c40ea8b	0.011774669
46	0xbc89dd07	-0.016829027
47	0x3d3bbc47	0.045833852
48	0xbd857f27	-0.06518393
49	0x3b1369c5	0.0022493463
50	0x3bef03ac	0.007294139
51	0x3dc0c6d3	0.09412923
52	0x3c022baf	0.007944985
53	0xbd13d27b	-0.0360894
54	0xbd4c337d	-0.04985379
55	0x3da7030f	0.0815488
56	0x3d0e6af8	0.034769982
57	0xb95f57ba	-0.00021299618
58	0x3b74abda	0.0037333877
59	0xbc81b1c6	-0.01583184
60	0xbd43e0e6	-0.0478219
61	0xbc5e091c	-0.0135519765
62	0xbd5ecb8a	-0.05439333
63	0xbc237c31	-0.00997834
64	0xbd5b1060	-0.053482413
65	0x3cd79cec	0.026319943
66	0x3d8c40cb	0.06848296
67	0x3d595521	0.0530597
68	0xbc942acc	-0.018086813
69	0xbcd66048	-0.026168957
70	0x3e37632c	0.17908925
71	0xbbf7d0e2	-0.0075627426
72	0x3d83422e	0.06409107
73	0xbc26df6f	-0.010185107
74	0x3d2f673c	0.04282306
75	0x3c32c636	0.010911515
76	0xbd1e3af3	-0.038630437
77	0xbc94e0fb	-0.018173685
78	0x3d90488e	0.07045089
79	0xbbb109eb	-0.0054027936
80	0x3cf7600f	0.030197171
81	0xbd8e9cf5	-0.06963531
82	0x3df7d011	0.121002324
83	0xbd4ef6fe	-0.05052852
84	0x3bf2c34a	0.007408534
85	0xbb0ebd9c	-0.0021780496
86	0x3d21a6e2	0.039465792
87	0x3dc853c8	0.09781605
88	0x3c2f9eb8	0.010718994
89	0x3dd3c5a0	0.10340428
90	0xbbc297d0	-0.0059385076
91	0x3e2079bc	0.15671438
92	0x3d7750d2	0.06037981
93	0x3da9a357	0.08283108
94	0x3c202c96	0.009776255
95	0xbd356048	-0.044281274
96	0xbdb30289	-0.08740718
97	0x3c0b561f	0.00850442
98	0x3dbbf26d	0.091770984
99	0xbd658057	-0.056030598
100	0x3d08a073	0.03335614
101	0x3d9ce7a7	0.07661372
102	0xbd88b57a	-0.06675239
103	0xbd08094a	-0.033211984
104	0x3d3ea4e8	0.046543986
105	0xbcaa8864	-0.02081699
106	0xbd47db87	-0.048793342
107	0x3d9330b9	0.071870275
108	0xbb175e3d	-0.0023096942
109	0x3a1b514e	0.0005924896
110	0xbcbfdf8c	-0.023422025
111	0x3e27ebfd	0.16398616
112	0x3d1a797e	0.03771352
113	0x3d9891e5	0.07449702
114	0x3da85852	0.08219971
115	0x3bab1683	0.0052211895
116	0x3db13376	0.086523935
117	0x3d2802e6	0.04101839
118	0x3d2bc689	0.041937385
119	0x3c755cd5	0.014975746
120	0x3d86866a	0.06568606
121	0xbd0ea710	-0.034827292
122	0xbb34e40f	-0.0027601754
123	0x3d12beed	0.035826612
124	0xbd18441e	-0.037174337
125	0x3dac96a4	0.0842717
126	0x3d1eac02	0.03873826
127	0x3d76f991	0.0602966
128	0xbdc5fed0	-0.09667742
129	0xbc8240af	-0.015899984
130	0xbd4ce234	-0.05002041
131	0xbe00f7b2	-0.12594488
132	0xbe1da6a4	-0.153956
133	0xbccc6d66	-0.024954509
134	0xbdf74c3e	-0.12075089
135	0xbdee2129	-0.116274185
136	0xbdf9583c	-0.121750325
137	0xbd83f23b	-0.06442686
138	0xbdeb72e6	-0.114965245
139	0xbe6e6110	-0.23279214
140	0xbdd27d15	-0.10277764
141	0x3cb7e538	0.022448167
142	0xbeb2c2c1	-0.3491421
143	0xbe2ef256	-0.17084631
144	0xbe04c010	-0.12963891
145	0xbd904e0c	-0.07046136
146	0x3bd1144e	0.0063805943
147	0xbd9840d9	-0.07434244
148	0xbdb74428	-0.08948547
149	0xbe10ef87	-0.14153872
150	0xbdc17257	-0.09445637
151	0xbdf43778	-0.11924642
152	0x3d569f9e	0.052398317
153	0xbe79e327	-0.24403058
154	0xbda13c25	-0.078728
155	0x3d0cf35b	0.03441177
156	0xbd02d774	-0.031943753
157	0xbe74df44	-0.23913294
158	0x3c2bbfc6	0.010482734
159	0x3d0d574c	0.03450708
160	0xbd75c7aa	-0.060004868
161	0xbdd732d3	-0.10507741
162	0xbc077645	-0.008267944
163	0x3c52bb67	0.012862063
164	0xbde81358	-0.113318145
165	0xbdb75364	-0.089514524
166	0xbe85a6bf	-0.2610378
167	0xbe4045cf	-0.1877663
168	0xbe965ed3	-0.2936922
169	0xbeaf95c3	-0.34293947
170	0xbe9e7d49	-0.3095496
171	0x3aa624d8	0.0012675775
172	0xbdf535f4	-0.11973181
173	0xbed90da9	-0.42393234
174	0xbd0912f5	-0.033465344
175	0xbe12ebd9	-0.14347781
176	0xbd1c1087	-0.0381017
177	0xbe9ab4ba	-0.30216008
178	0xbe3548d6	-0.17703566
179	0xbcd11008	-0.02552034
180	0xbb40eea3	-0.0029439114
181	0xbdce5fef	-0.10076892
182	0xbd610d42	-0.054944284
183	0xbd958ef8	-0.0730266
184	0xbd00ac51	-0.031414334
185	0xbe4f8033	-0.20263748
186	0xbe1124d8	-0.14174211
187	0x3c7c0c55	0.0153838
188	0xbd8ef722	-0.069807306
189	0xbf07c931	-0.5304137
190	0xbd933e40	-0.071896076
191	0xbe15a80e	-0.14614889
192	0x3cdea2c8	0.02717723
193	0xbe7e5599	-0.2483734
194	0xbdbecd1d	-0.09316466
195	0xbe6fcf5a	-0.23418942
196	0xbde55fdf	-0.111999266
197	0xbe6313db	-0.22175543
198	0xbe6c5202	-0.23078158
199	0xbd30adc6	-0.043134473
200	0xbd554f60	-0.05207765
201	0xbecaa7f9	-0.39581278
202	0xbe549229	-0.2075888
203	0xbeb18dca	-0.3467849
204	0xbd08d215	-0.033403475
205	0xbd0eacc3	-0.034832727
206	0xbdf57422	-0.11985041
207	0xbcd84b56	-0.02640311
208	0xbda13138	-0.07870716
209	0xbe83469a	-0.25639802
210	0xbeb8f74b	-0.3612617
211	0xbe603e62	-0.21898797
212	0xbe7404ff	-0.23830031
213	0xbe3d8991	-0.18509509
214	0xbdb61590	-0.088908315
215	0x3db32483	0.087471984
216	0xbe7ac2fa	-0.2448844
217	0xbe53a58b	-0.20668618
218	0xbd69ee04	-0.057111755
219	0xbe8cbe84	-0.27489102
220	0xbed34a65	-0.41267696
221	0xbd06f867	-0.03295174
222	0xbdbcc435	-0.09217111
223	0xbe3e75da	-0.18599644
224	0xbcec4699	-0.028842257
225	0xbc5833a7	-0.013195909
226	0xbe05414e	-0.13013193
227	0xbe1efd65	-0.1552635
228	0xbdb435e9	-0.08799345
229	0xbe008289	-0.12549795
230	0xbeb1511c	-0.34632194
231	0xbe5b5b0f	-0.21421455
232	0x3df75b8e	0.120780095
233	0xbdc6c30e	-0.097051725
234	0xbdf7464c	-0.12073955
235	0xbe4ae320	-0.19813204
236	0xbda742ad	-0.08167014
237	0xbe2a653b	-0.16640179
238	0x3cb55a51	0.022137793
239	0xbea2ad69	-0.31772926
240	0xbe48045b	-0.19532911
241	0xbeb10c70	-0.34579802
242	0xbd2792b0	-0.040911376
243	0xbe94c053	-0.29052982
244	0xbe8ba34c	-0.27273023
245	0xbda4b125	-0.080416
246	0xbb878182	-0.0041353116
247	0xbe2e6919	-0.17032279
248	0xbdf02b33	-0.117269896
249	0xbd2a1ad6	-0.0415295
250	0xbeaf9122	-0.34290415
251	0xbea90b40	-0.33016396
252	0xbe91258b	-0.28348956
253	0xbdb9bc81	-0.090691574
254	0x3d3530bc	0.04423593
255	0xbd95ccd5	-0.07314459
